code/backend/core/resources/ckpt_q.pt (torch, 165042 bytes, 33 tensors)

weight f4 [128, 32]
5.8508564e-14 6.1337213e-16 -5.910422e-16 2.4860739e-15 -8.189841e-14 8.1695555e-14 9.485942e-15 -8.449724e-14
7.635743e-14 -1.5816138e-14 8.410205e-14 -1.9437765e-17 2.5578853e-15 1.68133e-17 -2.4734768e-15 -1.5952239e-15
5.1559153e-14 -6.9075833e-16 1.6100226e-14 -1.1373611e-15 -5.6625304e-14 3.5419631e-15 -1.7205357e-15 2.506074e-15
7.9803785e-14 8.281613e-14 -1.1486749e-15 7.194137e-14 -6.592558e-17 -5.0642135e-14 -3.8209063e-15 -3.3216648e-14
-4.8425727e-14 -9.119638e-15 -6.65467e-14 2.243891e-15 -5.5770953e-14 6.3537297e-15 -4.5408745e-14 5.072299e-14
7.9489087e-16 6.487434e-16 -7.469747e-19 8.016271e-14 8.807686e-16 4.9333828e-14 -2.229157e-15 -1.4709354e-15
5.0144405e-14 1.1828654e-15 4.1965536e-14 7.43728e-14 1.473263e-15 -1.4427356e-14 -2.131364e-14 8.4528684e-14
4.7453957e-14 1.074441e-14 4.7821014e-14 -4.4052977e-16 -4.783061e-14 4.457981e-16 5.290849e-18 -7.222777e-16
7.025471e-15 7.269687e-14 6.76841e-17 1.5066236e-14 -4.8990895e-15 1.2501063e-16 7.990033e-14 4.7575723e-16
6.214884e-15 -2.7748352e-14 1.0962758e-15 2.2150674e-15 -6.806791e-17 -4.8580145e-14 -2.4836395e-15 -6.285638e-17
8.101972e-14 -1.3514397e-14 -1.3160351e-15 -1.9584859e-15 7.9661375e-14 -4.269534e-14 -7.841251e-16 -2.2865824e-15
-2.5034948e-16 3.734838e-14 1.1025603e-15 2.088015e-15 -6.403987e-17 -8.4471547e-14 -4.8930288e-14 2.0470982e-15
-6.075763e-16 -1.0207547e-15 1.2701333e-12 -2.3650388e-16 2.3359078e-17 4.190802e-14 -1.3106996e-15 -6.3432153e-17
-8.339477e-14 -1.4107257e-12 -5.0911125e-14 5.733986e-15 -4.7316887e-14 2.256775e-14 -4.8783758e-14 3.7638512e-14
7.0455195e-17 2.1934818e-16 8.3682735e-14 -3.6670237e-16 8.457276e-14 -7.511786e-14 -1.8918596e-14 -4.043879e-14
-2.4514516e-14 9.562643e-15 8.2689335e-14 -2.4576796e-15 2.4828043e-15 -2.5825526e-15 1.6672753e-16 4.8390003e-14
3.951814e-14 5.1532427e-14 -1.1241828e-14 -3.6903206e-14 5.5322256e-14 1.6289697e-14 8.3660455e-14 -2.132862e-15
3.0716925e-14 -1.1642556e-14 7.2357105e-14 -1.4033306e-12 6.9493497e-15 -6.596176e-16 -3.7949136e-14 -7.5597785e-14
-1.2057006e-15 -6.5243454e-17 -4.883675e-14 -1.5101757e-14 -3.9032254e-14 -2.7002394e-14 -1.464297e-14 -4.1465312e-16
1.9637646e-15 -1.3699215e-12 -4.13322e-14 -2.3365298e-17 5.570639e-14 -1.4496181e-15 -1.2237972e-17 -8.358123e-16
-6.5240383e-16 2.1664917e-15 -1.303488e-15 -2.5431334e-15 2.4358008e-15 8.879802e-16 5.84659e-16 2.1226804e-16
1.1110044e-15 -4.903898e-14 2.5952056e-15 4.8335197e-14 -8.1597384e-17 -3.860645e-16 -8.207405e-14 2.4233257e-15
-9.314763e-17 -2.1356826e-15 7.155634e-14 -2.4443486e-16 6.847596e-14 -4.6946843e-16 4.198169e-14 -1.61332e-14
-6.1512264e-14 -3.5213764e-16 -4.0688075e-14 2.3404537e-15 5.2332054e-14 -8.817828e-19 8.253408e-14 7.395804e-14
9.348221e-17 -8.229107e-16 -2.2958235e-15 -7.968826e-14 -8.1176765e-14 -4.3687276e-14 -4.3033367e-14 -9.731977e-16
1.9272863e-15 -8.131164e-14 8.456452e-14 5.3303526e-14 7.321642e-14 -9.3177595e-17 -5.230999e-14 2.21121e-15
-1.5875439e-15 3.2948145e-14 1.3641039e-14 -7.1277755e-15 -3.3802917e-14 -2.544074e-16 1.5147236e-15 -8.2310244e-14
-8.370236e-14 8.4316126e-14 -7.4707713e-16 1.2500582e-12 4.0641657e-16 9.657483e-15 -1.8241993e-17 -1.0717477e-18
6.4622624e-14 1.5040569e-15 2.0884031e-16 3.2639144e-16 -1.2615724e-12 9.642564e-16 7.86297e-14 4.706584e-14
1.3461158e-15 1.8551387e-16 9.417038e-19 -4.157121e-14 -8.4201885e-15 1.541701e-14 6.929112e-14 -3.96451e-14
-6.04772e-17 -5.6207236e-14 -1.732716e-15 6.364188e-14 8.997112e-16 -8.95897e-16 -5.1167404e-14 -9.952251e-17
8.392572e-15 8.0927886e-14 8.452619e-14 -1.7112051e-14 -4.8971705e-14 2.611105e-16 6.558244e-14 -4.3838468e-14
00000000: e4bf 8329 e0ca 3026 385b 2aa6 f823 3327
00000010: 386b b8a9 48f6 b729 30e2 2a28 5845 bea9
00000020: 10f1 ab29 8875 8ea8 8861 bd29 2048 b3a3
00000030: a850 3827 4813 9b23 983b 32a7 60e5 e5a6
00000040: a833 6829 f818 47a6 9804 9128 38e9 a3a6
00000050: 8804 7fa9 b039 7f27 90f4 f7a6 e894 3427
00000060: c0b3 b329 407c ba29 a08a a5a6 60ff a129
00000070: 9803 98a4 6812 64a9 a4a9 89a7 3098 15a9
00000080: 1017 5aa9 e848 24a8 90d9 95a9 7cb0 2127
00000090: 882b 7ba9 d0ea e427 b880 4ca9 a06f 6429
000000a0: 981c 6526 d0fc 3a26 d077 5ca1 a882 b429
000000b0: 40dd 7d26 082e 5e29 b0a0 20a7 f0fb d3a6
000000c0: 90d4 6129 0878 aa26 f8fe 3c29 0079 a729
000000d0: d051 d426 38f3 81a8 e8f9 bfa8 7857 be29
000000e0: b0b6 5529 d88d 4128 e05d 5729 b8f2 fda5
000000f0: f068 57a9 187e 0026 a832 c322 b02e 50a6
00000100: 881e fd27 e4b2 a329 a411 9c24 60b4 8728
00000110: 2082 b0a7 a020 1025 68eb b329 b020 0926
00000120: 30ea df27 58ef f9a8 70fd 9d26 c89c 1f27
00000130: 34f4 9ca4 18c9 5aa9 10f7 32a7 dcef 90a4
00000140: b070 b629 2874 73a8 20a9 bda6 b01f 0da7
00000150: a861 b329 6048 40a9 3802 62a6 00c4 24a7
00000160: 1051 90a5 c033 2829 4ce5 9e26 1475 1627
00000170: 78aa 93a4 8836 bea9 c85c 5ca9 4c82 1327
00000180: 381f 2fa6 341b 93a6 60c1 b22b d055 88a5
00000190: 1073 d723 a8bc 3c29 48e4 bca6 bc43 92a4
000001a0: d0c9 bba9 c08a c6ab 8848 65a9 b096 ce27
000001b0: a818 55a9 b045 cb28 d8b3 5ba9 4082 2929
000001c0: 6875 a224 28e4 7c25 d06f bc29 b863 d3a5
000001d0: e070 be29 8026 a9a9 5067 aaa8 c01e 36a9
000001e0: a0ce dca8 e843 2c28 2833 ba29 3018 31a7
000001f0: a8e7 3227 b017 3aa7 4839 4025 e0ed 5929
00000200: 50f9 3129 d814 6829 c883 4aa8 8032 26a9
00000210: 3826 7929 7cb9 9228 f862 bc29 5cb0 19a7
00000220: 3456 0a29 d0bb 51a8 08ef a229 5080 c5ab
00000230: 7060 fa27 301f 3ea6 60e8 2aa9 283b aaa9
00000240: 80c2 ada6 f070 96a4 f0f0 5ba9 4806 88a8
00000250: 20c9 2fa9 4837 f3a8 64e4 83a8 0008 efa5
00000260: 1081 0d27 a0cc c0ab c824 3aa9 c081 d7a3
00000270: 18e1 7a29 78e9 d0a6 30c0 61a3 10e8 70a6
00000280: e80a 3ca6 b81c 1c27 38da bba6 8840 37a7
00000290: 9884 2f27 60f1 7f26 3884 2826 78ba 7425
000002a0: d41c a026 18da 5ca9 1801 3b27 b0ae 5929
000002b0: 9826 bca4 108d dea5 78d0 b8a9 789e 2e27
000002c0: a8c8 d6a4 64e4 19a7 6c21 a129 38e8 8ca5
000002d0: b431 9a29 a850 07a6 9811 3d29 a050 91a8
000002e0: 6883 8aa9 58fe caa5 283e 37a9 c0a5 2827
000002f0: c0ae 6b29 d020 82a1 a8d9 b929 e889 a629
00000300: 288e d724 1830 6da6 786e 25a7 2871 b3a9
00000310: 38cb b6a9 00c0 44a9 18ce 41a9 a840 8ca6
00000320: 28e0 0a27 f818 b7a9 206c be29 c80e 7029
00000330: 64de a429 58da d6a4 5095 6ba9 a055 1f27
00000340: 08ca e4a6 a062 1429 30bc 7528 1067 00a8
00000350: 1c3c 18a9 e8a7 92a5 704b da26 a058 b9a9
00000360: 207b bca9 f0dc bd29 9054 57a6 18ee af2b
00000370: 8048 ea25 48f9 2d28 b040 a8a3 7c29 9ea1
00000380: 6884 9129 e8c1 d826 c8c6 7025 e026 bc25
00000390: f08c b1ab c8f6 8a26 f00e b129 38f7 5329
000003a0: e8fe c126 08e2 5525 90f8 8a21 5838 3ba9
000003b0: 44af 17a8 34dd 8a28 9c07 9c29 b08b 32a9
000003c0: 7073 8ba4 8822 7da9 f0b5 f9a6 0c4f 8f29
000003d0: 7ca9 8126 c41c 81a6 0070 66a9 b87b e5a4
000003e0: e82f 1728 c03b b629 0856 be29 b421 9aa8
000003f0: 888c 5ca9 1c85 9625 b4ad 9329 506e 45a9

weight f4 [4, 1, 3, 1]
0.19243146 -0.30831903 0.35254768 -0.14330308 -0.38123822 0.034823243 0.062637806 -0.50745714
-0.3832639 0.34665227 0.10590744 0.41316378
00000000: c10c 453e fedb 9dbe 2181 b43e 0bbe 12be
00000010: a831 c3be d1a2 0e3d 4048 803d b6e8 01bf
00000020: 2a3b c4be 687c b13e 00e6 d83d 348a d33e

bias f4 [4]
-0.3827201 -0.4187824 -0.35334042 0.51779383
00000000: e4f3 c3be a66a d6be 09e9 b4be 238e 043f

weight f4 [4]
1.0 1.0 1.0 1.0
00000000: 0000 803f 0000 803f 0000 803f 0000 803f

bias f4 [4]
0.0 0.0 0.0 0.0
00000000: 0000 0000 0000 0000 0000 0000 0000 0000

running_mean f4 [4]
0.0 0.0 0.0 0.0
00000000: 0000 0000 0000 0000 0000 0000 0000 0000

running_var f4 [4]
1.0 1.0 1.0 1.0
00000000: 0000 803f 0000 803f 0000 803f 0000 803f

weight f4 [1, 4, 3, 1]
0.023210058 0.2957206 -0.18373312 0.1983515 0.2717802 0.17641643 0.08903164 -0.31517056
-0.35212916 -0.21101165 -0.16293024 0.24489413
00000000: 0523 be3c b168 973e 8924 3cbe a81c 4b3e
00000010: c626 8b3e 82a6 343e 3856 b63d 095e a1be
00000020: 464a b4be 7013 58be 2fd7 26be 87c5 7a3e

weight f4 [16, 1, 3, 1]
0.16039884 0.08541791 0.53121734 -0.23014101 0.30286834 0.5245698 0.039493613 -0.37627277
0.27511728 -0.602206 -0.17263469 0.18116029 -0.22511183 -0.43529022 -0.04303144 -0.4049082
-0.66982585 -0.64968777 -0.5140531 -0.66946554 -0.7139067 -0.63906884 0.14054562 0.3718777
-0.15336958 -0.48616296 -0.18039624 -0.072003804 -0.73144644 -0.39344266 -0.32204297 0.19921532
0.74941033 -0.2646725 -0.27749792 -0.39055833 -0.31612366 0.4855795 0.54892087 0.28579763
0.45846897 0.48130402 -0.14982352 0.0014392532 -0.18656392 -0.087765746 -0.6533436 -0.4779838
00000000: 983f 243e 96ef ae3d dcfd 073f 16aa 6bbe
00000010: 8f11 9b3e 354a 063f 0ec4 213d d3a6 c0be
00000020: 2cdc 8c3e 2c2a 1abf 26c7 30be 1582 393e
00000030: b783 66be 5cde debe bc41 30bd 2150 cfbe
00000040: b579 2bbf f051 26bf fc98 03bf 1862 2bbf
00000050: 97c2 36bf 049a 23bf 31eb 0f3e c166 be3e
00000060: ea0c 1dbe 5aea f8be cbb9 38be bb76 93bd
00000070: 1340 3bbf 5171 c9be d1e2 a4be 1aff 4b3e
00000080: 5bd9 3f3f 2783 87be 3514 8ebe 43f7 c7be
00000090: f6da a1be e09d f83e 1486 0c3f 1154 923e
000000a0: 72bc ea3e 7b6d f63e 566b 19be 53a5 bc3a
000000b0: 9d0a 3fbe 87be b3bd 8741 27bf 4bba f4be

bias f4 [16]
-0.10061608 -0.29197687 -0.7280198 0.42628664 0.5916933 0.6261345 0.24302074 0.6213438
0.53158605 0.57306784 -0.24371535 0.40134707 -0.14018318 0.14272156 0.5000014 -0.022206375
00000000: ce0f cebd fe7d 95be 815f 3abf 3e42 da3e
00000010: 3679 173f 5a4a 203f 6eda 783e 6310 1f3f
00000020: 0616 083f 93b4 123f 8490 79be 5d7d cd3e
00000030: 2e8c 0fbe 9a25 123e 1700 003f 25ea b5bc

weight f4 [16, 1, 3, 1]
0.0934648 -0.13022725 -0.34356827 -0.14232971 0.34096748 -0.4243149 -0.13778085 0.33456293
0.34635115 0.16518436 -0.5535553 0.12059494 0.32603917 0.12728526 0.124789916 -0.2028061
0.06179735 -0.268697 -0.19417156 -0.41909763 0.1109417 -0.0399404 -0.45572186 -0.4862262
-0.03670084 -0.65016484 -0.34298658 -0.5606492 -0.6238374 0.115894094 0.2888854 0.27010486
-0.64746493 0.5771577 -0.2938933 0.26036674 0.19487691 0.09229258 -0.040580574 0.39616498
-0.63663465 -0.2213274 0.029431002 -0.019521596 0.3174739 -0.5743872 -0.18492147 -0.30056775
00000000: 796a bf3d 4b5a 05be 2ee8 afbe e1be 11be
00000010: 4a93 ae3e cd3f d9be 6c16 0dbe d54b ab3e
00000020: f054 b13e 1726 293e cdb5 0dbf 7bfa f63d
00000030: 9bee a63e 1157 023e db91 ff3d 67ac 4fbe
00000040: 381f 7d3d a792 89be e9d4 46be f793 d6be
00000050: 6735 e33d 8b98 23bd 6054 e9be a4f2 f8be
00000060: 9f53 16bd 3471 26bf f09b afbe b586 0fbf
00000070: cfb3 1fbf e259 ed3d cae8 933e 2f4b 8a3e
00000080: 43c0 25bf 9bc0 133f 2f79 96be ca4e 853e
00000090: d08d 473e e403 bd3d d137 26bd 23d6 ca3e
000000a0: 7dfa 22bf a6a3 62be 4919 f13c c1eb 9fbc
000000b0: f08b a23e 0a0b 13bf 0e5c 3dbe 04e4 99be

bias f4 [16]
-0.1986192 0.15901437 -0.19928719 0.14869039 -0.16548315 0.76982427 -0.13468733 0.13452306
0.36198455 -0.20828952 0.056558464 -0.680151 -0.34321982 -0.10054248 0.7994629 0.21642183
00000000: d562 4bbe aad4 223e f111 4cbe 4b42 183e
00000010: 6a74 29be 3413 453f 7aeb 09be 6ac0 093e
00000020: 0a56 b93e d949 55be d9a9 673d 601e 2ebf
00000030: 82ba afbe 37e9 cdbd 9aa9 4c3f af9d 5d3e

weight f4 [1, 16, 1, 1]
-0.056073774 -0.23623337 -0.45010898 0.3292689 0.4434373 0.48885274 0.24364087 0.4821776
0.42875984 0.5133539 -0.34876636 0.09695635 -0.051543847 -0.010185701 0.41482925 0.18904991
00000000: 9dad 65bd 29e7 71be af74 e6be ef95 a83e
00000010: 370a e33e e84a fa3e fe7c 793e fbdf f63e
00000020: 6986 db3e 296b 033f 8191 b2be 0d91 c63d
00000030: a41f 53bd ede1 26bc 8064 d43e 4d96 413e

weight f4 [221, 32]
-0.20479445 0.12688656 -0.12221989 -0.0024545314 -1.2758421e-05 -0.060005084 -0.21787812 0.11807128
0.0823807 -0.0075160637 0.25597814 -0.0060045384 -0.08571183 0.07313209 -0.0046015615 -0.0037485166
0.1567746 -0.108619936 0.12717602 0.19756456 0.12543947 0.0010399973 0.22518425 0.11609151
-0.022745552 -0.073711 -0.015671305 -0.07551586 -0.07493667 0.049028788 0.08204034 0.21221785
-1.3284334e-09 3.958524e-13 4.7590626e-11 -2.228385e-12 -4.6874393e-11 1.3711707e-09 1.497007e-09 3.4756004e-11
-6.954859e-14 1.1801604e-09 9.577464e-12 -7.663155e-12 -5.3605287e-11 -2.3018957e-12 -5.3857557e-11 -5.0358412e-11
-8.524759e-11 -2.4707916e-11 -8.664036e-11 -6.373477e-11 -3.8823523e-13 -3.4298453e-11 -1.4958106e-09 5.9126176e-11
7.802717e-13 -3.7971154e-11 8.097978e-11 1.0263962e-10 8.94862e-12 -2.2807372e-12 8.760975e-11 4.45059e-11
0.042145696 -0.116065435 0.056542486 -0.03961244 0.0077077863 -0.19714431 0.03513556 0.3044135
-0.03433677 0.0064124614 0.0035758847 0.19502777 -0.15521024 -0.056550626 0.2069495 -0.24223699
0.20842221 -0.22896598 -0.13519393 0.18851304 0.019871261 0.32802072 0.19809468 0.04759038
0.04232995 -0.12899795 -0.32432246 -0.05668564 -0.2760704 0.085687794 0.2975536 0.0064938
0.13194759 -0.13747531 0.01380315 -0.06019932 -0.11211014 0.011154316 -0.20954327 -0.07509379
-0.10453511 -0.17200774 -0.012416995 -0.067567326 0.17086539 -0.03350565 -0.052091736 0.0876911
-0.14781448 0.099791124 0.033276275 0.00406087 0.018941516 -0.14519893 0.046769146 -0.17284277
-0.09949369 -0.20238303 0.12876552 -0.19333242 -0.07082826 -0.20473197 0.111676425 -0.15459517
1.4708803e-15 4.9540694e-14 -2.1799633e-14 1.4198278e-12 4.0647363e-14 -7.9345005e-14 5.2098462e-14 2.4195544e-14
8.848477e-17 -4.3641604e-14 -9.946877e-15 8.8543674e-15 9.799375e-16 8.514443e-16 -8.3734126e-14 -8.4241425e-14
5.5097745e-14 -4.9867256e-14 5.945586e-14 -4.618606e-16 2.888896e-17 -6.8344293e-16 7.395907e-14 2.2716932e-15
1.1483243e-15 2.1265365e-14 4.0591472e-14 -2.1266897e-15 1.2664249e-16 -4.6320357e-19 -2.55972e-15 -6.912697e-14
-0.06681341 -0.022810806 -0.072098665 -0.0850041 0.0837823 -0.05501466 -0.06016998 -0.007156637
0.043830786 0.06721905 0.11413224 -0.0015741434 -0.057308853 0.07723732 -0.21346632 -0.07057217
-0.056906704 -0.03929403 -0.15912795 -0.035352305 -0.17026624 0.04979616 0.08552109 0.09091797
0.17823952 0.050235856 -0.11991468 0.122759774 0.13145648 -0.012958589 0.00043020456 0.08870857
-0.04656005 0.16921309 0.108561575 -0.22199373 0.052647755 -0.0127516985 -0.21200742 -0.04926476
-0.2051761 -0.08352366 -0.11417717 -0.12222884 0.09747813 -0.025319105 -0.026247678 0.10116933
-0.2034066 0.21884756 0.24808602 -0.25791338 0.14884908 -0.18567236 0.013843626 0.115000956
0.14509015 0.16555674 0.15792008 0.007090523 -0.21861842 -0.22267647 0.19680484 -0.15297385
-0.36319408 0.23135848 -0.12646501 -0.07796399 0.03343919 0.5931373 0.15127681 -0.09854231
0.1949552 0.22681971 0.33482134 -0.0008880304 -0.19685307 0.16347058 -0.43591344 -0.15546326
-0.111685045 -0.23356831 -0.21781328 0.3818738 -0.12765801 0.044071622 -0.4656656 0.30687675
0.027856587 0.38099363 -0.2920381 0.25500602 0.26566777 -0.17951836 -0.5377215 0.39700308
00000000: a3b5 51be 8dee 013e 6c4e fabd 34dc 20bb
00000010: 000d 56b7 e4c7 75bd 711b 5fbe 5bcf f13d
00000020: 36b7 a83d 5049 f6bb 910f 833e b8c1 c4bb
00000030: af89 afbd 47c6 953d b2c8 96bb aca9 75bb
00000040: 8589 203e 2174 debd 6e3a 023e 5d4e 4a3e
00000050: 3473 003e 8550 883a b396 663e 63c1 ed3d
00000060: e154 babc cbf5 96bd 1c61 80bc 0fa8 9abd
00000070: 6678 99bd 69d2 483d c404 a83d a34f 593e
00000080: 1894 b6b0 58d8 de2a 484e 512e 04cf 1cac
00000090: e027 4eae c873 bc30 40bf cd30 c8db 182e
000000a0: 089c 9ca9 3433 a230 107d 282d c8cf 06ad
000000b0: 30c2 6bae 44fb 21ac 38de 6cae 887a 5dae
000000c0: 2076 bbae 4855 d9ad 3086 beae 7c27 8cae
000000d0: 988e daaa a0d8 16ae 2895 cdb0 1405 822e
000000e0: 80a0 5b2b b8ff 26ae 9013 b22e f8b4 e12e
000000f0: 006d 1d2d 1c7e 20ac e8a7 c02e 30bd 432e
00000100: f7a0 2c3d b7b3 edbd 1899 673d a740 22bd
00000110: 9991 fc3b 33e0 49be 4eea 0f3d 16dc 9b3e
00000120: b7a4 0cbd a01f d23b 6459 6a3b 5cb5 473e
00000130: 6fef 1ebe a1a1 67bd 92ea 533e f90c 78be
00000140: a26c 553e 0f76 6abe 4770 0abe 9009 413e
00000150: 0ec9 a23c 55f2 a73e 55d9 4a3e 21ee 423d
00000160: 2b62 2d3d 0a18 04be 980d a6be 342f 68bd
00000170: 1959 8dbe 157d af3d f258 983e f1c9 d43b
00000180: 451d 073e 54c6 0cbe 9b26 623c 9093 76bd
00000190: 009a e5bd 98c0 363c 8392 56be c6ca 99bd
000001a0: 8116 d6bd cc22 30be a770 4bbc bd60 8abd
000001b0: 56f7 2e3e 383d 09bd 255e 55bd 6497 b33d
000001c0: ae5c 17be 4a5f cc3d b44c 083d 0c11 853b
000001d0: 3d2b 9b3c 07af 14be 0191 3f3d b2fd 30be
000001e0: 59c3 cbbd 7f3d 4fbe 1cdb 033e eff8 45be
000001f0: 680e 91bd 42a5 51be 9cb6 e43d 324e 1ebe
00000200: e8f9 d326 881c 5f29 885a c4a8 b0d2 c72b
00000210: 380f 3729 48ab b2a9 70a1 6a29 20ef d928
00000220: 3008 cc24 588b 44a9 e02f 33a8 9081 1f28
00000230: 5039 8d26 8069 7526 708d bca9 e0b1 bda9
00000240: 6023 7829 0895 60a9 f8e1 8529 4c1f 05a6
00000250: 103a 0524 30fd 44a6 808a a629 58b1 2327
00000260: b07d a526 988a bf28 c8ce 3629 803e 19a7
00000270: 4402 1225 acb6 08a1 8072 38a7 fca8 9ba9
00000280: 78d5 88bd badd babc 77a8 93bd a116 aebd
00000290: 0e96 ab3d 0d57 61bd cc74 76bd 3982 eabb
000002a0: e987 333d 24aa 893d 2abe e93d 7d53 ceba
000002b0: b0bc 6abd 9a2e 9e3d ea96 5abe 2488 90bd
000002c0: 0117 69bd c7f2 20bd 70f2 22be 94cd 10bd
000002d0: 465a 2ebe 0ff7 4b3d ae25 af3d 3333 ba3d
000002e0: 6c84 363e 1dc4 4d3d d495 f5bd 7a69 fb3d
000002f0: 879c 063e 4350 54bc 148d e139 d7ac b53d
00000300: c0b5 3ebd 3246 2d3e 8855 de3d 5352 63be
00000310: 2ca5 573d 80ec 50bc 7918 59be d8c9 49bd
00000320: af19 52be 740e abbd b8d5 e9bd 1d53 fabd
00000330: 9da2 c73d 036a cfbc 5f05 d7bc de31 cf3d
00000340: d249 50be 9319 603e 430a 7e3e 390d 84be
00000350: e56b 183e e520 3ebe 60d0 623c 9f85 eb3d
00000360: 8392 143e b587 293e cdb5 213e 9e57 e83b
00000370: 82dd 5fbe 4d05 64be 3587 493e 2da5 1cbe
00000380: 93f4 b9be 3de9 6c3e 0b80 01be 96ab 9fbd
00000390: 88f7 083d d9d7 173f 4fe8 1a3e 8dd0 c9bd
000003a0: 56a2 473e 6d43 683e b46d ab3e b6ca 68ba
000003b0: da93 49be d564 273e 0c30 dfbe c331 1fbe
000003c0: 21bb e4bd 882c 6fbe 720a 5fbe f684 c33e
000003d0: c8b8 02be 7284 343d b96b eebe f31e 9d3e
000003e0: 7f33 e43c 9911 c33e 0586 95be 2690 823e
000003f0: 9b05 883e a9d3 37be 1ea8 09bf fd43 cb3e

weight f4 [32, 32]
0.22735843 -0.14836426 0.14629026 0.032251876 -0.08375 -0.3010226 0.068871155 0.10488438
-0.36698636 -0.19370867 -0.34314758 0.026921501 0.5044718 -0.22278392 0.42229244 0.44457814
0.02965888 0.030016204 0.36501092 0.057313297 0.50931597 -0.18932685 -0.06237076 -0.3607599
-0.15661806 -0.3200849 0.29140958 -0.29416418 -0.49482197 0.101302736 0.16164193 -0.19147919
-0.06398917 -0.26467565 -0.14174102 -0.30550697 -0.012245783 -0.10142871 -0.045552347 -0.15768895
0.057293735 -0.12875009 0.32328865 0.026976993 -0.34851152 0.021057354 -0.14046901 -0.4158734
-0.16398747 0.07901614 -0.543272 -0.06450039 -0.58294886 -0.15227124 0.1627975 0.17237133
-0.032964513 0.32114235 -0.3826957 -0.0039314167 0.4339837 0.022675153 0.0044036265 0.28245127
-0.084361464 -0.14874524 -0.48776498 -0.031150963 0.0026903371 0.120159425 0.19953392 -0.14657497
0.09836189 0.058336336 0.36599433 0.009218488 -0.31185666 0.17721069 -0.15698175 -0.16616671
0.14595105 -0.42505214 -0.5655469 0.13071501 -0.5853187 0.27679247 0.10087229 0.105168596
0.3806164 0.2992181 -0.1895694 0.2269877 0.2553385 -0.111702256 -0.13481425 0.27332324
-0.06761062 0.21771403 -0.26921323 -0.073561154 0.18094899 0.17897183 0.035830237 0.33477175
0.010127982 0.18295565 0.15158655 -0.028230133 0.079171315 0.0241339 -0.24063574 -0.36614755
-0.027285013 -0.2536573 -0.044479523 -0.14664589 -0.13849959 0.1641301 -0.017180303 0.34784713
-0.00084999995 -0.019325128 -0.39084858 -0.21806248 0.085260354 0.13327749 0.063210875 0.19275005
-0.046945725 -0.085137464 0.0045010536 0.15833716 0.16101559 -0.026437055 -0.0851915 0.040364563
-0.06922286 0.05810119 0.33418387 0.15748948 -0.20022142 0.34994394 -0.00312698 -0.17814521
0.04778666 -0.34307837 -0.12544578 -0.15102953 -0.4293416 0.388619 -0.035231628 0.20872922
0.06958196 0.08609542 -0.2707952 0.19942181 0.19478498 -0.047753263 -0.16051279 0.3842653
0.09386856 -0.028093234 0.24367288 0.16884984 -0.08383063 0.076319784 -0.26013035 -0.17509004
0.056119226 0.11790978 -0.35982534 -0.047543447 0.1526054 -0.33986995 0.24203247 0.21809484
0.095724314 0.034007885 0.10889552 -0.23719034 0.07873366 -0.1719886 0.057084046 -0.08235215
0.03362965 -0.25392455 0.07880574 -0.018815856 -0.39796615 -0.10257295 0.03748669 -0.09556783
0.22280814 -0.25999212 0.31580484 0.022860292 0.07639333 -0.3303508 -0.118952945 -0.08363827
-0.13332067 -0.0403244 -0.49145103 -0.32393175 0.42635366 -0.37426496 0.41412595 0.17792872
-0.117904246 0.37064636 0.23592317 -0.15699747 0.45140773 -0.4016733 0.3320362 -0.20762797
-0.12308847 -0.38410652 0.43450144 -0.18130302 -0.5245435 -0.23956828 0.12676187 -0.32925215
0.20099294 -0.12774584 0.41188687 0.09808192 -0.118141815 0.06498682 -0.3186519 0.03762397
-0.13670398 0.20201227 -0.3635481 0.19856524 0.119351454 -0.36432528 0.10642939 0.06060845
0.09493471 0.381784 0.25499165 0.13498795 0.46830136 0.08580956 0.09157698 -0.16313305
-0.34815633 -0.23617442 0.3266039 -0.19535202 -0.35847938 -0.053873625 0.25574195 -0.06564578
00000000: a6d0 683e cdec 17be 1dcd 153e 8b1a 043d
00000010: 1f85 abbd a21f 9abe 520c 8d3d 9fcd d63d
00000020: a3e5 bbbe 915b 46be 0ab1 afbe 7b8a dc3c
00000030: 1025 013f 7821 64be b736 d83e bf9f e33e
00000040: 2ef7 f23c 8be4 f53c b6e2 ba3e 59c1 6a3d
00000050: 8862 023f e6de 41be 7b78 7fbd 86b5 b8be
00000060: 7c60 20be 2be2 a3be a333 953e b09c 96be
00000070: 4e59 fdbe cf77 cf3d 7685 253e 1f13 44be
00000080: c10c 83bd 9183 87be 8f24 11be 696b 9cbe
00000090: 89a2 48bc dbb9 cfbd 1995 3abd 3679 21be
000000a0: d6ac 6a3d 10d7 03be 1786 a53e dbfe dc3c
000000b0: 1a70 b2be 7980 ac3c 1cd7 0fbe 5ced d4be
000000c0: 55ec 27be 37d3 a13d e013 0bbf c818 84bd
000000d0: 233c 15bf feec 1bbe 63b4 263e 1c82 303e
000000e0: cc05 07bd c56c a43e b1f0 c3be 1dd3 80bb
000000f0: 1d33 de3e 3ec1 b93c 4c4c 903b 749d 903e
00000100: b4c5 acbd ac50 18be 55bc f9be 4e30 ffbc
00000110: 5e50 303b 2516 f63d 9f52 4c3e c017 16be
00000120: f571 c93d 15f2 6e3d 9c63 bb3e 2409 173c
00000130: adab 9fbe b876 353e d3bf 20be 9b27 2abe
00000140: 3174 153e 6fa0 d9be aec7 10bf 28da 053e
00000150: 72d7 15bf beb7 8d3e 2296 ce3d a262 d73d
00000160: 27e0 c23e 1d33 993e 7b1e 42be 776f 683e
00000170: babb 823e 27c4 e4bd bf0c 0abe 06f1 8b3e
00000180: 7077 8abd 6df0 5e3e 51d6 89be 3ba7 96bd
00000190: b14a 393e 6444 373e bac2 123d 3467 ab3e
000001a0: d6ef 253c ba58 3b3e 8139 1b3e e142 e7bc
000001b0: 9224 a23d 75b4 c53c 3769 76be b177 bbbe
000001c0: d284 dfbc 5fdf 81be 2930 36bd 572a 16be
000001d0: d6d2 0dbe b911 283e b5bd 8cbc 0519 b23e
000001e0: 88d2 5eba bb4f 9ebc 4e1d c8be c54b 5fbe
000001f0: fb9c ae3d e579 083e b474 813d 4560 453e
00000200: 294a 40bd 8d5c aebd 937d 933b 2323 223e
00000210: 45e1 243e 8692 d8bc e278 aebd 5055 253d
00000220: b7c4 8dbd 83fb 6d3d 261a ab3e ec44 213e
00000230: d806 4dbe da2b b33e 05ee 4cbb b36b 36be
00000240: f2bb 433d f8a7 afbe dc74 00be 7ca7 1abe
00000250: aad2 dbbe 12f9 c63e 0a4f 10bd 1dbd 553e
00000260: fd80 8e3d cc52 b03d aba5 8abe 3b35 4c3e
00000270: b775 473e ed98 43bd 775d 24be 6cbe c43e
00000280: 293e c03d c823 e6bc 6285 793e f9e6 2c3e
00000290: 65af abbd 8c4d 9c3d ce2f 85be ce4a 33be
000002a0: 46dd 653d af7a f13d 073b b8be ebbc 42bd
000002b0: 9744 1c3e 6f03 aebe 5cd7 773e 4154 5f3e
000002c0: 1c0b c43d da4b 0b3d 9d04 df3d 06e2 72be
000002d0: 1d3f a13d c81d 30be f6d0 693d 3ea8 a8bd
000002e0: 3ebf 093d 6602 82be e764 a13d b623 9abc
000002f0: 38c2 cbbe c411 d2bd a58b 193d 11b9 c3bd
00000300: d127 643e b01d 85be 2cb1 a13e 8245 bb3c
00000310: 1b74 9c3d bd23 a9be 9a9d f3bd 8b4a abbd
00000320: 3785 08be 332b 25bd 789f fbbe 62da a5be
00000330: 074b da3e a89f bfbe 5108 d43e f232 363e
00000340: c877 f1bd 5cc5 bd3e d895 713e f2c3 20be
00000350: ea1e e73e 1fa8 cdbe a600 aa3e 6d9c 54be
00000360: cf15 fcbd 9ca9 c4be f976 de3e 80a7 39be
00000370: 7c48 06bf 6351 75be ddcd 013e bd93 a8be
00000380: 18d1 4d3e cecf 02be d6e2 d23e 2cdf c83d
00000390: 56f4 f1bd cf17 853d 5826 a3be 981b 1a3d
000003a0: 21fc 0bbe 4edc 4e3e fa22 babe b054 4b3e
000003b0: 896e f43d d888 babe a7f7 d93d 9140 783d
000003c0: 216d c23d 3179 c33e 448e 823e 483a 0a3e
000003d0: 32c5 ef3e ecbc af3d b68c bb3d 5a0c 27be
000003e0: 8c41 b2be b5d7 71be a038 a73e 5c0a 48be
000003f0: 9c8a b7be 97aa 5cbd 9cf0 823e 4b71 86bd

bias f4 [32]
-0.1450615 -0.12336028 -0.052072003 0.19106698 0.16371262 0.10033218 -0.02627207 -0.05808364
-0.039779596 -0.08443349 0.17644231 0.012407708 0.14901751 0.028218145 -0.037447426 0.06586582
-0.062369823 -0.07434377 0.071334906 -0.07251158 -0.040064473 -0.11380498 -0.016495341 0.15722653
-0.08304239 0.19870095 0.1757148 0.0686081 0.16508947 -0.09076253 0.19170314 -0.013043047
00000000: 008b 14be 51a4 fcbd 7449 55bd 10a7 433e
00000010: 48a4 273e f57a cd3d 8638 d7bc 1ce9 6dbd
00000020: eeef 22bd 77eb acbd 4bad 343e b349 4b3c
00000030: 0c98 183e bd29 e73c 7962 19bd a9e4 863d
00000040: 8077 7fbd 8c41 98bd 0918 923d f480 94bd
00000050: a51a 24bd 9612 e9bd 3d21 87bc feff 203e
00000060: 2112 aabd 4378 4b3e 95ee 333e 6782 8c3d
00000070: 370d 293e b5e1 b9bd d44d 443e 81b2 55bc

weight_ih_l0 f4 [128, 32]
0.078484215 0.22201863 -0.0710504 0.01818628 0.16208637 -0.042199664 -0.16630441 0.01132024
-0.048129033 0.13816255 0.19728822 -0.060513664 0.12213139 -0.16200079 -0.13267122 -0.1571955
0.027771961 -0.06771804 -0.10124291 -0.017433135 -0.1546461 -0.002041199 0.24129093 0.22889236
0.05289449 0.06994833 0.11393109 0.10486019 0.22999799 0.11266857 0.11872281 0.13140725
-0.15964356 -0.06167049 -0.16631567 0.2569382 -0.0280248 -0.10763497 -0.287492 -0.24117716
-0.21905494 0.05302421 0.31631353 -0.16665982 -0.0473192 -0.60911965 -0.25779843 -0.0479747
-0.292839 -0.043382082 0.050356373 -0.2961007 -0.15366247 0.11663203 0.161818 -0.08060235
-0.20807403 0.37770134 0.013119604 0.08443388 0.0063847722 -0.23763317 0.18019556 0.05906979
0.037287388 0.33911917 0.21694 0.12979822 0.22924466 -0.11610571 0.12600198 -0.13077302
-0.05167831 0.2926752 0.17537981 -0.18396755 -0.1087638 -0.042454805 0.020733183 -0.16689797
-0.14628373 0.105309464 0.025501726 0.13939697 0.047487825 0.1752653 -0.012453731 0.05146208
0.15123801 -0.036856342 0.0057215737 0.1166184 0.118376985 0.019411288 0.0895844 0.13569899
0.025514465 0.15277559 0.03507968 0.14924689 -0.09453931 -0.041600272 -0.2696419 0.11087606
-0.14408629 0.23053712 0.11362211 0.013990256 -0.04799773 -0.061106488 -0.10186215 -0.017485477
-0.15276034 -0.09820465 -0.18075123 0.02237017 -0.28210378 -0.12753332 0.21729566 0.076351166
-0.21644302 0.22234559 -0.078926355 0.16904539 0.13044159 -0.31276596 0.14664303 -0.06303543
0.0116893435 0.049314927 0.060648393 -0.23954855 0.0254626 0.028286438 -0.16586724 -0.08204889
-0.069660865 0.033290274 -0.06747777 -0.25753844 0.025762191 0.11552124 -0.12780437 -0.17213243
-0.17138816 -0.0017189565 -0.27582863 0.1447906 -0.05691183 0.14388014 0.05235603 -0.15107411
-0.038129076 -0.08711427 0.053283516 0.12538087 -0.25946584 -0.09534851 -0.18990377 0.26243994
0.0005092954 0.22047123 -0.18185167 -0.13528647 0.12906024 0.18971547 0.096193954 0.17964423
0.18585779 -0.014020422 -0.077585764 -0.019607695 -0.00018163747 0.38050014 0.25815096 0.14523815
0.25936693 0.08541374 0.09890912 0.04952922 0.14809732 0.08762662 -0.04059888 0.010020384
0.25289863 0.17533813 0.11152448 -0.038326487 -0.1371063 0.06959914 -0.1310072 0.14530359
0.00734523 0.19798608 0.018776782 0.18219517 0.36514252 0.0318772 -0.22814113 -0.21094376
-0.08184655 0.42811957 0.20428449 -0.06180805 0.2598788 -0.17033316 -0.15727027 -0.10133402
-0.19133215 -0.20398906 0.09835939 0.089664504 -0.10738368 0.39641494 0.21905914 0.35149255
0.051077694 0.20949213 0.24730842 0.013202002 0.092531905 -0.19926473 0.09152282 0.30705744
0.062167432 0.17411745 0.045551434 0.2790691 0.10332951 0.05774433 -0.09473148 0.124535695
0.119260214 0.18635206 0.20351975 -0.0054474003 0.20811515 0.050322015 0.03039808 0.075878166
-0.04105813 0.13754258 -0.017756637 -0.07619933 -0.10137729 0.15697074 0.16595167 0.22317325
0.07205504 0.05919102 0.028584193 0.14588511 0.1454184 -0.07132536 -0.06103937 0.066658325
00000000: 55bc a03d da58 633e df82 91bd 65fb 943c
00000010: f8f9 253e 8ed9 2cbd b44b 2abe 8778 393c
00000020: f322 45bd 7c7a 0d3e ec05 4a3e 2ddd 77bd
00000030: 0620 fa3d 89e3 25be f7da 07be dbf7 20be
00000040: 0682 e33c c1af 8abd 7158 cfbd efcf 8ebc
00000050: 8c5b 1ebe a3c5 05bb f814 773e c262 6a3e
00000060: e5a7 583d 1241 8f3d b454 e93d f0c0 d63d
00000070: 9884 6b3e c7be e63d f224 f33d 9f8f 063e
00000080: 9a79 23be 329a 7cbd a84e 2abe 678d 833e
00000090: 4494 e5bc b96f dcbd 2732 93be 25f7 76be
000000a0: f04f 60be ea2f 593d d9f3 a13e dfa8 2abe
000000b0: c7d1 41bd 44ef 1bbf 28fe 83be 1e81 44bd
000000c0: feee 95be 69b1 31bd 7c42 4e3d 839a 97be
000000d0: b259 1dbe c6dc ee3d 9eb3 253e d812 a5bd
000000e0: 5c11 55be 1262 c13e 9cf3 563c aceb ac3d
000000f0: 5a37 d13b 1c56 73be 2f85 383e 2af3 713d
00000100: a9ba 183d 07a1 ad3e 8525 5e3e d3e9 043e
00000110: 1dbf 6a3e d5c8 edbd aa06 013e 5de9 05be
00000120: a3ac 53bd 86d9 953e c496 333e fd61 3cbe
00000130: 8ebf debd 17e5 2dbd a3d8 a93c 4de7 2abe
00000140: 67cb 15be 7dac d73d ffe8 d03c 14be 0e3e
00000150: 9882 423d bf78 333e bc0a 4cbc e7c9 523d
00000160: 23de 1a3e adf6 16bd 0a7c bb3b a1d5 ee3d
00000170: a26f f23d 6c04 9f3c 0778 b73d adf4 0a3e
00000180: b603 d13c 3471 1c3e b6af 0f3d 2dd4 183e
00000190: d39d c1bd 0c65 2abd 810e 8abe fd12 e33d
000001a0: 5b8b 13be ec11 6c3e b5b2 e83d 6337 653c
000001b0: 4599 44bd cc4a 7abd 1a9d d0bd b43d 8fbc
000001c0: 356d 1cbe 851f c9bd da16 39be a641 b73c
000001d0: e86f 90be 1898 02be c182 5e3e 005e 9c3d
000001e0: 3da3 5dbe 90ae 633e 24a4 a1bd 3c1a 2d3e
000001f0: 7b92 053e dc22 a0be 9729 163e b818 81bd
00000200: a984 3f3c 73fe 493d 736a 783d 374c 75be
00000210: f196 d03c f6b8 e73c 1ad9 29be 4009 a8bd
00000220: 5baa 8ebd 625b 083d c931 8abd 14dc 83be
00000230: 3b0b d33c 6696 ec3d 26df 02be 7c43 30be
00000240: 6180 2fbe 9c4e e1ba 6939 8dbe fd43 143e
00000250: 611c 69bd 5155 133e 4773 563d 2cb3 1abe
00000260: 3c2d 1cbd f768 b2bd d13f 5a3d d863 003e
00000270: b5d8 84be 1446 c3bd 2276 42be 875e 863e
00000280: 3c82 053a 36c3 613e 5337 3abe 8988 0abe
00000290: 5e28 043e c644 423e 5601 c53d a8f4 373e
000002a0: 8151 3e3e e9b5 65bc 49e5 9ebd 51a0 a0bc
000002b0: f075 3eb9 ead0 c23e 5d2c 843e 4fb9 143e
000002c0: becb 843e 66ed ae3d dd90 ca3d 27df 4a3d
000002d0: d3a6 173e 9675 b33d 034b 26bd 892c 243c
000002e0: ee7b 813e d78b 333e f266 e43d 3cfc 1cbd
000002f0: 9865 0cbe fe89 8e3d c026 06be 77ca 143e
00000300: 41b0 f03b ddbc 4a3e c4d1 993c 5f91 3a3e
00000310: f6f3 ba3e ab91 023d d49d 69be a401 58be
00000320: 2a9f a7bd 7d32 db3e f42f 513e 702a 7dbd
00000330: d60e 853e d16b 2ebe 750b 21be 3688 cfbd
00000340: 93ec 43be 82e2 50be a670 c93d 06a2 b73d
00000350: faeb dbbd e6f6 ca3e 0a51 603e d5f6 b33e
00000360: d836 513d 1b85 563e 6b3e 7d3e 364d 583c
00000370: 5e81 bd3d 0e0c 4cbe 5170 bb3d a236 9d3e
00000380: 47a3 7e3d d84b 323e 2494 3a3d 25e2 8e3e
00000390: 6c9e d33d 5285 6c3d 9402 c2bd 920c ff3d
000003a0: b33e f43d 13d3 3e3e 7b67 503e 1b80 b2bb
000003b0: 231c 553e 751e 4e3d 6505 f93c 0366 9b3d
000003c0: 922c 28bd f6d7 0c3e 5e76 91bc 650e 9cbd
000003d0: e69e cfbd f0bc 203e 3cef 293e 8787 643e
000003e0: 9891 933d 4872 723d 6629 ea3c e862 153e
000003f0: 90e8 143e 0813 92bd 6b04 7abd 2984 883d

weight_hh_l0 f4 [128, 32]
0.030366478 0.10916124 0.25649107 -0.09305471 0.40703636 -0.2707771 0.18032537 -0.15293695
0.11785169 -0.048596706 0.025751902 -0.20308721 0.12979639 -0.26494172 0.008340745 0.21166499
-0.15821621 -0.11365949 0.31775331 -0.10017216 -0.21743476 0.34280276 0.21333782 -0.24217528
-0.052308038 -0.013642842 -0.01174535 0.24815986 -0.09060502 0.0069017266 -0.11822008 -0.26881352
0.09157038 -0.010511719 0.056930646 0.027326874 0.2378676 -0.09030813 -0.034161497 -0.08220203
0.20624863 0.22935537 0.31560692 0.048873056 -0.1505063 -0.014356814 0.18216987 0.045936104
0.16036333 -0.030298864 0.15513144 0.13342983 -0.20566532 0.037712593 0.21025237 -0.03289374
0.018996235 0.16324025 0.32611498 0.027450867 -0.15945391 -0.21685092 -0.015865065 -0.09200294
0.12655239 0.11119229 -0.010682124 0.16800237 0.09684129 0.08372971 -0.1826649 0.20446517
-0.06639137 0.11653968 0.17034636 -0.017363602 0.11831855 0.19729345 -0.25502405 -0.06305019
-0.028463794 -0.026174325 -0.06874815 0.20147812 0.25509417 -0.2789756 -0.09844941 -0.029720193
-0.06367298 -0.06113747 -0.02202551 -0.03853418 0.112732895 0.06137036 -0.20930438 0.25235823
-0.0946702 -0.26393718 0.107062794 -0.12121477 0.05810816 0.06380707 -0.13698034 -0.16354255
0.102797024 0.010033309 0.0865051 0.085527 0.22993912 -0.013153166 -0.043108266 0.06878317
-0.0813155 0.18341942 -0.026159821 0.20174406 -0.09339617 -0.044928987 -0.07306349 -0.15573043
-0.21380065 -0.18692017 -0.15776041 -0.005283381 -0.06883512 0.19266634 -0.039062556 -0.034774847
-0.04348088 -0.24593414 -0.036053378 0.08063695 0.00933598 -0.07252709 0.16413389 0.03711165
0.12621206 0.04461015 0.38942435 0.13468993 0.11561462 0.23715699 0.19073543 0.03907236
-0.13419244 -0.01410281 0.14250164 0.044119272 -0.01815538 0.25704938 -0.26850155 -0.22056049
0.14105952 0.059335604 0.065842904 -0.0046036677 -0.14104421 0.03766708 0.035967376 0.029221898
0.21655855 0.20454943 -0.057215955 -0.0066071767 0.11496931 -0.2562184 0.1764191 -0.0015963841
0.11213981 -0.077781655 0.014715876 -0.04922258 -0.08739504 -0.09641912 0.24493626 0.16286439
0.25404835 -0.12690297 0.014138855 0.07593089 0.05585678 -0.04758845 0.0697512 0.14641124
0.08905324 -0.07881203 0.36530837 0.119551554 -0.22002374 -0.16303013 -0.3578223 0.057738014
0.13163869 -0.11752675 -0.19216576 0.11035455 -0.121177465 -0.027417295 -0.05311268 -0.14831011
-0.17770948 -0.11644682 0.11856861 -0.06777559 0.12665966 0.2692243 0.034232926 -0.0015868974
0.22332224 -0.17669071 0.012569815 -0.121696666 -0.09636934 -0.10277117 -0.23629236 -0.035419393
-0.108296685 0.06663029 0.10866379 0.078372866 -0.027221385 0.15273616 0.07371152 -0.00081443903
0.18812494 -0.024097594 0.14340055 0.11851578 -0.045345318 -0.19892119 -0.03016155 -0.0677616
0.07876763 0.22877412 0.10488503 0.061088104 -0.19198187 0.19893391 0.06315527 -0.05784181
0.025909591 -0.075239934 0.14275342 0.11925509 -0.10623151 -0.0762674 -0.103424534 -0.07792335
-0.1351656 -0.1023985 0.20910643 0.048812136 0.108957484 0.06120182 0.04081881 -0.2370681
00000000: 1fc3 f83c ee8f df3d cc52 833e 7893 bebd
00000010: 1267 d03e 4ca3 8abe 37a7 383e 819b 1cbe
00000020: 3a5c f13d 570d 47bd a7f5 d23c 18f6 4fbe
00000030: 58e9 043e 71a6 87be 9fa7 083c b5be 583e
00000040: 6e03 22be 4fc6 e8bd 90b0 a23e 1027 cdbd
00000050: 38a7 5ebe d883 af3e 3b75 5a3e ccfc 77be
00000060: f440 56bd 3a86 5fbc 926f 40bc 9e1d 7e3e
00000070: 208f b9bd e127 e23b 5f1d f2bd eda1 89be
00000080: 4089 bb3d 5839 2cbc 1c30 693d 9cdc df3c
00000090: 9093 733e 78f3 b8bd edec 0bbd 8a59 a8bd
000000a0: d732 533e 22dc 6a3e 3b97 a13e 1d2f 483d
000000b0: 531e 1abe d838 6bbc bd8a 3a3e 7f27 3c3d
000000c0: 4936 243e 5335 f8bc c7da 1e3e d4a1 083e
000000d0: ee99 52be 8578 1a3d 664c 573e 96bb 06bd
000000e0: fe9d 9b3c 7428 273e 8bf8 a63e a4e0 e03c
000000f0: e347 23be 2b0e 5ebe 74f7 81bc 0a6c bcbd
00000100: f396 013e c9b8 e33d 1304 2fbc d008 2c3e
00000110: ba54 c63d 7b7a ab3d 820c 3bbe 515f 513e
00000120: 33f8 87bd 5bac ee3d 476f 2e3e 1d3e 8ebc
00000130: ff50 f23d 4b07 4a3e 8392 82be 7520 81bd
00000140: e72c e9bc 8a6b d6bc d4cb 8cbd 4850 4e3e
00000150: b49b 823e e4d5 8ebe d89f c9bd c377 f3bc
00000160: fb66 82bd 496b 7abd d86e b4bc 04d6 1dbd
00000170: 81e0 e63d 7d5f 7b3d e353 56be 1935 813e
00000180: 73e2 c1bd c622 87be bd43 db3d 733f f8bd
00000190: d202 6e3d 48ad 823d 9344 0cbe b377 27be
000001a0: 3f87 d23d c062 243c 9629 b13d c828 af3d
000001b0: 2975 6b3e 6080 57bc 4b92 30bd 31de 8c3d
000001c0: be88 a6bd 4dd2 3b3e 1f4d d6bc ff95 4e3e
000001d0: 7e46 bfbd 7507 38bd 50a2 95bd cc77 1fbe
000001e0: 8fee 5abe 0068 3fbe f28b 21be 3620 adbb
000001f0: 6df9 8cbd 534a 453e 0f00 20bd 1270 0ebd
00000200: 0219 32bd 29d6 7bbe b5ac 13bd fc24 a53d
00000210: f0f5 183c 1589 94bd b712 283e 6302 183d
00000220: bc3d 013e 22b9 363d a162 c73e 28ec 093e
00000230: 5cc7 ec3d 48d9 723e 2650 433e 570a 203d
00000240: be69 09be 790f 67bc f3eb 113e 69b6 343d
00000250: 97ba 94bc fa9b 833e 0979 89be 9cda 61be
00000260: e871 103e e409 733d a5d8 863d 5dda 96bb
00000270: e56d 10be cc48 1a3d 8752 133d c362 ef3c
00000280: 86c1 5d3e 6875 513e 475b 6abd 0481 d8bb
00000290: 0875 eb3d 0f2f 83be 35a7 343e c33d d1ba
000002a0: 8fa9 e53d fd4b 9fbd dc1a 713c 9e9d 49bd
000002b0: 2cfc b2bd 6377 c5bd 92d0 7a3e ecc5 263e
000002c0: a012 823e daf2 01be a8a6 673c a881 9b3d
000002d0: 14ca 643d 1bec 42bd b8d9 8e3d d4ec 153e
000002e0: 8c61 b63d 3468 a1bd b309 bb3e 72d7 f43d
000002f0: e74d 61be 5ff1 26be 7c34 b7be b27e 6c3d
00000300: 4bcc 063e ddb1 f0bd 1ac7 44be 9101 e23d
00000310: e42b f8bd 3c9a e0bc ae8c 59bd 9bde 17be
00000320: 79f9 35be ac7b eebd 19d4 f23d eecd 8abd
00000330: 12b3 013e c4d7 893e d337 0c3d 71ff cfba
00000340: 96ae 643e 69ee 34be a0f1 4d3c 1a3c f9bd
00000350: 4a5d c5bd b179 d2bd a0f6 71be ed13 11bd
00000360: a7ca ddbd 7675 883d 1f8b de3d f481 a03d
00000370: 62ff debc de66 1c3e 11f6 963d 1480 55ba
00000380: d3a3 403e 5168 c5bc 98d7 123e 67b8 f23d
00000390: 03bc 39bd ffb1 4bbe 5b15 f7bc 98c6 8abd
000003a0: ec50 a13d c343 6a3e f6cd d63d 8537 7a3d
000003b0: e596 44be 55b5 4b3e 8d57 813d 89eb 6cbd
000003c0: 5a40 d43c 6517 9abd f42d 123e 033c f43d
000003d0: e88f d9bd 1532 9cbd 3ed0 d3bd 4796 9fbd
000003e0: da68 0abe 4eb6 d1bd ff1f 563e 3cef 473d
000003f0: 1a25 df3d c2ae 7a3d a031 273d fbc1 72be

bias_ih_l0 f4 [128]
0.24991637 0.098755345 0.26079214 0.24754573 0.1696521 -0.0026930012 0.2590766 0.18623301
0.003799009 0.18724264 -0.09355073 -0.23899424 0.07990674 0.095175914 0.2363144 0.08991704
0.016461447 -0.032829754 0.14541717 0.045956306 0.083387814 0.21020107 -0.14962724 0.06601814
-0.06418316 -0.16285641 0.13011478 0.17397964 0.25354126 0.008442192 -0.18339656 0.31389964
-0.016576234 -0.09424509 0.05731444 0.04348965 0.17099726 0.19668949 0.3259175 0.36869133
0.09673709 0.26448312 -0.17997123 0.050409473 -0.13412595 -0.19549675 0.3622561 0.25215247
0.068542264 0.32410753 0.049054723 0.032372646 0.35046563 0.43828976 0.3391425 0.38551602
0.24927954 0.13473555 0.012110692 0.23269543 0.1274912 -0.06997694 0.07694874 0.29337284
0.069384634 -0.017127167 -0.20598505 0.08319258 0.06597086 -0.030729333 -0.20266247 0.09085493
0.10631076 0.049676195 -0.028699873 -0.2796782 -0.050745178 -0.09774792 -0.0034838973 -0.019777264
0.1584816 -0.3205804 0.04176568 0.045956373 -0.03529679 0.092109784 -0.033725753 -0.00021393236
-0.17204314 0.13452403 0.18369134 -0.018873142 -0.11401387 -0.085953236 0.097878344 0.092775255
0.17911342 -0.19666927 0.07765552 0.1007062 -0.034468263 -0.11890605 0.2367218 0.2314733
0.0786107 0.19082922 0.14174499 -0.0033645066 -0.047041696 -0.042519383 0.025328701 -0.076938026
-0.026297823 -0.02636108 0.13094747 -0.0962474 0.33451608 0.1974012 -0.17696321 0.13853064
0.15249 -0.040457953 -0.10400352 -0.009676527 0.14950961 0.0021967746 0.050240822 -0.09557419
00000000: 14ea 7f3e 3e40 ca3d 8c86 853e a17c 7d3e
00000010: 48b9 2d3e 107d 30bb b0a5 843e deb3 3e3e
00000020: cbf8 783b 89bc 3f3e 8697 bfbd e8ba 74be
00000030: 25a6 a33d 97eb c23d 67fc 713e 6d26 b83d
00000040: 28da 863c 7e78 06bd 3de8 143e ae3c 3c3d
00000050: 3bc7 aa3d f33e 573e e237 19be 8534 873d
00000060: 7672 83bd d5c3 26be cf3c 053e b827 323e
00000070: 29d0 813e 1f51 0a3c 4fcc 3bbe 74b7 a03e
00000080: e2ca 87bc 9203 c1bd 8cc2 6a3d 3422 323d
00000090: e819 2f3e f868 493e a9de a63e 1cc5 bc3e
000000a0: 181e c63d 556a 873e 614a 38be 2a7a 4e3d
000000b0: 5058 09be 4d30 48be a279 b93e 211a 813e
000000c0: e35f 8c3d 6cf1 a53e 9bed 483d 2e99 043d
000000d0: 3b70 b33e 8467 e03e 16a4 ad3e 5b62 c53e
000000e0: 2343 7f3e 1ef8 093e ed6b 463c b647 6e3e
000000f0: 0e8d 023e 1250 8fbd 4d97 9d3d f734 963e
00000100: 8819 8e3d 464e 8cbc bfed 52be df60 aa3d
00000110: bb1b 873d 15bc fbbc c086 4fbe 2612 ba3d
00000120: 75b9 d93d 4479 4b3d ff1b ebbc fb31 8fbe
00000130: 2dda 4fbd 1030 c8bd 1952 64bb ee03 a2bc
00000140: 0049 223e 1d23 a4be 7d12 2b3d c03c 3c3d
00000150: 5e93 10bd 0ea4 bc3d 0424 0abd 0853 60b9
00000160: 142c 30be abc0 093e 9519 3c3e d99b 9abc
00000170: 1b80 e9bd 4008 b0bd 7174 c83d f400 be3d
00000180: 8269 373e ab63 49be db09 9f3d 0d3f ce3d
00000190: 982e 0dbd 0485 f3bd 3367 723e 5607 6d3e
000001a0: a6fe a03d bc68 433e 9925 113e 0e7f 5cbb
000001b0: cbae 40bd ce28 2ebd 237e cf3c af91 9dbd
000001c0: 886e d7bc 31f3 d7bc 1817 063e 5b1d c5bd
000001d0: b145 ab3e 8a23 4a3e d835 35be fada 0d3e
000001e0: 5726 1c3e 3db7 25bd ccff d4bd 4c8a 1ebc
000001f0: 0c19 193e c3f7 0f3b 52c9 4d3d 67bc c3bd

bias_hh_l0 f4 [128]
0.39117044 0.08188702 0.05486415 0.12961723 0.1834628 0.039917093 0.15150346 0.182589
0.011835979 -0.071345925 -0.034984738 -0.19816388 0.23080093 0.24962716 0.09907909 0.20477949
-0.04904374 0.20297073 0.0360792 0.07072271 0.043853775 0.1445287 -0.026813643 0.18784605
0.21240298 -0.18716778 0.13113602 0.37075838 0.20972243 -0.0012149189 0.058873236 0.3453725
-0.08700903 -0.036933195 0.38314608 -0.055566832 -0.011508549 0.2873193 0.33608162 0.25369313
0.15376306 0.36672765 -0.069219574 0.05810379 -0.13774674 -0.0175589 0.2766552 0.2245065
0.25002488 0.112711 -0.0019014761 0.007051883 0.0454913 0.18652096 0.3159221 0.27832717
0.079411805 0.29103532 -0.17052738 0.3249109 0.11633606 0.06450345 0.31693438 0.35616878
0.20150459 0.2152343 0.03419464 0.10775164 0.115799 0.0018257832 -0.058591377 0.030121658
0.02217319 0.19044042 -0.061428215 -0.25782382 -0.1820868 0.1128367 0.08568124 0.06855277
0.07040344 -0.21758954 0.05920896 0.13368051 0.14330147 0.00883876 -0.011617477 0.013656255
-0.041372493 0.18071449 0.20199026 0.032375224 -0.067011245 -0.17546779 0.008970247 -0.13596909
0.22577593 0.12104595 0.20371783 0.22365963 0.109883524 0.14099176 0.14144678 0.12311513
0.04753584 -0.021066666 -0.03309133 0.02309198 -0.19358034 -0.09676988 0.27652135 0.18567812
0.12582678 0.24567854 -0.12694903 0.2362627 0.028251357 -0.05930295 -0.09789583 0.17478856
-0.10437995 0.09576817 0.05620629 0.16039373 -0.12769802 -0.13637751 -0.0077724624 0.14199254
00000000: 7e47 c83e 62b4 a73d 3bb9 603d 61ba 043e
00000010: acdd 3b3e 1b80 233d b923 1b3e 9cf8 3a3e
00000020: b2eb 413c d01d 92bd 284c 0fbd 79eb 4abe
00000030: 1457 6c3e 439e 7f3e fae9 ca3d b7b1 513e
00000040: 17e2 48bd 8fd7 4f3e c9c7 133d 11d7 903d
00000050: 04a0 333d 55ff 133e 49a8 dbbc b75a 403e
00000060: 2b80 593e e9a8 3fbe 8548 063e 0bd4 bd3e
00000070: 7ac1 563e ea3d 9fba 1025 713d aad4 b03e
00000080: ca31 b2bd 4347 17bd b92b c43e 0c9a 63bd
00000090: 5a8e 3cbc 841b 933e e412 ac3e 11e4 813e
000000a0: 1074 1d3e bac3 bb3e fec2 8dbd 3dfe 6d3d
000000b0: 7b0d 0dbe afd7 8fbc c0a5 8d3e 08e5 653e
000000c0: 4303 803e 06d5 e63d f33a f9ba 7b13 e73b
000000d0: 1655 3a3d 5aff 3e3e 8bc0 a13e e680 8e3e
000000e0: a8a2 a23d 9502 953e bb9e 2ebe b95a a63e
000000f0: 9a41 ee3d 631a 843d 3945 a23e c15b b63e
00000100: 3857 4e3e 6166 5c3e ae0f 0c3d e4ac dc3d
00000110: 0728 ed3d 1e4f ef3a 83fd 6fbd b2c1 f63c
00000120: 8da4 b53c d002 433e 279c 7bbd 7c01 84be
00000130: f674 3abe ee16 e73d a579 af3d 6565 8c3d
00000140: ae2f 903d cbcf 5ebe 1885 723d 8be3 083e
00000150: 9fbd 123e 72d0 103c 3b57 3ebc 7cbe 5f3c
00000160: 3476 29bd 380d 393e 89d6 4e3e e29b 043d
00000170: 313d 89bd d4ad 33be f1f7 123c 7b3b 0bbe
00000180: ce31 673e f0e6 f73d 689b 503e 0807 653e
00000190: 9d0a e13d 2560 103e 6dd7 103e c923 fc3d
000001a0: f1b4 423d 0094 acbc c68a 07bd 642b bd3c
000001b0: ed39 46be 492f c6bd 3594 8d3e 6822 3e3e
000001c0: bcd8 003e 2893 7b3e edfe 01be d9ee 713e
000001d0: 646f e73c a6e7 72bd 9c7d c8bd c6fb 323e
000001e0: 28c5 d5bd 1a22 c43d 9138 663d 413e 243e
000001f0: 45c3 02be 8ca6 0bbe 24b0 febb 7e66 113e

weight_ih_l0 f4 [128, 34]
0.028501721 0.006034094 0.15693824 0.04784238 0.34466112 -0.41037804 0.039630145 -0.16820025
0.024397712 -0.058277138 0.3904169 -0.11708759 0.12342121 -0.019142285 0.0998346 0.33130676
0.041092094 0.017765507 0.08061111 -0.118332624 -0.16721494 0.1240632 -0.19454786 -0.062257536
0.1917952 0.15191752 -0.09951707 0.2710632 -0.1908034 0.08298877 -0.20380135 -0.34045342
-0.21139784 -0.19159542 0.25557366 0.5269218 -0.13200894 -0.05281494 0.011638251 -0.04497732
-0.14901441 -0.08204053 -0.0018646348 0.29937088 0.12293463 -0.013654861 -0.41306683 -0.43727142
0.0021969797 9.3059265e-05 0.045332476 -0.009866973 -0.0038933433 -0.18756147 -0.09301909 -0.15084422
0.17408374 -0.14151002 -0.056328572 0.10477718 0.2847908 -0.06429047 0.009708174 -0.07872836
-0.21977115 -0.028322034 0.25433153 -0.024701027 0.17264839 0.19262351 0.12825567 -0.21985452
0.14092311 -0.19821198 -0.1159063 0.08128535 0.179278 0.25880763 0.08577124 -0.08457142
-0.25889045 -0.19958214 0.12470164 -0.077092595 0.3663516 -0.38595387 -0.054416854 -0.40333652
0.0954031 -0.065813914 0.23531985 0.108536325 -0.46293586 0.3291036 0.1366623 0.055042874
-0.19679822 -0.09555267 -0.17994365 -0.09531606 -0.1432309 -0.096554995 0.22945951 0.29942688
-0.028265985 -0.057899244 0.2079433 -0.04698464 0.27728495 0.017603163 0.2310165 0.24716175
-0.10791287 -0.51833063 -0.09305869 -0.26733673 0.047089722 -1.858623e-05 0.3398019 -0.23771735
-0.06735231 -0.1811235 -0.010850994 0.14967692 0.295104 0.10393127 -0.4911155 0.40143022
0.28213158 0.054468356 -0.21397528 -0.40474644 -0.17034258 0.0027305523 -0.07135564 0.12139083
0.13516444 0.24402858 0.20351788 -0.20843613 0.17072807 -0.08915428 0.33736444 -0.2060962
0.03933584 0.20053206 0.625524 -0.27024338 -0.24619715 -0.057150953 0.19726002 0.14332964
0.14737089 -0.028496524 0.24351858 -0.12784056 -0.12497081 0.15140061 -0.005130179 -0.3717348
-0.037920028 0.22850536 0.21205874 0.3787627 -0.3354416 -0.04614308 -0.32621324 -0.35622594
-0.37590283 -0.035213605 0.24273168 0.5680986 -0.11960504 -0.2728674 -0.003378545 -0.012903853
-0.08325605 0.0008306162 0.10271864 0.1903079 0.04834877 -0.2824651 -0.41546547 -0.3055067
-0.0226071 0.06462256 0.35597107 -0.2747954 0.0947262 -0.20302922 0.17163211 0.024658272
0.10714564 -0.02905278 -0.33819166 0.22720811 0.30497757 -0.09994374 0.15052845 -0.27101007
0.108022965 0.04007796 -0.028384192 0.27292112 0.4668062 0.28123 0.022805003 -0.344379
0.19363758 0.079436235 0.1215429 -0.095875055 0.2545811 0.34788325 0.21360025 -0.31703046
-0.4109766 -0.25598863 0.095628485 0.13226658 0.31699535 -0.3075022 0.08163877 -0.51914024
-0.1851559 -0.13942198 0.38198236 -0.087040715 -0.41998023 0.36123258 0.53954047 0.1639718
-0.10302563 -0.2622193 -0.08255141 -0.0091999415 0.08245097 0.25336632 0.31881255 0.20168187
-0.027387595 -0.13422532 -0.0018304788 0.16887517 0.08251029 -0.045774437 0.28499955 0.30464453
-0.29076466 -0.32259616 -0.41748646 -0.12510826 -0.011307912 -0.030720541 0.44119915 -0.32434148
00000000: 717c e93c a6b9 c53b 6bb4 203e 5ff6 433d
00000010: 6c77 b03e 121d d2be 3853 223d b03c 2cbe
00000020: b6dd c73c 02b4 6ebd b9e4 c73e 9ecb efbd
00000030: 42c4 fc3d 48d0 9cbc 1576 cc3d 0aa1 a93e
00000040: 2f50 283d f888 913c 7017 a53d 6058 f2bd
00000050: 653a 2bbe d914 fe3d 8e37 47be c201 7fbd
00000060: f665 443e 4490 1b3e 9bcf cbbd ccc8 8a3e
00000070: f761 43be 04f6 a93d 4db1 50be e94f aebe
00000080: ad78 58be 9731 44be 8dda 823e 59e4 063f
00000090: 5a2d 07be 7b54 58bd 5dae 3e3c 233a 38bd
000000a0: 3c97 18be de04 a8bd c366 f4ba 2447 993e
000000b0: 27c5 fb3d a3b8 5fbc 7f7d d3be 0ae2 dfbe
000000c0: 34fb 0f3b d028 c338 8cae 393d 16a9 21bc
000000d0: 7627 7fbb 1d10 40be cb80 bebd e876 1abe
000000e0: 0243 323e 01e8 10be cab8 66bd 6b95 d63d
000000f0: 1ad0 913e b9aa 83bd 080f 1f3c 563c a1bd
00000100: b00b 61be 9c03 e8bc be37 823e cf59 cabc
00000110: bdca 303e 193f 453e 7455 033e 8b21 61be
00000120: 264e 103e 15f8 4abe 4860 edbd ef78 a63d
00000130: a794 373e 6f82 843e d5a8 af3d c833 adbd
00000140: 4a8d 84be 435f 4cbe 9363 ff3d b9e2 9dbd
00000150: 7092 bb3e bf9b c5be 35e4 5ebd 2082 cebe
00000160: b362 c33d 72c9 86bd b0f7 703e 4b48 de3d
00000170: ee05 edbe 4480 a83e 34f1 0b3e a374 613d
00000180: 7985 49be 1eb1 c3bd 2643 38be 1135 c3bd
00000190: 1fab 12be a0be c5bd 6ff7 6a3e 7b4e 993e
000001a0: 118e e7bc c227 6dbd 17ef 543e f772 40bd
000001b0: 4bf8 8d3e 8234 903c 978f 6c3e f817 7d3e
000001c0: 6c01 ddbd 51b1 04bf 8e95 bebd 5ce0 88be
000001d0: 27e1 403d a0e9 9bb7 84fa ad3e 2d6c 73be
000001e0: 02f0 89bd 7078 39be 5ec8 31bc e844 193e
000001f0: df17 973e ebd9 d43d 7e73 fbbe 4388 cd3e
00000200: 8d73 903e 361a 5f3d 561c 5bbe ed3a cfbe
00000210: 496e 2ebe 11f3 323b e822 92bd c19b f83d
00000220: 8c68 0a3e a1e2 793e fe66 503e 4870 55be
00000230: 57d3 2e3e 8596 b6bd 08bb ac3e e20a 53be
00000240: 9e1e 213d 4758 4d3e 5722 203f 575d 8abe
00000250: 1b1b 7cbe 1e17 6abd 88fe 493e 01c5 123e
00000260: 65e8 163e 8b71 e9bc ef5c 793e a3e8 02be
00000270: b2f0 ffbd c308 1b3e 101b a8bb 0654 bebe
00000280: 0852 1bbd 4ffd 693e ed25 593e 2fed c13e
00000290: 00bf abbe 8700 3dbd 6c05 a7be 3f63 b6be
000002a0: 5676 c0be 243c 10bd a78e 783e e96e 113f
000002b0: 7df3 f4bd 47b5 8bbe 946a 5dbb af6a 53bc
000002c0: 2682 aabd b6bd 593a 265e d23d 13e0 423e
000002d0: 5c09 463d 449f 90be e4b7 d4be 606b 9cbe
000002e0: 8632 b9bc d558 843d d741 b63e fcb1 8cbe
000002f0: cfff c13d e4e6 4fbe 54c0 2f3e 2500 ca3c
00000300: 2c6f db3d 1800 eebc 7527 adbe 3ea9 683e
00000310: 0526 9c3e 4eaf ccbd 2124 1a3e d5c1 8abe
00000320: 253b dd3d c928 243d f785 e8bc 51bc 8b3e
00000330: 3901 ef3e 61fd 8f3e 8fd1 ba3c 7252 b0be
00000340: ee48 463e 77af a23d 7ceb f83d 245a c4bd
00000350: 7458 823e c11d b23e 06ba 5a3e d151 a2be
00000360: 866b d2be f110 83be ded8 c33d e470 073e
00000370: 374d a23e ee70 9dbe 3a32 a73d 60e6 04bf
00000380: 8299 3dbe a3c4 0ebe 3193 c33e 6742 b2bd
00000390: a607 d7be 7af3 b83e 531f 0a3f 39e8 273e
000003a0: 1aff d2bd 9c41 86be b710 a9bd 5abb 16bc
000003b0: 0edc a83d 3bb9 813e 663b a33e b185 4e3e
000003c0: f35b e0bc 5d72 09be adec efba 9ded 2c3e
000003d0: 28fb a83d fa7d 3bbd 76eb 913e 5efa 9b3e
000003e0: 1bdf 94be 532b a5be c9c0 d5be 611c 00be
000003f0: d244 39bc a5a9 fbbc dbe4 e13e 1610 a6be
