code/backend/core/resources/ckpt_q.pt (torch, 175213 bytes, 33 tensors)

weight f4 [128, 32]
00000000: c225 25be 5227 80bb 1460 71bb d816 d9ba
00000010: c4bb 8cbd 7611 053e 9137 0b3e 387f 97bd
00000020: a5dd bbbd f30f 873c 0de8 8a3d 5232 b0ba
00000030: 1e74 dbbd e14b 3ebd e40d 56bb b2bf 10be
00000040: 457c 07be f227 073e 1fe8 95bc c43b e53a
00000050: 23ed b53d 0834 2abd 98f4 703a 11e2 e6bb
00000060: 1b4d 57bd 806c 8c3d e8f0 83b9 2310 913d
00000070: d660 a5bd 5842 8c3c 6921 e03d 5352 6cbd
00000080: 94de c83d 7f20 993c acdf b63d 943f 1a3c
00000090: c0af bf3d 442d 1b3e b2fd 9abd ccd2 d1bd
000000a0: 5eef f5bd 2694 ec3d 7c26 e9bd a44d ce3d
000000b0: e0a2 eebd 2431 4bbd 829f 003d 313a 7d3d
000000c0: 5d70 0abe 70ea 89bb 58cc e43b 623f 8f3d
000000d0: eb12 203b 4bcb 1cbe 8a92 0a3e 9c3b 20be
000000e0: 2cdd a4bc 9611 b0bb 8a32 5fbd edf0 723d
000000f0: 04c0 093e adbc f53d ce22 163d 2ff7 15bc
00000100: e6d0 9c3d 6853 0d3e 2b6c efbc 1ad8 863d
00000110: 8514 103e 6589 e03d bf29 bbbd e23a acbc
00000120: 9ea4 86bb eeb3 9bbd e407 093e 0fa0 17be
00000130: 4155 1f3e c6a4 803d 362b 1bbc 05a5 77bd
00000140: 3f0b b2bd 8264 21bd fce8 1bbc 842c 843d
00000150: 980c 8a3d b1e4 08bb c849 cfbc 0ab3 433c
00000160: 52b1 7fbb e74d dfbd caa1 06bd e317 a9bd
00000170: f961 ebbc 2d21 1dbe db08 18bd 730b 1a3c
00000180: 27d5 0a3e 66b9 cd3a 53fc 293e 463a f13d
00000190: f63c ecbd 49b9 173d da8f 7fbc 9c61 ebbc
000001a0: 89d7 96bd 229a 28be f092 f93d 5022 ab3d
000001b0: 2d8e 803d 97d5 ddbd d643 143e 64f6 66bd
000001c0: d60a 143c 874a 21be 4950 983d 82c9 13bd
000001d0: ae65 8b3d 4009 bc3d ce3c 273d c949 d0bb
000001e0: 19c4 823d 180e 10be af7d 033e d0ee 303c
000001f0: 0ac5 ae3c 921b 373c 6fa5 113b 7b72 4bbd
00000200: f1a5 173d 36a4 1f3e 2c1c 1bbd a9f3 f33b
00000210: 1255 b3bd 5acb 9fbc 7810 cd3d ab01 6abb
00000220: e8d8 1a3e 0e97 f83d 4386 923d bbb5 28be
00000230: 66f4 aabc 5e53 da3c e235 823d b7a8 653d
00000240: 44f0 e93c b599 4dba 9588 cbbd 065e 1c3e
00000250: cd6e 34bd 915b 883c 7b32 833d 6799 e83d
00000260: 98c6 af3c 8d0e 29be 2ffd 0d3d 9fe1 d33d
00000270: 85f2 1c3e d7fe 7abd 5695 063b 35b4 15bc
00000280: b337 dd3d a4d5 fc3c 3ffe 103c d0a1 6a3a
00000290: 1983 1a3c e79e 1b3b e754 e43d 1d7b 22bd
000002a0: 81af 0a3d ac43 88bd f01b 51bc cac8 22be
000002b0: 597d 093c 8ae6 c83c a57f 03be 2a27 57bc
000002c0: a72d 17be 0268 0e3e 820a 0abe 1776 fb3d
000002d0: 5e50 333d 2fca 003e 10fb 013c 3568 16be
000002e0: 07c7 5b3d 7587 d53c 54bb 273d 8e35 3fbc
000002f0: 588d 0d3e f3bd 06bc b198 983d 6b2a 49bd
00000300: 2ba5 b73c 529d 6ebb 583c 2f3c 895d 573d
00000310: 68c8 533d 58b9 de3d 7206 88bd 8032 80bc
00000320: 600c 073e 12eb 8cbd f567 0c3e c592 b5bd
00000330: 212c 933d a85d 0a3c 2e56 0f3e 7b9b af3c
00000340: 5bfb a5bd bc13 21be 065b 1d3d 8b2a 3b3d
00000350: 49fd 0abc 9088 abb9 8f85 37bb 4531 653d
00000360: 4b2e 31bd 3904 0fbe bf4f 1bbe 2593 2a3e
00000370: 34c8 7cbd 0063 1b3d ab4e 6dbc 0d11 63bb
00000380: 405d 043e d463 81ba 5083 a73d 27e3 36bd
00000390: 121d 2abe be93 06bd ee60 053e 2395 1f3e
000003a0: 2455 5ebc 6464 023b 2445 263d bd67 01bc
000003b0: 4563 1cbd 3b52 d73d d426 b7bd 23c0 383d
000003c0: 70e2 0fbc 2e35 04be d805 1bbc 4d98 b6bd
000003d0: 510c 29bb 7c0d 17be c9db c3bd b86b 113e
000003e0: 16e8 02be 4381 56bd af55 123e d4df 113e
000003f0: 8f09 18bd 5e88 eabd ca13 9a3d 8b5d 803d
-0.16127685 -0.0039109373 -0.0036830949 -0.0016562594 -0.06871751 0.12994942 0.13595416 -0.07397312
-0.09173135 0.016487097 0.067825414 -0.0013442731 -0.10715507 -0.046459083 -0.0032662088 -0.14135626
-0.13230999 0.13198832 -0.01829916 0.0017489125 0.08883121 -0.041553527 0.0009191721 -0.007045992
-0.052563768 0.06856632 -0.00025165756 0.07083156 -0.080751106 0.017121479 0.109438725 -0.057695698
0.098080784 0.018692253 0.08929381 0.009414572 0.093596935 0.15153986 -0.0756792 -0.102452844
-0.12008546 0.115516946 -0.113842934 0.100734025 -0.1165216 -0.04960741 0.03140212 0.061823074
-0.13519426 -0.0042088553 0.0069823675 0.06994511 0.0024425338 -0.15311925 0.13532463 -0.15647739
-0.020124994 -0.00537319 -0.054491557 0.059311796 0.13452154 0.11998878 0.036654286 -0.009153171
0.07657032 0.13801348 -0.029226383 0.06584187 0.14070328 0.10963706 -0.09138822 -0.021024171
-0.0041089794 -0.07602678 0.13381916 -0.14807151 0.15559866 0.06281428 -0.0094707515 -0.06046011
-0.08693551 -0.039402492 -0.009515997 0.06453803 0.06740683 -0.0020888264 -0.025303736 0.011944542
-0.0039015603 -0.109035306 -0.032869138 -0.08256509 -0.02873324 -0.15344687 -0.03711782 0.009402144
0.13557874 0.0015695512 0.1660016 0.11778693 -0.11535065 0.037041936 -0.015598262 -0.028733067
-0.07365329 -0.16465047 0.12186229 0.08356154 0.06277118 -0.10831755 0.14479002 -0.05638732
0.009035787 -0.15751086 0.07437188 -0.036080845 0.06806503 0.09181452 0.040829472 -0.006356452
0.06385059 -0.14067876 0.12840913 0.010799125 0.02133419 0.011176007 0.002222385 -0.049669724
0.03702349 0.15589985 -0.037868664 0.007444818 -0.0875646 -0.019506145 0.10012907 -0.003570656
0.15121806 0.121381864 0.07154515 -0.16475575 -0.020868491 0.02665108 0.063579336 0.056069102
0.02855695 -0.00078430335 -0.0993816 0.15270242 -0.04405098 0.016645225 0.06406113 0.11357384
0.021457002 -0.16509457 0.034665283 0.10345768 0.15326889 -0.06127819 0.0020535788 -0.009137203
0.108016394 0.03086359 0.0088496795 0.00089505035 0.00943067 0.0023745836 0.11149006 -0.03966819
0.03385878 -0.066535324 -0.0127630085 -0.15896907 0.008391702 0.024523992 -0.12841661 -0.013131896
-0.14763509 0.13906863 -0.13480571 0.12278383 0.043777816 0.12577127 0.007933393 -0.1468819
0.053656604 0.026065568 0.040950134 -0.011670483 0.1382345 -0.008223998 0.074509986 -0.04911272
0.022417625 -0.0036409688 0.010695539 0.052579436 0.051704794 0.10875195 -0.06641854 -0.01564908
0.13188314 -0.068807736 0.13711531 -0.08865885 0.07186151 0.008445181 0.13997719 0.021436444
-0.08104583 -0.15730184 0.038416885 0.04569487 -0.008483239 -0.0003271741 -0.002800319 0.05595519
-0.04325704 -0.13966455 -0.1516714 0.16657694 -0.061714366 0.03793621 -0.014484088 -0.0034647614
0.12926197 -0.000987167 0.08179343 -0.044650223 -0.16612652 -0.03285574 0.13025257 0.15584235
-0.013570104 0.0019896263 0.04059328 -0.007898268 -0.03818061 0.10513731 -0.08942953 0.04510511
-0.008782014 -0.12910911 -0.0094618425 -0.08915768 -0.0025794695 -0.14751238 -0.09563405 0.14201248
-0.12783846 -0.052369367 0.14290498 0.1424554 -0.03711849 -0.11451791 0.07523306 0.06267842

weight f4 [4, 1, 3, 1]
00000000: c00c 453e fedb 9dbe 2281 b43e 0cbe 12be
00000010: a831 c3be d0a2 0e3d 4048 803d b6e8 01bf
00000020: 2a3b c4be 667c b13e 00e6 d83d 328a d33e
0.19243145 -0.30831903 0.3525477 -0.1433031 -0.38123822 0.03482324 0.062637806 -0.50745714
-0.3832639 0.3466522 0.10590744 0.41316372

bias f4 [4]
00000000: e4f3 c3be a66a d6be 09e9 b4be 228e 043f
-0.3827201 -0.4187824 -0.35334042 0.5177938

weight f4 [4]
00000000: 0000 803f 0000 803f 0000 803f 0000 803f
1.0 1.0 1.0 1.0

bias f4 [4]
00000000: 0000 0000 0000 0000 0000 0000 0000 0000
0.0 0.0 0.0 0.0

running_mean f4 [4]
00000000: 0000 0000 0000 0000 0000 0000 0000 0000
0.0 0.0 0.0 0.0

running_var f4 [4]
00000000: 0000 803f 0000 803f 0000 803f 0000 803f
1.0 1.0 1.0 1.0

weight f4 [1, 4, 3, 1]
00000000: 0023 be3c b168 973e 8924 3cbe a61c 4b3e
00000010: c726 8b3e 82a6 343e 3856 b63d 095e a1be
00000020: 464a b4be 7013 58be 2fd7 26be 86c5 7a3e
0.023210049 0.2957206 -0.18373312 0.19835147 0.27178022 0.17641643 0.08903164 -0.31517056
-0.35212916 -0.21101165 -0.16293024 0.24489412

weight f4 [16, 1, 3, 1]
00000000: b62c 263e 0450 9e3d 6e33 f73e f798 96be
00000010: 12d8 483e c759 c83e 6407 cdbd 2ff5 09bf
00000020: fd3f f53d 91fe e1be 67ed 093b 1a05 aa3e
00000030: 711f f6bd df0e 96be 4d99 c13d 2cc1 9fbe
00000040: d3e3 0abf edc7 06bf 60cc c1be 2ebd fabe
00000050: 0bd2 0bbf 3134 fdbe db24 a43e 4d01 053f
00000060: 6e8a fabc 5b61 a0be 6f5e a0bc 8ed9 683d
00000070: dc56 13bf c016 7dbe aeba e4be 17d8 e33c
00000080: 48d7 113f 7058 babe 5d83 afbe 9d5b e7be
00000090: 03a8 d6be 64d3 aa3e a620 c73e 4d7d 933e
000000a0: e55a db3e d066 f33e 7f91 e0bc 7165 293e
000000b0: 08a7 00bd 7fe8 693d 9e7f efbe 0402 9fbe
0.16227993 0.077301055 0.48281425 -0.29413578 0.19613674 0.39130995 -0.10011175 -0.53889745
0.119750954 -0.4413953 0.0021046044 0.33207017 -0.12017716 -0.2930822 0.09453068 -0.31202066
-0.5425388 -0.5264881 -0.37851238 -0.48972458 -0.54617375 -0.4945388 0.32059368 0.5195511
-0.030583587 -0.31324276 -0.01957628 0.0568481 -0.5755441 -0.2471571 -0.44673675 0.027813
0.5696912 -0.36395597 -0.3427991 -0.45187083 -0.41925058 0.33364403 0.38892096 0.28806534
0.42842785 0.47539377 -0.027413128 0.16542603 -0.031409293 0.05710649 -0.46777052 -0.31056225

bias f4 [16]
00000000: c4b8 773d fdef 33be 5304 febe 7a99 563e
00000010: cd80 cb3e d63b ec3e 6d50 1f3d 34d9 bf3e
00000020: 7ccb 9b3e 4de5 b43e 3bfb d2bc fc97 c73e
00000030: 744d f0be 3578 f53e 3730 8d3e f1c2 90be
0.06047894 -0.17572017 -0.49612674 0.20956984 0.39746705 0.461394 0.03889506 0.374704
0.30428684 0.35331193 -0.025754562 0.38983142 -0.46934092 0.47943273 0.27575848 -0.28273728

weight f4 [16, 1, 3, 1]
00000000: 5506 a93e 6b5e ef3d cdea e1bd 8658 6dbc
00000010: 2612 c73e dd5c 9dbe 0da0 a3ba 3598 ed3e
00000020: 630c fe3e d1f9 a93e e0c0 95be 3aed 8d3e
00000030: c776 f63e 57f1 9b3e 00b1 913e 2870 9bbc
00000040: 7c8c 783e a2f5 a6bd a616 fd3d eff7 b3bd
00000050: 5ddc d23e 7bea fb3d beb7 82be 0784 9dbe
00000060: 4dab 053e d4ee d1be 0a2f 07be 7417 acbe
00000070: 2841 ccbe aeee 8e3e 8efe e03e 659c 003f
00000080: 5420 a4be e98d fc3e cbb4 a9be 6ba5 5b3e
00000090: acc2 9c3e 7986 253e d06d fdbc e87d fb3e
000000a0: 7f4d e7be 619b 7cbd 6f6a 3d3e 3c09 123e
000000b0: f6f8 f53e 3af4 b7be 6738 9dbd 62b4 1ebe
0.33012643 0.11687931 -0.11031113 -0.014486438 0.38881034 -0.30734912 -0.0012483612 0.46405187
0.49618825 0.33198407 -0.29248714 0.27720052 0.48137495 0.30457565 0.28455353 -0.018974379
0.2427234 -0.081523195 0.123578355 -0.08787524 0.4118375 0.12300583 -0.2553081 -0.3076479
0.13053627 -0.41002524 -0.13201538 -0.33611643 -0.3989346 0.27916473 0.4394421 0.5023864
-0.32055914 0.4932702 -0.33145747 0.2144982 0.30617273 0.16164578 -0.030936152 0.49119496
-0.45176312 -0.06167162 0.18497632 0.14261335 0.48041505 -0.35928518 -0.076767735 -0.15498498

bias f4 [16]
00000000: 624d c5bc a053 093d 95b4 c9be 2c6b 9fbd
00000010: 8f57 cebe ab87 063f afba 74be d143 8fbd
00000020: bd19 023e fe62 e7be 6e02 12be c091 f8be
00000030: 7b1b 99bc 3efd 2f3e 46b1 123f 3f7f 703e
-0.02408475 0.033527017 -0.39395586 -0.07784113 -0.40301177 0.5255076 -0.23899339 -0.06995357
0.12705131 -0.45192713 -0.1425874 -0.48548698 -0.018689862 0.17186448 0.5730175 0.2348604

weight f4 [1, 16, 1, 1]
00000000: 8dbd 813d 22e9 1d3c 65e4 89be 7720 b63d
00000010: 7629 533e 78e7 773e 9e9e 033e 9fac 843e
00000020: 6c71 3b3e 1e6d 883e d5ce f9bd 28d4 0cbe
00000030: 5572 553e 53fb 48bd d4d9 483e 3631 4a3e
0.06334982 0.009638103 -0.26932064 0.08892911 0.20621285 0.24209392 0.12853476 0.2591295
0.18304986 0.2664575 -0.12197653 -0.13752806 0.20844395 -0.049067806 0.19614345 0.19745335

weight f4 [282, 32]
00000000: eca1 e43c 338d 0b3b 9bc8 66bd e428 d23a
00000010: 1b3c 7d3d 1f45 80bb f923 4dbd dbee edbd
00000020: d771 163e d2fd 6c3d 91fb b6bc d867 013d
00000030: 6d4c e03d 0f2c 97bd 26ac 183d 1cc1 4e3a
00000040: a3f3 5c3d 68c8 d0bd 6afe 1fbe 27c9 4bbd
00000050: 0351 8f3d 172b 0abe ce3a 4d3d b3d7 c8bc
00000060: 01e0 193c feb1 0e3d 14c4 23be 9094 033b
00000070: fecb b8bd 6001 13bd b4ed 11be 2096 a3bd
00000080: f0c4 f53d dcea 28bd 5a26 86bd 9f2b a33c
00000090: bd2d 11be 26f5 023e 1b5a fdbd 0e90 7bbe
000000a0: 0e21 45bd 1268 25be c496 9ebd d053 febd
000000b0: a548 d6bd b8ac 24be 36bc 8b3c 7f83 b93d
000000c0: 862f 0d3e f1a5 00be 2dc4 c2bd 4005 493e
000000d0: 61a9 403e 618f d2bd 0c4e b53c d22d 24be
000000e0: 042d 733d 33ec 40be c064 75b9 a522 40bd
000000f0: bd58 d3bd 7c7a 1fbe 1f19 9a3d bace e8bd
00000100: 9092 4e3d f815 da3b afd9 9abd 5bfa 263e
00000110: 4700 04be e083 d1bc ec8c a33d b4d3 2d3a
00000120: 569f 27bd cbe0 c1bb 85b8 093e b65f 02bc
00000130: b07b 95bd 707d ad3c 85f5 04be c4cd 203e
00000140: 78a1 b13d 4282 0c3c 1c70 e23c c3bb b53b
00000150: 733b d73d 8f79 f7bd 609a ae3d 68ea aebc
00000160: 8c4c 3d3c 84a9 963b cb1b 08be f638 d6bd
00000170: 4f14 013e 7801 d03a 73c2 a7bd d23f 4fbd
00000180: 246e 74bd 6056 1dbd 36bb 07ba 90b6 15be
00000190: 4ad9 183e 2245 84bd f892 1b3d 3ccc 83bc
000001a0: 2086 1b3c b25d d9bd 70ad cb3b cab2 5cbc
000001b0: 1819 bfbd e7f0 033e e1d4 fa3d b4a4 15be
000001c0: a346 28bc 9911 783a 814d bc3d 3676 a6bb
000001d0: e0ed 16bc d17f 19bb 2e7b 2c3a 74f7 e9bb
000001e0: 6fce e2bd da4e e0bd 8707 17bb 24b3 96bd
000001f0: 6f80 aa3d 22b1 233e 1a20 953a 6043 ecbb
00000200: 49ed 0dbe 9af7 2abe 64ff 333e f6be e83c
00000210: ca16 4a3e 6cb3 ae3c 13e9 f53d a4f8 733c
00000220: 9353 223e 6ad9 0bbd e00d 3fbd 1cd4 a43d
00000230: 4b73 2d3e 2df3 35be ce41 2f3d fa8a 06be
00000240: 8b4e 66bd 2d4f 29be ffe3 f63d b894 0cbe
00000250: 3e37 62be cd76 9c3d 4907 efbc 86c0 8bbc
00000260: c6ab 273d 9e65 5fbe 0d6b 7b3e c7cb 243d
00000270: e109 023e e7b8 5c3d 00f8 7e3d bbef 193d
00000280: 29ae 71bc 3b6b e53d 9730 d83d 1d8f b6bd
00000290: f2f1 a63b 16ab 993d 4d9c ea3d c14a 183e
000002a0: 80f4 8c37 4616 44bd bfdd a93d 696b 523d
000002b0: 0a76 3cbd dab1 7f3c 8292 92bd f670 85bc
000002c0: 6255 d9bb ee86 dabd 7dc0 dabd 3b11 cbbd
000002d0: 8156 0fbe db16 b73d 3726 453c 18ef 203b
000002e0: 1784 b1bc 9636 23be 8ebd f4bc 9b73 aa3d
000002f0: 71a7 2bbe ed65 a2bd b91c d2bd fd41 c7bd
00000300: ffed 40bd 10de 9bbd 9776 8f3d 1fe4 f8bd
00000310: 7902 13be db50 87ba 680c 55bc e14a 94bd
00000320: 85eb c8bd 548d 943d 5605 f6bd e56f e2bd
00000330: 3339 b8bd 261e 683c ddeb f1bd 2bfd c6bc
00000340: 8696 05be c66b 1cbe dc37 1a3d 7c7d 133e
00000350: 81b1 133c 3644 8ebb b17a 803c 1f25 293e
00000360: 0848 323b 286e 283e b0c2 8fbb 8c37 47bd
00000370: bb39 913c 00f9 fc3b 2d43 8ebd a4b6 943d
00000380: dfba 1b3c 80ca 84bd 291d 543c 2012 1cbc
00000390: 2086 193e 54ae 0bbc f64c dcbd 8a91 b2bd
000003a0: a0cc b7bc a2f5 c23b 7036 083e 6068 193c
000003b0: ce47 a13d d545 e73b e180 143e 9246 033b
000003c0: 6e35 113e 2f43 553d d290 01be 2981 1bbe
000003d0: 53cf d33d 233a 153e 1cbe 8c3b 489f 5a3d
000003e0: b6ab ecbc fb66 09be 2494 1b3c d613 c03d
000003f0: 326b 893d 99ff ba3b 8774 80bd cab2 8a3c
0.027909242 0.0021293878 -0.056343656 0.0016033915 0.0618249 -0.00391449 -0.050083134 -0.11617824
0.14691864 0.05785925 -0.022336753 0.031593174 0.10952077 -0.073814504 0.03727355 0.0007887052
0.053943288 -0.101944745 -0.15624395 -0.04975238 0.06997874 -0.13493 0.05010491 -0.024516916
0.009391786 0.034837715 -0.15992767 0.0020077564 -0.090232834 -0.035889983 -0.14250833 -0.079876184
0.120004535 -0.041239604 -0.06550284 0.019918261 -0.14177604 0.12788829 -0.12370702 -0.24566671
-0.048127227 -0.16152981 -0.077436 -0.1241833 -0.104630746 -0.16081512 0.01705752 0.09058284
0.1378766 -0.12563302 -0.09510074 0.19630909 0.18814613 -0.102812536 0.022131942 -0.16033104
0.059369102 -0.18840103 -0.00023402553 -0.04690804 -0.1031966 -0.15574068 0.07524323 -0.11367555
0.05043274 0.006655451 -0.07561051 0.1630644 -0.12890731 -0.025575578 0.07985863 0.00066309725
-0.04092344 -0.00591669 0.13449295 -0.00795739 -0.07298982 0.021177977 -0.12984283 0.15703493
0.08673376 0.008575978 0.027641349 0.0055460646 0.10509386 -0.12083732 0.085255384 -0.021352008
0.011553895 0.0045978446 -0.13291852 -0.10460083 0.12605403 0.0015869578 -0.08191385 -0.050597973
-0.05967535 -0.03841245 -0.0005177738 -0.14620423 0.14926639 -0.064584985 0.037981957 -0.016088597
0.009492427 -0.10613574 0.0062157437 -0.013470361 -0.09330958 0.12884866 0.12247635 -0.1461361
-0.010270747 0.00094630715 0.0919447 -0.00508001 -0.009211987 -0.0023422132 0.00065796345 -0.0071400944
-0.1107453 -0.1095254 -0.0023045258 -0.07358387 0.08325278 0.1598554 0.0011377365 -0.00721018
-0.13860048 -0.16696015 0.17577893 0.02841137 0.19735256 0.02132579 0.12007346 0.0148908235
0.15852194 -0.03414289 -0.04664409 0.08048269 0.16938512 -0.17768545 0.042787366 -0.13138953
-0.05622725 -0.1653411 0.120552056 -0.13728607 -0.22091386 0.07639847 -0.029178279 -0.017059576
0.0409353 -0.21816108 0.24552555 0.0402334 0.12699081 0.053887274 0.06224823 0.03758214
-0.014750996 0.11202093 0.10556143 -0.089140154 0.00509476 0.07503335 0.11455593 0.14872266
1.6803155e-05 -0.047872804 0.08294248 0.051371966 -0.04601101 0.015606368 -0.071568504 -0.016289216
-0.006632493 -0.10670267 -0.106812455 -0.09915396 -0.13997842 0.08939906 0.012033037 0.0024556573
-0.02166943 -0.15938792 -0.029875543 0.08322831 -0.16763093 -0.07929597 -0.10259385 -0.09729383
-0.04710197 -0.076107144 0.07005041 -0.12152886 -0.14356412 -0.001032378 -0.013003446 -0.072408445
-0.09810547 0.07253519 -0.120127365 -0.110564984 -0.08995285 0.014167344 -0.118125655 -0.024290642
-0.13045701 -0.15275487 0.037650928 0.14403337 0.009014488 -0.0043416275 0.015683504 0.16518067
0.0027203579 0.16448271 -0.004387222 -0.048636958 0.017727723 0.007720113 -0.069464065 0.072613984
0.009505003 -0.06483936 0.012946405 -0.009525806 0.14992571 -0.00852545 -0.10756867 -0.087191656
-0.02243644 0.005949692 0.13302016 0.009363264 0.07875024 0.007057885 0.14502288 0.0020031077
0.14180538 0.052066024 -0.12652901 -0.1518599 0.10342278 0.14572959 0.0042951237 0.05337456
-0.028890472 -0.1341819 0.009495769 0.093787834 0.06709899 0.005706739 -0.06272226 0.016930956

weight f4 [32, 32]
00000000: 58c2 1ebd 8d2d ac3d 1205 f23c 1651 2c3e
00000010: f253 91bc c910 bf3c c96d 39bd a856 463e
00000020: b7f3 5b3d bd5c e3bd 6700 0cbe eff6 4b3e
00000030: d715 623d e65f 4fbe a8e4 1a3d 2388 37be
00000040: 2098 253e a1b7 a3bd 6144 19be df91 043e
00000050: d927 10be bbb1 1cbd 881c b6bd 1dd1 373e
00000060: c5e6 933c a563 f8bd 85bb f6bd 0f56 173e
00000070: e1d0 253d af27 1fbd 7cd7 f73b 659c 49be
00000080: a72e adbd d7c6 a83c 2879 f13d 6985 0a3e
00000090: cdd5 bc3c cfd9 10be 447d c2bd 530e dabd
000000a0: a098 4a3e 3818 f5bd c86b b63d fc00 b43d
000000b0: a35b 283e 870c 05bc 5109 443e 6419 f33d
000000c0: 650e 4bbe 9165 a5bd 1f47 ae3d 6436 85bd
000000d0: dd5d edbd d1c6 e6bd 1fea 11be d29d 8abc
000000e0: 5398 28be 4877 3abe cbc5 b2bd bda6 4e3e
000000f0: b24d 44be 0f78 95bd d75d ed3d fc15 3dbe
00000100: 8ca8 983d 52a4 3e3c dfe0 3e3d 160e 64be
00000110: 6fde b8bd fc44 a03d 620f 18be 2817 a5bd
00000120: a46e 7bbd 0f52 1dbd 478c 91bd f1ae f43d
00000130: c113 3f3e 9cf6 293d d0fa 4e3a 00d5 68be
00000140: 0b67 433d eb3c e13d 7e70 06bd 14fa c8bd
00000150: 04ec debd 1c53 c63c 3f41 a23d b39c 4ebe
00000160: 86d8 1bbd 60b2 da3d 1100 d1bd 6257 2e3e
00000170: e6dd 153e 32e1 d1bd 247d 583e 2871 563e
00000180: 52df 243d 8d0a 913d 93fd 92bd 6eeb debc
00000190: 6bfe 6fbd bcd4 e13d 1e4f 3c3d 14d5 ea39
000001a0: 7969 1bbe 9cc0 7a3e 4ae3 45be 93f4 53be
000001b0: f9f9 633c d64a 1d3e 20f9 16be 1453 703e
000001c0: fbba 0d3e ae2f 9a3c ada4 23be c2fa 0abe
000001d0: c713 a2bd 737c 48be 4e87 933b 9741 fa3d
000001e0: b1ab e63d c2b5 e3bd 0205 d73d 6ed1 06bd
000001f0: a645 7fbd a84e d0bd b114 043e 1509 dcbd
00000200: 7929 9bbd d1ec cebd ea18 de3c 911e 0e3d
00000210: 3409 56bd e2ae 843c 9fcd 263d 71df bfbd
00000220: 5ef8 3cbe 18da 2fbd 9249 90bd 0c32 973d
00000230: ed7e 10bd 7b91 86bd 8a1e 81bd f2e2 4c3d
00000240: 6f45 af3d dd3b b43d ee1c d03d e0b4 05be
00000250: f2be febc 3902 3a3d 7c1a 9abd f53f 1ebe
00000260: 380c 72bd 5092 3fbe 61f9 3fbe a69f 4abe
00000270: 267c 583e 802c 253e 046e 333d 124b 5dbe
00000280: 3b44 3c3d d715 54bd 5beb 073e 1820 233e
00000290: f502 473e 4b05 1fbe 117b 0c3e c0ae 07bd
000002a0: aba4 b83d 298c 11be d182 ebbd 47e3 6dbe
000002b0: 4b78 88bd ed04 5ebd 4843 773e ae44 603d
000002c0: 496b acbd a486 273e eddd 0cbe 5669 763d
000002d0: 62e5 72bd b102 c23c 2c5b 72bc edc6 873d
000002e0: da90 553e 8091 ee3d e531 313e 4126 843e
000002f0: dc18 49bd 15ad f23d 62cf b3bd 17d0 df3d
00000300: ee0a 7ebd 443c 0fbd 2ce0 ddbd 0ecc 3ebd
00000310: 4a31 483e 3ae0 b0bb ca32 afbd ff43 1dbe
00000320: e823 2abe 1c44 173e 19cc 54be 1714 19be
00000330: 3640 523e 2f74 723e fa90 82bd 0f43 e9bc
00000340: 78da 46be 6fe9 533d 1dbe b73c 230b 2fbd
00000350: 826a 733d 4348 4fbc b0ba 91bd e545 ca3c
00000360: 164e 483e 2a2a 96bd 43d3 0dbe 086c 043e
00000370: 509a 2ebe 0fd3 933d eceb 213e 6cfd e93c
00000380: aecd b53c 8f0b 94bd a233 0e3e 193d f8bd
00000390: 7763 38be 60da babd fa29 fdbd 8ad0 253e
000003a0: 923c a03c dc7f 263e 8a7e 5c3d e861 e33b
000003b0: 74e0 803c 9051 103e 283a 143a 6629 003e
000003c0: de7d 653c eb87 fcbd 3bec 443e a801 7bbd
000003d0: 7a2b 0d3e ad1c 48be c049 303e 0c9e 87bd
000003e0: 9135 34be 4bc7 023e 9fb4 143e ea20 173e
000003f0: ba3d 26be 6b85 7fbd 2af8 fb3d 9327 07bc
-0.03875956 0.084071256 0.029543433 0.16827807 -0.017740224 0.023323433 -0.045270715 0.19368994
0.05369922 -0.11101673 -0.13672028 0.19918416 0.05519661 -0.20251426 0.03781572 -0.17923026
0.16171312 -0.07994009 -0.1496749 0.1294627 -0.140777 -0.038255434 -0.08892161 0.17950864
0.018054375 -0.12128381 -0.12047485 0.14778922 0.040482406 -0.038856205 0.0075635295 -0.19688566
-0.08456164 0.020602627 0.11790687 0.13527454 0.023051167 -0.14145587 -0.09496549 -0.106472634
0.19784784 -0.1196751 0.089072764 0.0878925 0.16441207 -0.0081206625 0.19144179 0.11870077
-0.1982971 -0.08076013 0.08509659 -0.06504515 -0.115901686 -0.1126839 -0.14249466 -0.016920958
-0.16464357 -0.18209565 -0.08729132 0.20180793 -0.19170263 -0.0729829 0.11590164 -0.18465418
0.07454023 0.011635857 0.046601173 -0.22270998 -0.09026801 0.07825658 -0.14849618 -0.08061057
-0.061384812 -0.038408335 -0.07106834 0.1194743 0.1865988 0.04149495 0.00078956503 -0.22737503
0.04770569 0.10997947 -0.032822125 -0.098133236 -0.1088486 0.024209552 0.07922601 -0.20176964
-0.03804829 0.106785536 -0.10205091 0.17025521 0.14635429 -0.10248031 0.21141487 0.20941603
0.040252037 0.070820905 -0.07177272 -0.027211871 -0.05859224 0.11026904 0.04597389 0.00044790714
-0.15176953 0.24487537 -0.19324985 -0.20698766 0.013914579 0.15360579 -0.14743471 0.23469192
0.13840859 0.018821564 -0.15980788 -0.13572219 -0.079139285 -0.19578724 0.0045022136 0.122195415
0.11263216 -0.11118652 0.10499002 -0.03291457 -0.06232228 -0.101712525 0.12898518 -0.1074392
-0.0757627 -0.10103763 0.02711149 0.03469712 -0.05225487 0.016196672 0.04072344 -0.0936879
-0.1845412 -0.0429326 -0.070452824 0.073825926 -0.035277296 -0.06570717 -0.06304653 0.05002112
0.08558165 0.088004805 0.10161768 -0.1305728 -0.03109691 0.045412276 -0.07524583 -0.15454085
-0.059093684 -0.18708158 -0.18747474 -0.19787464 0.21141109 0.16130257 0.04380609 -0.21610668
0.045963507 -0.05177864 0.13273375 0.15930212 0.19434722 -0.15529363 0.13718821 -0.03312564
0.09015783 -0.14213623 -0.114995606 -0.2323123 -0.06663569 -0.054203916 0.2414676 0.054752998
-0.084189005 0.16359955 -0.13756533 0.06015905 -0.059300788 0.023682924 -0.014792245 0.06629739
0.20856038 0.11648846 0.1730419 0.25810435 -0.049095973 0.11849419 -0.087797895 0.10928362
-0.062022142 -0.034969583 -0.10833773 -0.04658132 0.19550052 -0.0053978236 -0.08554609 -0.1535797
-0.1661526 0.14772075 -0.20780982 -0.1494907 0.20532307 0.23677133 -0.06375308 -0.028474359
-0.19419277 0.05173629 0.02242952 -0.04273523 0.059427746 -0.012651506 -0.07115686 0.024691531
0.19561037 -0.07332261 -0.13850121 0.12931836 -0.17051053 0.072179906 0.15812653 0.028563224
0.022192802 -0.07228767 0.13886884 -0.121210285 -0.18006693 -0.09123683 -0.12361522 0.16192833
0.019560132 0.16259712 0.053831615 0.0069391616 0.015732028 0.14093614 0.0005654418 0.12515792
0.01400706 -0.12330612 0.1923074 -0.061280876 0.13786116 -0.19542189 0.17215633 -0.06621942
-0.17598559 0.12771337 0.14522026 0.1475865 -0.16234484 -0.062383097 0.12303193 -0.008249181

bias f4 [32]
00000000: deb4 0b3c 4227 cc3c bc4a 55be 7a4d ce3d
00000010: 63c8 0cbe a096 e6bc 6eeb ee3c dcc6 1ebe
00000020: 549d 553c 4d20 dbbd 4070 04be 1ed6 3a3e
00000030: 4fd3 c63d bcae ee3d 04a9 0f3e 8320 123e
00000040: 0861 e2bc 3c17 8dbd a105 b23d cd6a 16be
00000050: bd18 87bd d3bb 59be 6c5a 2a3e 74f8 513e
00000060: 53a3 973d d5aa 20bd 39d3 c6bd 38b4 2e3e
00000070: 3a89 0a3d 0bb3 df3c 7582 5d3e 65bd da3d
0.008527009 0.024921063 -0.2082929 0.10073371 -0.13748316 -0.028147995 0.029164996 -0.15505546
0.013037998 -0.1069952 -0.12933445 0.18245742 0.09708273 0.11654422 0.14029318 0.14270215
-0.027634159 -0.06889197 0.0869248 -0.14689179 -0.06596515 -0.21263056 0.16636056 0.20504934
0.074041985 -0.039225418 -0.09708256 0.17060935 0.033822276 0.027307054 0.21631797 0.106806554

weight_ih_l0 f4 [128, 32]
00000000: b7df 33be eca4 11bc ccf8 1e3e 23d6 053e
00000010: 7f71 a9bd 664e 883d 6ee7 2a3e 1e4f 9a3c
00000020: e916 0e3e abbb 193d 4c5d 263e 779c 86bd
00000030: f663 3c3e cf0c 9f3d 1756 3d3c 7720 b0bc
00000040: 4cf2 8cbd 2fca d53d 8afc c3ba 0376 3bbe
00000050: c5bf 27be b357 2abe 3b32 3b3e bbfa 05be
00000060: 00c2 073e a85f 0b3e 0174 be3d c2f4 333e
00000070: 864f 533e 98e6 39ba 21ba c33c 6da8 3dbb
00000080: 09b1 043d caa7 263e f2f8 203e f629 2a3d
00000090: f393 663b 017c 51bd a9f3 95bd b6aa 03be
000000a0: 633c f53d d897 efbd be15 94bc 956d 00bd
000000b0: f17f cf3d 088c 45bd 79e0 9ebd 5a29 32bc
000000c0: cb4a 103d 25ad 47bd 762d 453d 3659 0f3e
000000d0: e207 383c 48d2 22bc 880b dbbd 8d59 febd
000000e0: aa70 ecbd b211 eabd 3c5c 11bc a2b9 083e
000000f0: acd9 443c dd2c 8d3d e250 553c f5e5 383e
00000100: 243a bfbc 0108 babc eaf1 b33d 5386 1a3e
00000110: 17c8 cf3c 89b1 783d bc0d b73d 19a8 003e
00000120: 82c2 153e e102 423b 4540 283b 23ce 4a3e
00000130: 223b ae3d b2a5 e13d 5c64 163e 71ae 593e
00000140: 74d9 863c eab6 143e 34f9 39bc b187 11bd
00000150: 240d 80bd 59b0 d5bc 0fdf ef3d 0280 b73c
00000160: 7ad3 a83d 8cdb 9ebc e6b5 4abe b125 c2bd
00000170: f487 d23d 9af3 063c 2bc6 b93c eca5 8e3a
00000180: 5e68 48bd e28f d13d 8eef a4bb 160a 3fbe
00000190: fba7 15bd ecd3 c6bd 4cbe 823c 2968 bbbd
000001a0: 705b 463d d8f7 24bd cbff 0c3e 4851 b83d
000001b0: 1a2f 803d 3a73 a13d b7a6 03be d254 c33d
000001c0: 7d9d 5bbd 0e1c ff3c 212f dfbd 9624 573c
000001d0: 4239 903d 8736 f6bc 320d 07be 3cb7 2abe
000001e0: 0702 86bd df83 303d 30bc 23be df1d 8c3d
000001f0: 79b4 37bd 8a54 cabc e919 8bbd 3450 313d
00000200: 1578 ee3d 91e3 4ebe 2a38 ebbd a837 9abd
00000210: 3e20 bd3d 3241 46be 8478 973c 6861 1ebe
00000220: e9d0 c33c f472 833b bdb5 bb3c 00f9 2c3d
00000230: c3e3 483d bd32 8fbd bb08 38be 1233 47be
00000240: 8e37 9c3d cc0d 833c 332f 7f3d 8ed3 10be
00000250: e741 053b 34b4 fdbc 086f 8fbd 3aa4 903d
00000260: 0bca e63d 6a34 9cbb 36f9 b93d 8a50 063c
00000270: cc2f 19be 1ffb 38be f0d4 a43c d56a 313d
00000280: 5275 8a3d 9b7e 673d d6d1 f13d fa9a 033d
00000290: 6595 23be 6cdb 43bd e315 f4bd 8876 90bd
000002a0: 1aed 813b 63ea b8bd 3eec c3bd a2d4 00be
000002b0: 5ba4 29bd 3fff d3bc 5056 99bd 0532 1bbe
000002c0: 5b2e 43bd 6889 dc3d c3af cbbd f8e5 1ebd
000002d0: a9aa b4bd 78f1 20bd 89b4 c0bd f427 b6bc
000002e0: 8547 103e 9c7c 96bd 1a74 f4bb 5f07 e1bd
000002f0: 7557 f3bd de42 adbd e796 a3bd 227a 353e
00000300: b4bc 66bb 1492 8c3d 7431 8e3d 1ede e03d
00000310: a063 023e c909 5d3b 9f9a 6c3d a954 773d
00000320: 5b34 813d 31a3 6fbd f15b dcbd e5e3 09be
00000330: 7f0b 073e 0e93 cabd e14a 2dbe e873 103c
00000340: a235 febd 0c61 4bbd 0f98 3b3e bbc9 6a3c
00000350: 56be ab3d 7ea4 223e b029 b53d 7920 31bd
00000360: 174b 673d 7fe0 b2bd 107b 85bc 1500 953d
00000370: 4c40 fa3d 45af 7d3d f19e 373e c2cc 253c
00000380: 8665 cdbd e763 03be 1ad0 75bb 4f1d 243e
00000390: d2ef 333d ca6e bd3a 4c64 56bd db50 77bd
000003a0: 6d7e 153e 3b1b 9bbc ae2c cb3d 9f8c 3f3e
000003b0: 0e61 cebd b5d5 f43d 2863 3a3e 0b53 293c
000003c0: df9a f03d ed25 d83d be3f 193e c095 003e
000003d0: 2238 50be 7486 97bd 10a7 783d 20f3 8239
000003e0: f79b 433e e91f a73d 03c3 4f3d 77fc 00bd
000003f0: 63bc c0bd cf57 78bc 588e f43d 62de 9b3d
-0.17565809 -0.008889418 0.15524596 0.13069968 -0.08273601 0.06655578 0.16689846 0.018836554
0.13875927 0.03753249 0.16246527 -0.06572812 0.18397507 0.07766115 0.01155617 -0.021499855
-0.06882152 0.10438954 -0.0014952582 -0.18306737 -0.16381748 -0.16635017 0.1828088 -0.13083927
0.13257599 0.13610709 0.0929947 0.17573836 0.20635805 -0.0007091551 0.023892464 -0.00289395
0.032395396 0.16274944 0.15719965 0.041543923 0.00351834 -0.05114365 -0.07321865 -0.1285809
0.119744085 -0.11698884 -0.018076774 -0.031354506 0.10131825 -0.048229247 -0.077576585 -0.010874117
0.035227578 -0.048749108 0.048139058 0.13998875 0.011232348 -0.00993783 -0.10695559 -0.12419424
-0.115449265 -0.11429156 -0.008872088 0.13352063 0.012014788 0.068933226 0.013019772 0.18056472
-0.023343153 -0.022708895 0.08786376 0.15090303 0.025363965 0.060716186 0.089381665 0.12564124
0.1462498 0.0029603767 0.0025673073 0.19805197 0.085073724 0.11017932 0.14686722 0.2125795
0.016461112 0.14522901 -0.011350919 -0.035529796 -0.062525064 -0.026085066 0.11712467 0.022399906
0.08243461 -0.019391797 -0.19795951 -0.09479845 0.10279837 0.00823679 0.022677502 0.0010883189
-0.048927657 0.102325216 -0.00503344 -0.18656191 -0.03653715 -0.0970839 0.015959881 -0.09150726
0.048427045 -0.040275425 0.13769452 0.08999878 0.06258984 0.07883306 -0.12856565 0.095376626
-0.05361699 0.031141307 -0.10897661 0.013131281 0.07042171 -0.030055298 -0.13188627 -0.16671461
-0.065433554 0.043094512 -0.15989757 0.06841635 -0.044849847 -0.024698514 -0.06792051 0.04328938
0.116439976 -0.20203997 -0.11485322 -0.07530147 0.09234665 -0.19360808 0.018490084 -0.15466845
0.023903327 0.004011506 0.022913808 0.042229652 0.049045336 -0.069920994 -0.1797208 -0.19453076
0.07627784 0.01599779 0.062300872 -0.14143202 0.002033347 -0.030969717 -0.070035994 0.07062574
0.112690054 -0.0047669904 0.09080736 0.008197913 -0.1495964 -0.18064545 0.020121068 0.043314774
0.06760658 0.056517225 0.11807601 0.03213022 -0.15974958 -0.04781668 -0.11918237 -0.07053858
0.0039650323 -0.09029081 -0.09566544 -0.12581113 -0.041416507 -0.025878547 -0.07487166 -0.151558
-0.04765163 0.10768396 -0.09945633 -0.038793534 -0.08821613 -0.039292783 -0.09409434 -0.022235848
0.14089783 -0.07347986 -0.0074601294 -0.10987734 -0.118819155 -0.084600195 -0.07987767 0.17722371
-0.003520769 0.068638 0.06943026 0.109798655 0.12733316 0.0033727756 0.057764646 0.060383473
0.06308814 -0.05850524 -0.10759724 -0.13465841 0.13187979 -0.0989133 -0.16923095 0.008816697
-0.124125734 -0.049653098 0.18319725 0.014330323 0.08385913 0.15883061 0.08845842 -0.04324386
0.056468096 -0.087342255 -0.016294032 0.07275406 0.12219295 0.06193473 0.17931725 0.010119619
-0.1002913 -0.12831078 -0.0037508071 0.16026805 0.043929882 0.0014452573 -0.052341744 -0.060379844
0.14599009 -0.018933883 0.09920631 0.18705986 -0.100771055 0.11954824 0.18201888 0.01033474
0.11748289 0.10554109 0.14965722 0.12557125 -0.20333913 -0.07398692 0.0607062 0.00024976674
0.19102465 0.08160383 0.050723087 -0.03149077 -0.09410932 -0.015157654 0.119412124 0.076107755

weight_hh_l0 f4 [128, 32]
00000000: f52e cdbc a6ed c7bd 6639 bf3c bdec bc3d
00000010: 02ba 05be 39e8 c33b aab5 6b3d e52c f8bd
00000020: 925c 56bd f506 37bd 1a7b 18be a602 1fbe
00000030: 547b 2bbe 1f4c a0bd 16f4 4fbc 9e7c 113b
00000040: 7b80 95bd 7ce8 92bd 426d 1e3c 4dce 9dbd
00000050: c3b6 bb3d 859d 70bd 932b 033e ddd5 333e
00000060: fb2e b43d 6c9c e0bc 8eb9 133e fd75 293e
00000070: b460 2bbe ae17 5cbc f4e5 c1bd 212d 093e
00000080: c7b7 f3bd 60c7 073c b4fc 733c fd30 4fbd
00000090: 8f02 f3bd 863e 2cbd e367 863d be50 af3d
000000a0: a617 8cbd fdfb 9ebd 10fc 14be d898 a8bd
000000b0: 41e2 7d3d 2083 1c3e e112 98bd ef43 163c
000000c0: cef8 1a3e 0f10 9fbd c4ff 8d3d 5cef b9bc
000000d0: 5645 29be e0ca 97bd 378b 84bd 0865 443e
000000e0: 85f0 223e ddff 21be 36da 013e 7c80 283e
000000f0: 2a10 40bd 34ea 53be 6cf2 4c3e f74f d0bd
00000100: 2dea 10be 7b36 ac3d 3fe9 11be ca03 d2bd
00000110: d338 56bd ae92 2d3d ecab d83d b8b5 17bd
00000120: fa7c 87bd 6884 5fbd 95fa 14be d985 33be
00000130: 18a7 efbd d196 303e cd8e 2ebe 2749 f23d
00000140: bf52 e6bd fdd7 06bd 7718 9fbd 179f 053d
00000150: 01ec 2fbe 1044 ab3c d85c 6a3d adef c43d
00000160: d460 9cbc 8670 34bd 6757 e13d 36a6 983d
00000170: 38aa 943c 7627 d83c 4605 363e 9fdf 323e
00000180: 4eea 9b3d 3ede c6bd 7c6a 19be 27b2 aabd
00000190: a496 fabd 8f4d c7bd 2e06 f8bc 0e5a 9cbd
000001a0: 7510 21be 0550 3a3e 2b57 abbd a49e cfbd
000001b0: 7ede 08be f3fb 95bd 7c9b e4bd 483b d8bd
000001c0: dc74 3cbe 7498 e3bd 002f 93bd 36ec 22bd
000001d0: 8879 433e ca43 f1bd 6696 f3bd f132 203d
000001e0: 520b 8f3d f9c3 0ebe fd1f c13d d80d ff3d
000001f0: 535e 0fbe 4420 163e b0c9 bc3d 269f 1b3a
00000200: 1393 1a3e 0259 063d 8e8c e63d 36d8 24bd
00000210: 0bd9 0fbe 87eb c4bd 91fe 2f3e 84df 13be
00000220: a5c0 39be 210e 0a3d 1e4d 903a 1cdb 2e3e
00000230: 2946 c5bc f1b3 76bd 2945 9ebd d317 053e
00000240: d18d a4bd 8114 643d e0dd 9ebd 22d0 1bbd
00000250: 910d 383d 0bca 60bd 0a23 38be b742 b13d
00000260: 6e4e bfbd d29d f7ba 2891 da3d 23e6 a53d
00000270: 9c79 c5bd aa3b 4e3e 1d13 adbd 674c 59bd
00000280: eed9 49bc 9fa2 ec3d 5c26 16bd 8e5f 0dbd
00000290: 89b1 7abd acbe 643d 6ba1 e23c d528 0fbe
000002a0: a058 a3bd c936 a5bc 5f01 3e3d 4909 84bd
000002b0: 5da7 f93c 826c c5bd b468 5fbd da6e 10bd
000002c0: 0f20 62bd a8f4 36be 225f b13c 8604 bfbd
000002d0: e421 ddbd 1068 a9bd 1651 143d c444 c03d
000002e0: 741c 443d dd54 0a3e a017 f33d f51b c13c
000002f0: b6f9 4cbd 5038 443d 0ea3 2fbd 1f03 cb3d
00000300: 2b40 65bd 3c59 9abd 11f7 d43d 7c88 3f3d
00000310: 4d82 c23d e7b7 2b3d 1527 023e b1f6 513d
00000320: e9a4 1c3d d4c5 ec3d 3e0b 67bd 3164 29be
00000330: dbb9 d9bd 39e4 9dbd a839 143d c689 52bc
00000340: 27e8 c0bd 690b d6bd c3f4 b53c 2123 11be
00000350: 5747 fcbd 1386 5e3d 4311 cbbd b011 bfbd
00000360: 8359 1bbe 110f debd 4e4d 4b3d 063f 66bc
00000370: 9048 103e 1462 89bd aeea e4bd f45f e23d
00000380: 9155 823d bfec 8c3d 7b19 4dbe 470e b13d
00000390: 7abf 043e 87b8 abbd d0c8 183e d0f9 953d
000003a0: 3626 b3bc c67b d6bd 556f abbd af8a 35be
000003b0: 7f51 8abd 5a5b b6bd 32b7 bf3d ec64 153d
000003c0: 53d5 9c3c 577f 193e 5f91 f2bd 1cfd bc3c
000003d0: 80c4 083e 2e7c 4d3e cf39 d93d 4b09 283e
000003e0: 59ab 313e 95ec 98bc 6ad5 113e 7c8b 01bd
000003f0: e05b 2ebe 3e14 bfbd db2a 66bd 3ac1 033e
-0.025046805 -0.09762125 0.0233428 0.09224842 -0.13059238 0.005978611 0.057546295 -0.12117938
-0.052334376 -0.04468437 -0.1489071 -0.15528354 -0.16746265 -0.07827019 -0.012692472 0.0022199522
-0.07299896 -0.07173249 0.009669604 -0.077053644 0.091657184 -0.058743972 0.12809591 0.17562051
0.08798023 -0.027418338 0.14426252 0.16548915 -0.16736108 -0.01343338 -0.09467688 0.13396122
-0.11900287 0.008287281 0.014891792 -0.05058383 -0.118657224 -0.042051814 0.065627836 0.08560322
-0.06840448 -0.07762907 -0.14549279 -0.08232278 0.06198335 0.15284395 -0.07425476 0.00917147
0.15133974 -0.07766735 0.06933549 -0.022697143 -0.16530356 -0.07411742 -0.064718656 0.19179165
0.15912063 -0.1582026 0.12680897 0.16455263 -0.046890415 -0.2069481 0.20014352 -0.10171502
-0.14151831 0.08408829 -0.14249133 -0.10254629 -0.052300286 0.042376213 0.105796665 -0.037038535
-0.06615634 -0.05456963 -0.14548714 -0.17531528 -0.117017925 0.17245032 -0.17046662 0.11830359
-0.11246251 -0.032920826 -0.07768338 0.032622423 -0.17179872 0.020906478 0.05721745 0.09616027
-0.01908914 -0.044052623 0.11002999 0.07453577 0.018147573 0.026386004 0.17775449 0.17468117
0.076130494 -0.09710358 -0.14982027 -0.08334761 -0.12235764 -0.0973159 -0.030276384 -0.07634364
-0.15728934 0.18194588 -0.08366235 -0.1013768 -0.13366124 -0.07323446 -0.11162469 -0.10558182
-0.18403953 -0.111130625 -0.07186699 -0.03977605 0.19089329 -0.11780508 -0.118939206 0.03911108
0.06984581 -0.13941945 0.094299294 0.12453812 -0.14000826 0.14660746 0.09218156 0.0005936496
0.15095167 0.03279973 0.112572774 -0.040245257 -0.14047639 -0.09615236 0.17186953 -0.14440733
-0.18139894 0.03370488 0.0011009311 0.17075771 -0.024081307 -0.0602302 -0.07728035 0.1299737
-0.08034862 0.055683617 -0.07757163 -0.038040288 0.044934813 -0.054880183 -0.17982116 0.08655303
-0.09341131 -0.0018891639 0.106722176 0.08100536 -0.09642336 0.20139948 -0.08450911 -0.05305138
-0.012320025 0.11554455 -0.036657676 -0.034514956 -0.061204467 0.0558459 0.02766486 -0.1398042
-0.07975888 -0.020167725 0.046388026 -0.064470835 0.030475313 -0.09639837 -0.054543212 -0.035261966
-0.055206355 -0.17866766 0.021651808 -0.09327035 -0.1079748 -0.082718015 0.036210142 0.09388116
0.047878698 0.13508935 0.118697405 0.023572901 -0.05004283 0.047905266 -0.04288011 0.09912705
-0.0559694 -0.07536551 0.10398687 0.04676102 0.09497509 0.04192343 0.12710221 0.051260654
0.038243208 0.1156117 -0.056407206 -0.16542126 -0.10631152 -0.07709546 0.036187798 -0.012850231
-0.094192795 -0.10451395 0.022211438 -0.14173557 -0.123182945 0.054327082 -0.09915402 -0.093295455
-0.15170865 -0.108427174 0.04963427 -0.014053112 0.1409018 -0.0670816 -0.11177574 0.11053458
0.06363977 0.06881093 -0.20029251 0.08645301 0.12963668 -0.08384805 0.14920354 0.073230386
-0.021868806 -0.10472827 -0.08370844 -0.17728685 -0.067538254 -0.08904143 0.093611136 0.0364732
0.01914469 0.14989983 -0.118441336 0.02306991 0.13356209 0.20066902 0.10606729 0.16409795
0.1735052 -0.018667499 0.14241567 -0.031627163 -0.17027235 -0.09330033 -0.056193214 0.12866679

bias_ih_l0 f4 [128]
00000000: 72af 173d 6107 053e 18c4 71bb 444c 57bd
00000010: 3791 a4bd cf5f 79bd d95e 313e 3a65 42bd
00000020: 69db 0dbe 13b4 573e 9547 e63d 471d d9bd
00000030: c177 313e 5fa0 ce3c 6e55 b8bd e3e3 f43d
00000040: af9c ac3c 7367 cc3d 9b3b 413d 84b7 32be
00000050: f9c0 90bd f86e 90bd 5cf9 e03d 8cf5 593e
00000060: 61b2 e23d 1b91 b8bc f7d4 d43c ef9a a53d
00000070: 3ea2 493e f0af 103e a98a c9bd a8bf 4f3e
00000080: 0005 4b3e add3 a43d 918e e63d 5a4d e5b9
00000090: 85d1 de3d 8f38 1abd 255f fdbd a98b 8dbd
000000a0: a3fe 623d de62 523e 62f5 1ebe 4d3b 4c3e
000000b0: c800 d2bd 035d 193e 9634 b7bc 4c87 263d
000000c0: ff6d e03d d880 2f3e f76b 3ebe 1ed7 85bc
000000d0: 50b4 aa3d b990 4b3e c893 f43d accc b3bd
000000e0: 977a e83c 49e3 2e3e e946 7d3c 3828 f53c
000000f0: 54a2 87bd 879c 81bc a6b7 d6bd 9117 afbd
00000100: cdee f2bd cd84 4a3e 3ea9 85bd ca02 be3d
00000110: 54fe 4c3d 5c0c 16be efac 98bc cf3c 473e
00000120: 6e01 ea3d 5cf1 82bc 9a40 58bd 8a6e 4abe
00000130: 869f 1ebe 3f41 013e 903f 10be c3fe 973d
00000140: dcd9 343e e6b9 ef3d a05a d4bd f678 d9bd
00000150: db6c f93d 2202 243e 4e12 db3d 40bd 59bc
00000160: da6d ed3d f176 c5bd 4df2 3c3e 6f57 1bbc
00000170: 24b4 43be cfbd c3bd 2a42 26bd 7777 3d3d
00000180: 3a26 6b3c ad1f 93bd 530a 8f3d df6c c3bc
00000190: 551b 02be f07b dd3c d558 c93d 8bc5 d6bd
000001a0: d3a7 72bc ee4a 293c 9971 383e 4ec8 56bc
000001b0: 56d6 283e 625e 343d 2e6b d1bd bb41 1b3c
000001c0: 4ce5 bdbc c2ed f6bd fcbd c43d 522b 69bd
000001d0: 6fa9 0abe 26b4 563d d0de a5bd bc99 403e
000001e0: 3a6f aa3b 9076 2c3e cd00 3dbd af44 08be
000001f0: 5870 493d 4a25 123d 42a8 11bd 42dc 03be
0.037032552 0.12991096 -0.0036890563 -0.052562967 -0.0803551 -0.060882386 0.17321338 -0.04745982
-0.1385323 0.21064787 0.11244122 -0.10601287 0.17330839 0.025222955 -0.090006694 0.119575284
0.021070806 0.09980669 0.047175985 -0.17452818 -0.070680566 -0.070524156 0.109850615 0.21285075
0.11069179 -0.02253013 0.025980456 0.08086192 0.19690797 0.14129615 -0.098409005 0.20287955
0.19826126 0.080481865 0.11257661 -0.00043735915 0.108798064 -0.037651595 -0.12371663 -0.06911404
0.05541862 0.20545527 -0.15523294 0.19944496 -0.10254055 0.14976887 -0.022363942 0.040656373
0.1095848 0.17138994 -0.18595873 -0.016337927 0.08335173 0.19879426 0.119422495 -0.087792724
0.028378768 0.1707889 0.015458801 0.029926404 -0.066227585 -0.015821708 -0.10484247 -0.08549417
-0.11861954 0.19777222 -0.06526421 0.09277876 0.050047234 -0.14653152 -0.018637149 0.1945679
0.11426054 -0.01598423 -0.052795984 -0.1976873 -0.15490541 0.12622546 -0.14086747 0.07421639
0.17661232 0.11705379 -0.10368848 -0.106187746 0.12178966 0.16016439 0.10696851 -0.01328975
0.11593218 -0.09641827 0.18451805 -0.009481295 -0.19111687 -0.095576875 -0.040590443 0.04625651
0.014352376 -0.07183776 0.06984391 -0.023855625 -0.12705739 0.027036637 0.098313965 -0.10486897
-0.01481052 0.010332806 0.18012084 -0.01310928 0.16488013 0.044035323 -0.10225521 0.009476121
-0.023180626 -0.120570675 0.09606549 -0.05692608 -0.13541196 0.052417897 -0.08099139 0.18808645
0.0052012475 0.16842103 -0.04614334 -0.1330745 0.049179405 0.035680093 -0.035560854 -0.1287699

bias_hh_l0 f4 [128]
00000000: d304 033d f01a afbd 485b f93b 219b 40be
00000010: 0200 3fbe 018e 33bd dbf6 c5bd 145d acbd
00000020: 0b1f aabd f662 7dbd 373e 623d 6504 0d3e
00000030: a988 223d 1656 e8bd 4ec7 133e e9eb 52bd
00000040: 1717 d9bd 0842 33bd 685a 40be 7800 b53d
00000050: 5feb 343e ec9d 1c3e de4d bf3d 3389 e93d
00000060: 1111 eebd f399 b3bd 211b e1bd 9ce2 c9bc
00000070: 96f0 b23d 609c a53d b54f 60bc 386d e9bd
00000080: 158e e6bd 711c a6bd 0835 b23c 0adb 623d
00000090: 4530 c2bc 6e4b e6bd e03d 103e 5d21 fcbd
000000a0: 864a 053e d29b f83c aef7 c4bc 467d 283e
000000b0: 657b febd 276f 5ebd 0ee0 203e a2d6 cebd
000000c0: 1d28 473e 290e 2abc f36b 5c3d d51d e53d
000000d0: fe99 4bbc 8ba0 b3bd 2500 9fbd 1a8f d5bb
000000e0: 1413 203e ecb0 593e ace8 5bbd 5d1a c2bd
000000f0: 0450 2b3e 40b7 bebd ceee d93a a62f 023c
00000100: ccaa 913b df4f 233e 5a60 12be cd43 22bd
00000110: 71b7 a23d 0c34 37be c05b 043d ef6c 363e
00000120: 24f9 ad3b cf35 5fbe 9283 ddbd 2c0b cbbd
00000130: 3ae2 673d 1e02 053e 5073 20be ba83 4b3e
00000140: ccbc 643d 139d 0bbe 56cf 173d 4d56 9f3d
00000150: b910 13be 470c 2bbc 37f7 a03d afd0 b93d
00000160: 39b2 b63d 14b3 d6bd 0a76 c23b 5958 1e3e
00000170: a134 bc3d 8cc3 b13b a103 813d 4414 253e
00000180: a531 e8bc 2bb9 833c 9fc3 74bd 99ff ebbd
00000190: 809f 34be 0adf a4bb ad7b 0f3e baa0 0ebe
000001a0: eba7 a63d 3ec2 dabd 2939 94bd 54bb e9bd
000001b0: 4d33 16be 0e7f 793d 94d3 1abd 865a 2c3e
000001c0: 9cb5 9a3d b4ea 61bd 90c5 063e 6dde 96bd
000001d0: 989f fc3d bec4 103e 5cdb a1bd 39ca 783d
000001e0: c7e6 6abc 58fb e23c fa28 02bd 1944 b13d
000001f0: 4a5d 4b3e 762b 1dbd e28a 01bc 8d61 d2bd
0.031987023 -0.0855006 0.0076097585 -0.18809177 -0.18652347 -0.043836597 -0.096662246 -0.08416191
-0.08306702 -0.061861955 0.055235114 0.13771208 0.03968111 -0.113445446 0.14431497 -0.051494513
-0.10600107 -0.043764144 -0.18784487 0.0883798 0.17667912 0.15294617 0.09341024 0.11403122
-0.11624349 -0.08769598 -0.109915026 -0.024644189 0.087372944 0.08086467 -0.013690879 -0.11397785
-0.11257569 -0.081108935 0.021753803 0.055384673 -0.023704657 -0.11244856 0.14086103 -0.12311051
0.1301671 0.030347738 -0.024043884 0.16454038 -0.124258794 -0.054305222 0.1571047 -0.10099532
0.19448896 -0.010379353 0.053813886 0.11187331 -0.012426851 -0.087708555 -0.077636994 -0.006517303
0.15632278 0.21258897 -0.05368869 -0.09477685 0.16729742 -0.09312296 0.0016626955 0.007945931
0.0044454094 0.15948437 -0.14294568 -0.03961544 0.07945145 -0.17890948 0.032314062 0.17814992
0.005309241 -0.2179787 -0.10816111 -0.0991424 0.05661223 0.12989089 -0.15668988 0.19874468
0.055844113 -0.13634138 0.037062965 0.077801324 -0.14361848 -0.010439939 0.078596525 0.09073006
0.08920712 -0.10483375 0.0059344815 0.1546339 0.09189726 0.0054249223 0.0629952 0.16121012
-0.028343985 0.016079506 -0.05975687 -0.11523361 -0.1763897 -0.005031471 0.14012022 -0.139285
0.081374966 -0.1068158 -0.07237465 -0.11412683 -0.14668007 0.060912184 -0.037799433 0.16831407
0.075541705 -0.05515547 0.13161302 -0.07366643 0.123351276 0.14137551 -0.079031676 0.06073973
-0.014337248 0.02770774 -0.03177736 0.08655567 0.19859806 -0.038371526 -0.007906647 -0.102725126

weight_ih_l0 f4 [128, 34]
00000000: 31fb 183e fbeb efbd cda1 89bd 2601 d33d
00000010: 9a23 a23c 3bd7 efbd a06f bc3d 3a78 30bc
00000020: 0d1f 4a3e f31c 05bd 1a4c 94bc f483 81bd
00000030: 9646 aabd e3c7 213d ec16 0b3e 3da3 18bd
00000040: 65c7 a8bd def3 023e 9d2c e93d 1b8c b2bd
00000050: f4a6 873d 68d7 fbbd 575a 92bd 4e1c 3f3d
00000060: 5558 2b3e 483d 2fbe d352 513d fe71 bebc
00000070: 0485 973d 0a27 843d fc5c 133e 820e 9e3c
00000080: ccb8 49bd dc46 b93d 80b9 d7bb 1a2d b63d
00000090: 9254 c73d 3672 0ebd 6094 013e fa1d a13d
000000a0: 5587 833d a354 29be 452b a1bc 6a82 8e3d
000000b0: cc1e 123e d7ee 873d 9a50 58bd c437 053e
000000c0: 90ce 08bd 1240 22be f0df 8ebd b57b 363c
000000d0: 9478 85bd 5366 40be 61e8 b7bd 9e9c 19be
000000e0: cb11 293e e5fe 7a3d 9b50 0d3e e00c b4bd
000000f0: 84fb 0a3e 55b2 f7bd 621b 3bbe 6142 733d
00000100: 1a00 003e fbc4 73bd 7ffb f53c c965 873b
00000110: f86b 203e 864d 183e 1850 0e3d 6e25 523c
00000120: f078 cebc 51d1 8abd 255e 8d3d 362c cf3d
00000130: 6a64 e73d 2f6d 65bd 72e1 24be 6db1 e73d
00000140: 9649 2dbd 46f3 02be 43d6 0a3e c763 d6bd
00000150: 40af d7bc 7005 b63d 3e0c c6bd e502 c9bc
00000160: 7a12 2ebe cffc 4b3e 08b6 133e 9c79 863d
00000170: 3671 dbbc c41d 43bb 7ab8 ad3d caee 493e
00000180: 028a 2bbc 649b 45be 3331 383e 03ca c63c
00000190: 89a6 343e 3db0 f5bb 2b9b 393e 2411 1d3e
000001a0: 5dd8 fb3d cdfd f9bd 5f01 ae3d 0593 f6bd
000001b0: 47fa 053e 6a67 37be 5c17 cfbd 3dae c93c
000001c0: 4ed7 2ebe bfe0 14be 08c0 093e e6e9 323d
000001d0: c464 e03d 1da0 1fbe fc59 983c aa5f af3c
000001e0: 8c98 c03d 1055 9bbb e8a0 f8bd b161 c83c
000001f0: 31b5 903d e5bd 3abc b5c4 42bd 6f18 e23b
00000200: 0ada d03d 3d37 2ebd 9189 c53c 91ba 173d
00000210: 5c0b a73d 2b77 20bd f4f9 da3d 14ea acbc
00000220: 27c4 76bd 5870 30bc e4a1 d73d 1c51 c1bd
00000230: 994b 75bd 0818 e8bd e99f 243e c82e f73d
00000240: 5bee 4c3d 1c38 68bd f335 d8bd ea0d b3bd
00000250: 6c92 3dbe 977b 0fbe 7d85 fdbd 47da 6a3d
00000260: cce1 a7bd fe67 353c f3a6 993d ec88 ffbd
00000270: 675e cebd 6e6a 193e f56f 2f3b 1b23 dabc
00000280: 8c80 c63c 8324 99bc f661 b4bd 0f43 f93d
00000290: 8993 87bd dfe6 04bd 140e 0cbe 3fb3 03bd
000002a0: 8c04 533d 772f 713b 3afe bfbd b70e 813d
000002b0: 1033 c5bc ef4f 2d3e c429 ea3d f74b 083e
000002c0: 1656 1b3e 8c91 933d 988c 543e 6fad 753d
000002d0: a698 1fbd 04b1 d2bc c178 133e 89fb d93d
000002e0: d2bb 40be 042c 6c3d c8cd 403d 3d63 213e
000002f0: cf23 10be b4a2 82bd bd03 50be 8d53 f0bd
00000300: 2c86 ec3d 957b 3a3e b279 313e 1b58 063e
00000310: 5a6f bb3d 1a73 08be 5060 00bd 6d9b 10be
00000320: 066d cb3d 6b6d 0bbe 796a a03d a13b f83d
00000330: c367 8dbc 0a77 343e 6b6d 9bbd d8d3 84bd
00000340: 46be 2c3b 11bd 0bbe 6ee4 0a3e 292c ba3c
00000350: 9c49 9fbd 29d7 8e3c 3315 b8bc ed95 0ebe
00000360: 4b05 c13d a3c0 093e 16a9 3fbe fdcd 18be
00000370: c124 bcbc 34d9 9e3c aa66 06be c2ec 1fbe
00000380: 460f e03d 330c 75bd 2d2c 1e3e 4b4c af3c
00000390: 3361 17be 2971 ddbd 751e 74bc f65b 0cbe
000003a0: 39c5 f83d e203 bebd e4dc 1b3e ad99 57bd
000003b0: 96c8 d63d 1549 d9bb 0904 d5bd b12e d93c
000003c0: 8647 c3bb f4dd 4fbb 4419 27be 524a 263e
000003d0: bec7 ebbc 6ad9 be3c 6b53 d53c 1dc3 06be
000003e0: 24e8 dfbd 31e4 b8bd 7249 063e 9f0b ed3c
000003f0: b9ef b33d 0114 e93c 0e85 c4bd 847f dc3d
0.14939572 -0.117149316 -0.06720314 0.103029534 0.019792367 -0.11710974 0.09200978 -0.010770852
0.19738407 -0.03249831 -0.018102694 -0.06323996 -0.083142444 0.039497267 0.13582963 -0.03726505
-0.082411565 0.1278834 0.113854624 -0.08718129 0.06623641 -0.12296945 -0.07146137 0.046657853
0.16732915 -0.1711322 0.051104378 -0.023247715 0.073984176 0.064527586 0.1439094 0.019294027
-0.0492485 0.090467185 -0.0065833926 0.08895321 0.097329274 -0.03477689 0.12654257 0.07867046
0.06422297 -0.16536193 -0.019673953 0.06958468 0.1426956 0.06637352 -0.052811243 0.13009554
-0.03340012 -0.15844753 -0.069763064 0.0111378925 -0.06517139 -0.18789034 -0.0897987 -0.15001151
0.16510694 0.061278243 0.1380028 -0.08791518 0.13572508 -0.12094561 -0.18272164 0.059389476
0.12500039 -0.059514027 0.03002715 0.004132007 0.15666187 0.14873323 0.034744352 0.012826307
-0.025204152 -0.06778205 0.06902722 0.101158544 0.11298449 -0.05601233 -0.16101626 0.11313138
-0.042306505 -0.12788114 0.13558297 -0.1046825 -0.026328683 0.08887756 -0.09670304 -0.024537513
-0.16999236 0.19920658 0.14424908 0.06566164 -0.026787382 -0.002977238 0.08482452 0.19719997
-0.010469915 -0.19297558 0.17987518 0.024266249 0.17641653 -0.007497816 0.18125598 0.1533857
0.122971274 -0.12206612 0.08496355 -0.120397605 0.13083754 -0.17910543 -0.10111877 0.024619216
-0.1707432 -0.14538859 0.1345216 0.043680094 0.109567195 -0.15588422 0.018597595 0.02140792
0.09404096 -0.004740365 -0.121400654 0.024460645 0.070658095 -0.011397813 -0.047550876 0.0068998854
0.10197838 -0.042533148 0.024113448 0.037043158 0.081564635 -0.039176147 0.10692206 -0.02110771
-0.06024566 -0.010768972 0.10528925 -0.094392985 -0.05988655 -0.113327086 0.16076626 0.1206947
0.050032 -0.056694135 -0.10557165 -0.08742888 -0.18512887 -0.1401199 -0.123789765 0.05733707
-0.08197364 0.011072157 0.07502546 -0.12477288 -0.100765996 0.14982006 0.0026769612 -0.026628068
0.024231218 -0.018694168 -0.08807747 0.121709935 -0.06619937 -0.03244674 -0.13677245 -0.032153364
0.051518008 0.0036801973 -0.09374662 0.06301635 -0.0240722 0.16925023 0.114337474 0.13310228
0.15169558 0.07205495 0.20756757 0.059979852 -0.038963936 -0.025719173 0.14401533 0.1064368
-0.18821648 0.057659164 0.04707125 0.15760513 -0.1407616 -0.063786894 -0.20313926 -0.11734686
0.11549029 0.18211205 0.1733158 0.13119547 0.09152098 -0.13325158 -0.03134185 -0.1412179
0.09932904 -0.13615958 0.07832808 0.12120748 -0.017261392 0.17623535 -0.07589229 -0.064857185
0.002635853 -0.13646342 0.13563702 0.022726135 -0.07777712 0.01743658 -0.022471046 -0.1392438
0.09424838 0.13452391 -0.18716845 -0.14922328 -0.022966744 0.01939068 -0.131251 -0.1561766
0.10940413 -0.059826087 0.15446539 0.021398684 -0.14783172 -0.10812599 -0.01489984 -0.13706955
0.12146992 -0.09278084 0.15220982 -0.05263679 0.104874775 -0.0066310265 -0.1040116 0.026511522
-0.005959454 -0.0031717988 -0.16318232 0.16239288 -0.028781768 0.02329703 0.026040753 -0.13160367
-0.10932949 -0.09027899 0.13113955 0.028936205 0.08785958 0.028451921 -0.09595691 0.10766509
