code/backend/core/resources/ckpt_q_mv.pt (torch, 183478 bytes, 33 tensors)

weight f4 [128, 32]
0	0x3135fb08	2.6481661e-09
1	0x312a65ca	2.4796116e-09
2	0xb0e2219a	-1.6453214e-09
3	0x30ce73a3	1.5021339e-09
4	0x31461834	2.882655e-09
5	0xb2457556	-1.1493588e-08
6	0x313bac8e	2.7310167e-09
7	0xb13a029d	-2.7068048e-09
8	0x3144e7b4	2.8653462e-09
9	0xb0eb88e6	-1.7137409e-09
10	0x3143e393	2.8505596e-09
11	0xb1166d3a	-2.188996e-09
12	0x301c7a20	5.692602e-10
13	0xb1456778	-2.8726088e-09
14	0xaeab5fb8	-7.793183e-11
15	0x31f18ff5	7.030389e-09
16	0x2fdaf2ab	3.9826395e-10
17	0x313c20ba	2.7376204e-09
18	0xafb4f94e	-3.291895e-10
19	0x322474b8	9.572595e-09
20	0xb1e39125	-6.6230705e-09
21	0xb1460266	-2.8814156e-09
22	0x30cf9200	1.5102728e-09
23	0x2f9f3d15	2.8965333e-10
24	0xaf81d386	-2.361526e-10
25	0x31133bd9	2.1425335e-09
26	0x324eafeb	1.2030777e-08
27	0xb222d3bb	-9.477783e-09
28	0xb1267b42	-2.4226243e-09
29	0xb0b692cc	-1.3283965e-09
30	0xb03718c4	-6.6610206e-10
31	0xb0e539b2	-1.6678341e-09
32	0xb2223e35	-9.443785e-09
33	0x30cb3712	1.4785846e-09
34	0x302fbda8	6.3934147e-10
35	0xb0c9acb2	-1.4673758e-09
36	0x30d7021e	1.5643911e-09
37	0xb1f10613	-7.0147137e-09
38	0x2e83a789	5.9869505e-11
39	0xb221e8fe	-9.42441e-09
40	0xb0cd2576	-1.492636e-09
41	0x31468244	2.888684e-09
42	0xb2308a72	-1.0276027e-08
43	0x310f6776	2.086805e-09
44	0x310f04a6	2.081188e-09
45	0x2fa2b918	2.9599145e-10
46	0x2d581f9e	1.2285199e-11
47	0xb14595ac	-2.8752352e-09
48	0x3145721a	2.8732132e-09
49	0x314622c2	2.883255e-09
50	0xb0e77d1b	-1.6843019e-09
51	0x30f04d55	1.7484277e-09
52	0x31469f16	2.8903222e-09
53	0xaf1830f6	-1.3841714e-10
54	0xb0a3e442	-1.1924686e-09
55	0xb13ab918	-2.7171776e-09
56	0xb0cda5f1	-1.4962876e-09
57	0xb0286c86	-6.1272265e-10
58	0xb12220b5	-2.3592694e-09
59	0x3143021d	2.8377436e-09
60	0x3160796d	3.2665313e-09
61	0xb13ae848	-2.71986e-09
62	0xb13f8962	-2.7872251e-09
63	0xb145ace3	-2.8765548e-09
64	0x30a13ff6	1.173247e-09
65	0xb1248d00	-2.394529e-09
66	0x30373262	6.664661e-10
67	0xb01d3d38	-5.7203264e-10
68	0x312d0851	2.517954e-09
69	0x3134e4b3	2.6323448e-09
70	0x313d03aa	2.7505203e-09
71	0x2f40eb08	1.7545798e-10
72	0x3033dcc6	6.543356e-10
73	0xb2220abf	-9.4320844e-09
74	0xb14688f2	-2.8890637e-09
75	0xb11a8f6a	-2.249147e-09
76	0xb144cf4f	-2.8639595e-09
77	0x312d042a	2.517718e-09
78	0xaca7ce20	-4.76931e-12
79	0xb0345d56	-6.5616257e-10
80	0x309e0162	1.1496406e-09
81	0x323b032e	1.0885556e-08
82	0x314451de	2.856829e-09
83	0x2d23c86a	9.309978e-12
84	0x31450af2	2.8673495e-09
85	0xb104eec4	-1.934425e-09
86	0xb0889f38	-9.940555e-10
87	0xb12621c7	-2.417538e-09
88	0x3104438c	1.9246924e-09
89	0x31469a5f	2.8900542e-09
90	0xb0ef115e	-1.7394475e-09
91	0x3241a3f0	1.1271354e-08
92	0x3145ffcc	2.8812677e-09
93	0x31458237	2.8741292e-09
94	0x32540ae1	1.2342498e-08
95	0xb02c1f09	-6.261734e-10
96	0xb24a60e7	-1.17799805e-08
97	0x314360b0	2.8431195e-09
98	0xb1469ed2	-2.890307e-09
99	0x31325bbf	2.595456e-09
100	0x3035bed7	6.6118616e-10
101	0xb0f665f5	-1.7927834e-09
102	0xb0a892dc	-1.2265349e-09
103	0x301632df	5.4641974e-10
104	0xb0940f94	-1.0772845e-09
105	0xb145922c	-2.8750362e-09
106	0x311c6440	2.2757973e-09
107	0x3252a2f6	1.2260662e-08
108	0xb09fdf76	-1.1632284e-09
109	0x31047ed4	1.9280622e-09
110	0xb0374eb8	-6.668688e-10
111	0xb0242cda	-5.972659e-10
112	0x30f6ebc0	1.796586e-09
113	0xafd9d9de	-3.9626874e-10
114	0xaf21a751	-1.4702307e-10
115	0x31192a80	2.2288589e-09
116	0x311a0bea	2.2416722e-09
117	0x322eb1fc	1.0168602e-08
118	0x31137a78	2.146093e-09
119	0xb1434d86	-2.8420302e-09
120	0xb23d6bdf	-1.1025775e-08
121	0x30c80b78	1.4555175e-09
122	0xb0272bda	-6.0816563e-10
123	0xb239349a	-1.07803775e-08
124	0xb14572e2	-2.8732576e-09
125	0xad20fea8	-9.151492e-12
126	0x31468278	2.8886955e-09
127	0xb104b639	-1.931211e-09
128	0xb0d2cb60	-1.5337314e-09
129	0x3141557a	2.8133784e-09
130	0xb1428fa7	-2.8312372e-09
131	0xb1279856	-2.4388291e-09
132	0x2fea0026	4.2564458e-10
133	0xaf70164a	-2.1835792e-10
134	0xb00e74d7	-5.182534e-10
135	0x314519a4	2.8681848e-09
136	0x32550363	1.2399002e-08
137	0x3119b307	2.2366196e-09
138	0x31457ee8	2.873941e-09
139	0xb0e11f6d	-1.6379836e-09
140	0xb06760b9	-8.417476e-10
141	0x31adcc99	5.0582227e-09
142	0xb1114d4c	-2.1144215e-09
143	0x3249776a	1.17268915e-08
144	0xb0cb551f	-1.4794387e-09
145	0x3092fbe8	1.0694494e-09
146	0x2ebb8200	8.526868e-11
147	0xaffb59f9	-4.5720563e-10
148	0x3146452e	2.8852116e-09
149	0xb137ea76	-2.676328e-09
150	0xb011ae5c	-5.299847e-10
151	0x3144b656	2.86254e-09
152	0x32554868	1.2414695e-08
153	0xb106ae4d	-1.9598645e-09
154	0xb027dfef	-6.1072475e-10
155	0x2f871084	2.4568092e-10
156	0x310a82ef	2.015607e-09
157	0x32274820	9.737079e-09
158	0xb1088885	-1.9868207e-09
159	0x2fd67dab	3.9015666e-10
160	0xb0240bb5	-5.967949e-10
161	0xb110117a	-2.0964692e-09
162	0x31466dae	2.8875138e-09
163	0x314355eb	2.8425073e-09
164	0xafc09e55	-3.5037098e-10
165	0xb0020a8d	-4.730872e-10
166	0xb1469042	-2.8894793e-09
167	0x3021dbe0	5.888392e-10
168	0x3083ce26	9.590095e-10
169	0xb23a8b58	-1.0858308e-08
170	0x31082d8a	1.981649e-09
171	0xb13db6b2	-2.760697e-09
172	0xaf0dde1b	-1.2902783e-10
173	0xb2524854	-1.2240054e-08
174	0xafb3a3ea	-3.2676378e-10
175	0x3145818a	2.8740907e-09
176	0x32532d7d	1.2292159e-08
177	0xb146985a	-2.8899394e-09
178	0x301d0dad	5.71357e-10
179	0x311a8dae	2.2490485e-09
180	0x3016c2dd	5.48466e-10
181	0x3088f93a	9.966137e-10
182	0xb10a606f	-2.013646e-09
183	0x2f95a5de	2.7220798e-10
184	0x3141865f	2.8161578e-09
185	0xb0b4587b	-1.3121871e-09
186	0xb0dccbed	-1.6065066e-09
187	0xafb7e6d9	-3.3451533e-10
188	0xb0d6a324	-1.5616917e-09
189	0xafe1787b	-4.1012868e-10
190	0xb2541617	-1.2345047e-08
191	0x3112bd7e	2.135351e-09
192	0xaf465086	-1.8036603e-10
193	0xb0f6fe8b	-1.7971201e-09
194	0x3224e666	9.598443e-09
195	0xb2544a42	-1.2356908e-08
196	0xb2529408	-1.2257267e-08
197	0x30d7f7b3	1.5713709e-09
198	0x31463500	2.884292e-09
199	0xb123beac	-2.3828006e-09
200	0xb13e937a	-2.773247e-09
201	0xb2457d7a	-1.1495439e-08
202	0xb0002d12	-4.663018e-10
203	0x2f2b1fe8	1.5563695e-10
204	0xafa73ed6	-3.042177e-10
205	0xb228b95d	-9.821034e-09
206	0xadb04fd0	-2.0044327e-11
207	0xaf318740	-1.6146107e-10
208	0x30972080	1.0995933e-09
209	0x31440134	2.8522438e-09
210	0xb1b44804	-5.2468767e-09
211	0xb004dc90	-4.833476e-10
212	0xae1f2432	-3.6184562e-11
213	0x302fe725	6.3993105e-10
214	0x31122cf1	2.1271342e-09
215	0x2f056112	1.2130766e-10
216	0xb0eb8b8d	-1.7138163e-09
217	0x31248813	2.394249e-09
218	0xb1394fea	-2.696647e-09
219	0x30acaf69	1.2564502e-09
220	0x306aa939	8.5369184e-10
221	0xb0ec3bce	-1.7188257e-09
222	0x314486dc	2.8598413e-09
223	0xb247267c	-1.1592075e-08
224	0x313f6fb2	2.785765e-09
225	0xb0df5b03	-1.6251253e-09
226	0x31222672	2.3595956e-09
227	0x324f5b29	1.2069713e-08
228	0x312f48fe	2.5507343e-09
229	0x314154db	2.8133431e-09
230	0xad5806ae	-1.2279662e-11
231	0xb1123ad3	-2.1279234e-09
232	0x3128e436	2.457694e-09
233	0x3223b40c	9.528787e-09
234	0xafc5cf39	-3.5981332e-10
235	0xaee8e6a9	-1.0591112e-10
236	0x31461976	2.8827265e-09
237	0x3144e72a	2.8653155e-09
238	0x32176079	8.811292e-09
239	0xb143a010	-2.846722e-09
240	0x3101f538	1.8911361e-09
241	0x31371b6e	2.6645597e-09
242	0xb0903ebd	-1.049521e-09
243	0x306a7b70	8.530412e-10
244	0xb145a93d	-2.8763474e-09
245	0xb145c3ea	-2.8778637e-09
246	0xb121a64c	-2.3523112e-09
247	0x311598f8	2.1769306e-09
248	0xb13eabbf	-2.7746265e-09
249	0xb14644a4	-2.885181e-09
250	0x2fbd937a	3.4483688e-10
251	0x2f000a16	1.1645115e-10
252	0xb133d852	-2.6170892e-09
253	0x30082e46	4.954227e-10
254	0x32256054	9.6261665e-09
255	0xb09644c3	-1.093348e-09

weight f4 [4, 1, 3, 1]
0	0x3f1c698d	0.6109856
1	0xbda2ae83	-0.07943442
2	0xbeb13a56	-0.3461482
3	0xbeeb6a72	-0.4597965
4	0x3f088d2f	0.5334043
5	0x3f2ada92	0.6673976
6	0xbea076a9	-0.3134053
7	0x3ad7bbde	0.0016459187
8	0xbed9d4d4	-0.42545187
9	0xbf0f6096	-0.56006753
10	0xbf1b2189	-0.60598046
11	0xbf32a2df	-0.6977977

bias f4 [4]
0	0x3dc94a6c	0.09828648
1	0xbeff3e6b	-0.4985231
2	0xbf0e18af	-0.55506414
3	0xbe5e6f3a	-0.21722117

weight f4 [4]
0	0x3f800000	1.0
1	0x3f800000	1.0
2	0x3f800000	1.0
3	0x3f800000	1.0

bias f4 [4]
0	0x00000000	0.0
1	0x00000000	0.0
2	0x00000000	0.0
3	0x00000000	0.0

running_mean f4 [4]
0	0x00000000	0.0
1	0x00000000	0.0
2	0x00000000	0.0
3	0x00000000	0.0

running_var f4 [4]
0	0x3f800000	1.0
1	0x3f800000	1.0
2	0x3f800000	1.0
3	0x3f800000	1.0

weight f4 [1, 4, 3, 1]
0	0xbd536f14	-0.051619604
1	0x3e94cd7e	0.29063028
2	0x3cf07b5e	0.029355701
3	0xbe430be7	-0.19047509
4	0x3d3f842d	0.046756912
5	0x3e401ba7	0.18760549
6	0xbe338d06	-0.17534265
7	0x3ae5f139	0.0017543203
8	0x3c5b9757	0.013402781
9	0x3e53a025	0.20666559
10	0xbcde3cc0	-0.027128577
11	0xbdc10888	-0.09425455

weight f4 [16, 1, 3, 1]
0	0xbf2a04d1	-0.664136
1	0xbccf6ea8	-0.02532132
2	0xbee7bb91	-0.4526029
3	0x3f2c49c7	0.67300075
4	0x3f3c5602	0.7356874
5	0x3eaf9d1c	0.34299552
6	0xbe34e1b5	-0.17664225
7	0xbf117b15	-0.56828433
8	0x3d9c9e08	0.076473296
9	0xbeddb6b5	-0.43303457
10	0xbda2f093	-0.07956042
11	0xbf26d164	-0.65163255
12	0xbf118b78	-0.5685344
13	0xbe24ffd3	-0.16113214
14	0xbea1b46b	-0.3158296
15	0x3f3c1105	0.7346347
16	0x3e647d5a	0.22313443
17	0x3e24a957	0.16080223
18	0x3f16358b	0.5867545
19	0x3f17810f	0.591813
20	0x3e6b48c2	0.22976974
21	0xbea85c1e	-0.3288278
22	0xbe63ebde	-0.22257945
23	0x3f325716	0.6966413
24	0x3e30550b	0.17219941
25	0x3d04d522	0.03242982
26	0xbe38eaa8	-0.18058264
27	0xbe537897	-0.2065147
28	0x3f1c2bd7	0.61004394
29	0x3ee5547e	0.44791025
30	0xbf107f6c	-0.5644443
31	0xbf2e4ad5	-0.68082935
32	0x3ec8a19d	0.391858
33	0x3ea0d00a	0.3140872
34	0xbebad1ca	-0.3648818
35	0xbbe948a1	-0.0071192537
36	0x3e2dce80	0.16973305
37	0x3f115278	0.5676646
38	0xbe0173c4	-0.12641817
39	0xbf34ff89	-0.70702416
40	0xbe4c428a	-0.19947258
41	0xbe657ea8	-0.22411597
42	0x3e8a1a58	0.26973224
43	0x3f2d5b10	0.67717075
44	0x3f14f041	0.581791
45	0xbf033351	-0.5125018
46	0xbf05cf0e	-0.52269065
47	0xbde7268a	-0.112866476

bias f4 [16]
0	0xbf3638f2	-0.7118064
1	0x3f381e88	0.71921587
2	0xbea10cf8	-0.31455207
3	0xbeda232d	-0.42604962
4	0xbf3099ee	-0.6898488
5	0xbe14962f	-0.14510415
6	0x3f21dbfb	0.6322629
7	0x3f35c0d2	0.70997345
8	0xbc298ec9	-0.010348984
9	0x3e305e6d	0.1722352
10	0x3ca622fa	0.02028035
11	0xbf3a2096	-0.7270597
12	0x3eba88a5	0.36432377
13	0xbba6cc82	-0.005090297
14	0xbd2318ef	-0.0398187
15	0xbf17f942	-0.5936471

weight f4 [16, 1, 3, 1]
0	0x3f2150f2	0.6301414
1	0x3ec8d54f	0.39225242
2	0xbe5a9b61	-0.21348335
3	0xbe573bb3	-0.21018867
4	0x3f22bde2	0.6357099
5	0x3ce67689	0.028132694
6	0x3ec81dcf	0.39085242
7	0x3f1ba4a0	0.6079807
8	0x3d057874	0.032585576
9	0x3daf3cef	0.08556544
10	0x3e5e4298	0.21705091
11	0x3dfa0b35	0.12209169
12	0x3f3ead12	0.74482834
13	0x3f0d0c0b	0.550965
14	0x3f058c52	0.52167237
15	0x3e0e40e5	0.13891943
16	0xbe8c48c9	-0.2739928
17	0xbf197002	-0.59936535
18	0x3e2d71ad	0.16937895
19	0x3f0406eb	0.51573056
20	0x3edfd564	0.43717492
21	0xbc2b5b8a	-0.010458836
22	0x3ec5e8cb	0.3865417
23	0x3e51b002	0.20477298
24	0xbdfe50b5	-0.124177374
25	0xbed237ee	-0.41058296
26	0xbf1ddff9	-0.6166988
27	0xbeaa71cf	-0.33289954
28	0x3e52523f	0.20539187
29	0x3eb88644	0.36039937
30	0x3eaa977b	0.33318695
31	0xbe0d02be	-0.13770577
32	0xbebee64d	-0.3728508
33	0xbd9c8bc5	-0.076438464
34	0x3f15faa4	0.5858557
35	0x3f0f91fa	0.5608212
36	0x3e997bab	0.29977164
37	0x3d84176f	0.06449782
38	0x3f3db93f	0.7411079
39	0x3e9c03d9	0.30471686
40	0x3e360930	0.17776942
41	0xbea47d56	-0.32126874
42	0x3e3dcce9	0.18535198
43	0xbecd8ab9	-0.401449
44	0x3e97fbb4	0.29684222
45	0x3f36ef85	0.7145923
46	0xbdf21f51	-0.118223794
47	0x3d198975	0.037484605

bias f4 [16]
0	0x3f1ff482	0.62482464
1	0xbea75e60	-0.3268919
2	0xbdc44d7d	-0.09585092
3	0x3eeb7cde	0.45993704
4	0x3f449609	0.76791435
5	0xbee321df	-0.4436178
6	0x3f00dedd	0.5034006
7	0xbe21ea62	-0.15812066
8	0xbeb05e11	-0.34446767
9	0x3f444c9a	0.76679385
10	0xbec15361	-0.37758926
11	0xbe7681ec	-0.24072999
12	0x3f4ce9a7	0.80044025
13	0x3e6070ec	0.21918076
14	0x3f07e0f9	0.53077656
15	0x3d9d5665	0.07682494

weight f4 [1, 16, 1, 1]
0	0xbe6d7b68	-0.23191607
1	0x3e9cfdb8	0.30662322
2	0xbeb46e49	-0.3524039
3	0xbe8f6df2	-0.2801357
4	0xbe912e99	-0.28355864
5	0x3d8c2a25	0.06843976
6	0x3e9bc736	0.30425423
7	0x3ea99ada	0.33125955
8	0x3a16afa8	0.0005748221
9	0x3e647436	0.22309956
10	0xbe2bbdb9	-0.16771592
11	0xbe72ef07	-0.23723994
12	0x3ed682ab	0.41896567
13	0xbe2efea5	-0.17089327
14	0x3df2f059	0.11862249
15	0xbe8dd1ff	-0.27699277

weight f4 [221, 32]
0	0x3f0aad3d	0.5417059
1	0x3eded567	0.43522188
2	0xbf20156e	-0.625327
3	0x3eb1cc54	0.34726202
4	0x3ed9257f	0.4241142
5	0x3f1be1fc	0.608917
6	0x3eb7137f	0.35757062
7	0x3f00c262	0.50296605
8	0x3f43e070	0.7651434
9	0xbeee7816	-0.46575993
10	0xbea52b3a	-0.32259542
11	0xbed353e8	-0.41274953
12	0x3f2a78ad	0.66590387
13	0x3e667480	0.22505379
14	0x3ee4e949	0.44709232
15	0xbec736c1	-0.3890896
16	0x3f12e782	0.573845
17	0x3efc3ec7	0.49266645
18	0xbedd8062	-0.4326201
19	0x3f39455d	0.72371465
20	0xbee6417e	-0.44971842
21	0xbf12c8b4	-0.573375
22	0xbedd616a	-0.43238384
23	0x3ec9cd8b	0.3941463
24	0x3f22fe59	0.63669354
25	0x3f4498e0	0.7679577
26	0x3f12d311	0.5735331
27	0x3e78339f	0.24238442
28	0x3eb83915	0.3598105
29	0x3ece9ba6	0.40353125
30	0x3f36b4e2	0.71369755
31	0x3f1bc428	0.60846186
32	0xb5e5ef20	-1.7131424e-06
33	0xb49c0757	-2.9062605e-07
34	0x36242db6	2.4464512e-06
35	0x365d7a0a	3.3002602e-06
36	0xb58a91b2	-1.0324204e-06
37	0xb628af69	-2.5136053e-06
38	0x36679d93	3.4513403e-06
39	0x3647689a	2.9714197e-06
40	0xb4e1c0f6	-4.2049913e-07
41	0x360370cb	1.9586175e-06
42	0xb6150da3	-2.2210668e-06
43	0xb6546678	-3.1650106e-06
44	0x3556b9c5	7.999154e-07
45	0xb5bb4774	-1.3953381e-06
46	0xb614536b	-2.2102274e-06
47	0xb49ac381	-2.8826983e-07
48	0xb63658fd	-2.7171911e-06
49	0xb65bd430	-3.2757052e-06
50	0x3667e53a	3.455511e-06
51	0x34579a0e	2.007948e-07
52	0x36686313	3.4628363e-06
53	0x353ce62a	7.037039e-07
54	0xb5708e00	-8.9613604e-07
55	0xb4404bc3	-1.7908955e-07
56	0xb5a4bc62	-1.2273779e-06
57	0xb641bbc2	-2.886853e-06
58	0xb426f96d	-1.5550695e-07
59	0x36466909	2.9565438e-06
60	0x33fa1790	1.1645818e-07
61	0x3667c559	3.4536554e-06
62	0x3326c264	3.8826684e-08
63	0x3506fe12	5.028861e-07
64	0x3ebc3dba	0.36765844
65	0x3e9a46a1	0.3013201
66	0xbe8f29d2	-0.27961594
67	0x3d7596f3	0.05995841
68	0x3deb0ffc	0.11477658
69	0x3e1e4b5d	0.15458436
70	0x3c142add	0.0090434225
71	0x3e9abc0c	0.30221593
72	0x3e233fc3	0.15942292
73	0xbc95cc60	-0.01828593
74	0xbda25af7	-0.079275064
75	0xbbd80d19	-0.0065933582
76	0x3e22294b	0.15836065
77	0x3e57c95b	0.21072905
78	0xbbf476fe	-0.007460474
79	0xbdd62a3d	-0.10457275
80	0x3e47354a	0.19453922
81	0x3ea91598	0.33024287
82	0xbe6b9b91	-0.23008563
83	0x3e65bb7f	0.22434805
84	0x3c3082f6	0.010773411
85	0xbebd9978	-0.3703115
86	0xbd07ae89	-0.033125434
87	0x3e2fc3eb	0.1716458
88	0xbd23a43c	-0.039951548
89	0x3eb63be0	0.35592556
90	0x3d25a605	0.04044153
91	0xbd61ea04	-0.055154815
92	0x3eb1513a	0.34632283
93	0x3d07cdd3	0.033155274
94	0x3b62c35b	0.0034601304
95	0x3e129832	0.1431587
96	0x3e9e89cd	0.3096451
97	0x3eaf1e7b	0.34202942
98	0xbf0e5c7f	-0.5560989
99	0xbf2370cc	-0.6384399
100	0x3f0ff497	0.5623259
101	0xbf49c512	-0.7881633
102	0xbee5360b	-0.44767794
103	0x3ef41724	0.47673905
104	0x3f0ce120	0.55031013
105	0xbf05fc90	-0.52338505
106	0x3ee1220a	0.43971282
107	0x3ef42701	0.47686008
108	0xbe7ea4b9	-0.24867524
109	0x3ea9ebbf	0.33187672
110	0x3f037def	0.51364034
111	0x3f1c8c72	0.611518
112	0x3f0155eb	0.50521725
113	0x3f3a9be2	0.7289411
114	0xbebab3d4	-0.36465323
115	0xbe4e477f	-0.20144461
116	0xbf340ac5	-0.70328933
117	0x3edcae30	0.43101645
118	0xbf32cf5b	-0.6984765
119	0x3f0e57e7	0.5560288
120	0xbf40ad75	-0.75264674
121	0x3ed68858	0.41900897
122	0x3f4adaa8	0.7923989
123	0xbf0c3520	-0.5476856
124	0xbe43c180	-0.19116783
125	0xbf231012	-0.63696396
126	0x3f31353a	0.6922184
127	0x3f016288	0.5054097
128	0xbc8ef51e	-0.017450865
129	0x3d08a11b	0.033356767
130	0x3d1cc301	0.038271908
131	0xbd8aa5a0	-0.06769872
132	0xbdc33afa	-0.09532733
133	0xbbb54d05	-0.005532863
134	0xbd8b2d74	-0.06795779
135	0xbe6a82f0	-0.22901511
136	0xbcb7213c	-0.022354715
137	0x3e59128e	0.21198484
138	0x3dfca2c3	0.12335732
139	0xbe150bb2	-0.14555243
140	0xbc99ef47	-0.018790854
141	0xbeba3024	-0.36364853
142	0xbe196d7a	-0.14983168
143	0xbdb96675	-0.09052745
144	0xbe4b5430	-0.19856334
145	0xbd946f1b	-0.07247754
146	0x3d027068	0.03184548
147	0xbdf4a6d9	-0.11945886
148	0xbb849276	-0.00404578
149	0xbe463eaa	-0.19359842
150	0xbdc75d6e	-0.09734617
151	0xbe46eae8	-0.19425547
152	0xbd0dafa6	-0.03459134
153	0xbdfd5819	-0.12370319
154	0xbe544cb0	-0.20732379
155	0x3dd92e42	0.10604526
156	0xbe099781	-0.134367
157	0xbe6128f1	-0.21988274
158	0x3e1a2c2f	0.15055917
159	0x3ce9f9d7	0.028561516
160	0x3e976d57	0.29575607
161	0x3ea1f539	0.31632403
162	0xbcd8d59c	-0.026469044
163	0xbd47b665	-0.04875793
164	0x3d0b1da1	0.033963803
165	0xbda37266	-0.07980804
166	0xbe8e8e3b	-0.27842888
167	0x3e266a75	0.16251548
168	0x3dab1174	0.08352938
169	0xbdf94c98	-0.12172812
170	0x3eb42a94	0.35188735
171	0x3e4a0d33	0.19731598
172	0xbed81078	-0.42200065
173	0xbc229a8b	-0.009924541
174	0x3e01422f	0.12622903
175	0x3dea3ce2	0.11437394
176	0x3e249f06	0.16076288
177	0x3df59ca8	0.119927704
178	0xbe9d2cde	-0.30698293
179	0xbd97e177	-0.07416051
180	0xbe0c3480	-0.13691902
181	0x3d94382d	0.07237277
182	0xbe044b3b	-0.12919323
183	0x3d0fc7b8	0.035102576
184	0xbe9ca086	-0.3059122
185	0x3ea67091	0.32507756
186	0x3e49b420	0.19697618
187	0xbe861065	-0.26184383
188	0xbba98762	-0.0051736096
189	0xbc8bff81	-0.017089607
190	0x3ac5a15d	0.0015077997
191	0x3de1c44f	0.11023771
192	0x3e015dd4	0.12633449
193	0x3e08c2d1	0.13355567
194	0x3d092bbc	0.033488974
195	0xbd83addb	-0.06429645
196	0x3e2be971	0.1678827
197	0xbeae05e4	-0.3398887
198	0xbe4e7979	-0.20163526
199	0x3eb1ad87	0.34702703
200	0x3dd3d829	0.10343964
201	0x3d82ff66	0.0639637
202	0x3e0d2158	0.13782251
203	0x3e922860	0.2854643
204	0xbc034f48	-0.008014508
205	0xbc0193f8	-0.007908814
206	0x3e358a10	0.17728448
207	0xbd9be1c6	-0.07611422
208	0xbdf32bf9	-0.118736215
209	0x3dca8cb4	0.09890118
210	0xbd626927	-0.055276062
211	0xbddbcd03	-0.10732462
212	0xbec1aa6e	-0.3782534
213	0xbe1dd48d	-0.15413113
214	0xbdc1c296	-0.094609424
215	0x3e892353	0.26784763
216	0xbdf509a2	-0.11964728
217	0x3d87fb7e	0.06639765
218	0xbce34485	-0.027742634
219	0xbce0bae1	-0.02743286
220	0xbe85c255	-0.26124826
221	0x3bb1f1f8	0.0054304563
222	0x3bc27a29	0.005934973
223	0xbdc83452	-0.09775604
224	0x3dedcffb	0.11611935
225	0x3e2c5fa6	0.16833362
226	0xbdde1090	-0.10843003
227	0x3d694391	0.056949202
228	0x3e415339	0.18879403
229	0x3e3b4e08	0.18291485
230	0x3e092395	0.1339248
231	0x3e4fb4a0	0.20283747
232	0x3e2850a2	0.16437009
233	0xbe6f7739	-0.23385324
234	0x3d5c92a1	0.053850774
235	0xbe1bd84f	-0.15219234
236	0x3ee1d885	0.44110504
237	0xba88b4d8	-0.0010429872
238	0xbe19dcd6	-0.15025648
239	0x3e156309	0.1458856
240	0xbe0a9fbe	-0.135375
241	0xbc5e0615	-0.013551255
242	0x3e497e7c	0.19677156
243	0x3e0e8185	0.13916595
244	0xbe2532d1	-0.16132666
245	0xbdafbfba	-0.08581491
246	0xbe9f318e	-0.31092495
247	0x3e58e154	0.21179706
248	0xbe4cd3b6	-0.20002636
249	0xbe4c69ec	-0.19962281
250	0x3d080a0b	0.033212703
251	0xbe2a9933	-0.16660003
252	0xbe34ad56	-0.17644247
253	0xbddc2ebf	-0.107511036
254	0x3e7f59de	0.24936625
255	0xbe253ffb	-0.16137688

weight f4 [32, 32]
0	0x3ecc975f	0.39959237
1	0x3e37f17b	0.17963211
2	0xbe027e62	-0.12743524
3	0xbea2b1ad	-0.3177618
4	0x3ecdaa87	0.40169165
5	0xbe9e2bb7	-0.30892727
6	0xbeea3dd4	-0.45750296
7	0xbe4d4cd5	-0.2004884
8	0x3e8b8076	0.27246445
9	0xbea1c540	-0.31595802
10	0x3f00d052	0.5031787
11	0x3ea589e4	0.32331765
12	0xbe24f1d3	-0.16107874
13	0xbdd3ce8f	-0.10342132
14	0xbd148669	-0.036260996
15	0x3e353b7b	0.17698471
16	0x3efb0abe	0.49031633
17	0x3dea0567	0.11426812
18	0xbe9d1950	-0.30683374
19	0xbeaa39b2	-0.33247143
20	0xbe7fd284	-0.24982649
21	0x3e820d02	0.2540055
22	0x3dc80576	0.097666666
23	0x3e7934de	0.24336573
24	0xbf0cb919	-0.54969937
25	0x3db4c587	0.08826738
26	0x3e5484c4	0.20753771
27	0xbebde932	-0.37091976
28	0xbf09ce94	-0.5383084
29	0xbec1d2b4	-0.37856066
30	0x3e8b5d2c	0.27219522
31	0x3e81aecb	0.2532867
32	0x3ee29d20	0.44260502
33	0x3e23deef	0.16003011
34	0xbe0e1a4b	-0.13877217
35	0x3d73096c	0.059335157
36	0x3e7aac73	0.24479847
37	0x3e8b367b	0.27190003
38	0x3c0dc44c	0.008652758
39	0x3e08cbdc	0.13359016
40	0x3ecd2b9b	0.4007233
41	0xbe6eb3c6	-0.23310766
42	0xbe081146	-0.1328784
43	0xbc499443	-0.012303415
44	0xbc87df54	-0.016585983
45	0x3e6f4568	0.2336632
46	0x3e49fcc0	0.19725323
47	0xbdce6dca	-0.10079534
48	0x3eac7a1f	0.3368692
49	0x3ebcec9b	0.36899266
50	0xbe766ef8	-0.24065769
51	0x3e60f789	0.21969427
52	0xbe92003b	-0.285158
53	0x3e081068	0.13287508
54	0xbe696a31	-0.22794415
55	0x3dc16e5a	0.09444876
56	0xbe676141	-0.22595693
57	0x3edae388	0.42751718
58	0x3ed71fa8	0.4201634
59	0xbe87bbd3	-0.26510486
60	0x3f09bffb	0.53808564
61	0xbd3e2a4a	-0.04642705
62	0x3e62d400	0.22151184
63	0xbe8045e8	-0.25053334
64	0x3e7aaa1e	0.24478957
65	0xbe1f4751	-0.15554549
66	0xbe4c8ec6	-0.19976339
67	0xbebc9a57	-0.36836502
68	0x3ed8a7df	0.42315575
69	0x3e5354a2	0.20637754
70	0xbefcc470	-0.4936862
71	0xbb59f5d2	-0.0033258093
72	0x3beafbe6	0.007171142
73	0xbe9b8710	-0.30376482
74	0x3eab1ede	0.33421987
75	0x3d62b225	0.055345673
76	0xbdabbf64	-0.08386114
77	0x3d848696	0.06470983
78	0x3db592e4	0.08865908
79	0x3e57faa4	0.21091706
80	0x3e614e51	0.22002532
81	0x3e96da64	0.29463494
82	0xbe811964	-0.25214684
83	0x3bb9bd76	0.0056683375
84	0xbc500e60	-0.01269874
85	0x3e13a8ef	0.14419912
86	0xbe596769	-0.21230854
87	0x3e4909bb	0.19632618
88	0xbe680dad	-0.22661467
89	0xbe1c40ed	-0.15259142
90	0x3dd67a5c	0.10472557
91	0xbe858c16	-0.2608344
92	0xbecda899	-0.40167692
93	0xbd3a193d	-0.045434225
94	0x3ecc10d3	0.39856586
95	0xbc89b76a	-0.016811091
96	0x3dd3ecf3	0.10347929
97	0x3e1cc31d	0.15308805
98	0xbca637ff	-0.020290373
99	0xbdfeeaf1	-0.12447155
100	0x3e40ab9a	0.18815461
101	0xbe3a01da	-0.18164769
102	0xbdeb9da5	-0.11504678
103	0xbdc4e49d	-0.09613917
104	0x3e932a73	0.28743324
105	0xbecff60c	-0.40617406
106	0x3f012cc1	0.50458914
107	0x3ef71b7a	0.4826315
108	0x3cc0288e	0.023456838
109	0x3e0b8c78	0.13627803
110	0xbc2b209d	-0.010444787
111	0xbe0e1273	-0.13874225
112	0x3e2d2e39	0.16912164
113	0x3d8c08da	0.06837626
114	0xbefddf7f	-0.49584576
115	0xbc3b9c94	-0.011450905
116	0xbdd036da	-0.10166712
117	0x3e61c2e2	0.22046998
118	0x3df8e648	0.12153298
119	0xbd274f2b	-0.040846985
120	0xbecff05e	-0.40613073
121	0x3eabdc05	0.335663
122	0x3d71aa74	0.059000447
123	0xbeae35de	-0.34025472
124	0xbe499a9e	-0.19687888
125	0xbe501c0f	-0.20323204
126	0x3efc33fd	0.49258414
127	0x3eaafc7c	0.33395755
128	0xbeb34c37	-0.35019085
129	0xbe882e8d	-0.26598015
130	0x3ed6c936	0.41950387
131	0x3e670251	0.22559477
132	0xbe2801b1	-0.16406895
133	0x3ea7f848	0.3280661
134	0xbbf60ae9	-0.007508625
135	0xbe73eedf	-0.23821591
136	0xbe84bb8d	-0.2592434
137	0x3c9e03dd	0.019288952
138	0x3d0f5f6b	0.035003107
139	0xbe213b3c	-0.15745252
140	0x3de298dd	0.110643126
141	0x3b93413c	0.0044938605
142	0xbd95e8ab	-0.073197685
143	0x3d705f9b	0.058684926
144	0xbdd152bf	-0.10220861
145	0xbd625734	-0.055258945
146	0x3e4e856b	0.20168082
147	0xbddca630	-0.10773885
148	0x3ea5d80f	0.32391402
149	0x3d8241d7	0.06360214
150	0x3e9dde88	0.3083384
151	0xbecb469e	-0.39702314
152	0x3ec773b5	0.38955465
153	0xbe2d8281	-0.16944315
154	0xbe7d7cae	-0.24754593
155	0x3eccc203	0.3999177
156	0xbd668ddf	-0.056287643
157	0x3e032e07	0.12810527
158	0xbe366255	-0.17810948
159	0xbc2c74d5	-0.010525902
160	0x3ec50687	0.38481542
161	0x3de98526	0.11402349
162	0xbec5058a	-0.38480788
163	0xbec5b9f9	-0.38618448
164	0x3e5e3613	0.21700315
165	0xbe96fc0f	-0.2948918
166	0xbe2371ea	-0.15961424
167	0x3eaa4773	0.33257636
168	0x3e46dc65	0.19420011
169	0xbebaea10	-0.365067
170	0x3eb4c3c8	0.3530562
171	0x3e78e368	0.24305499
172	0x3e555c4c	0.2083599
173	0x3e66fa44	0.22556406
174	0x3e279587	0.16365634
175	0x3e790091	0.24316622
176	0x3e8a5083	0.2701455
177	0xbca12a2e	-0.019673433
178	0xbe10e098	-0.14148176
179	0xbe721275	-0.23639853
180	0xbd96659f	-0.073436014
181	0x3ed76479	0.42068842
182	0xbdc60981	-0.096697815
183	0xbe23dc7f	-0.16002081
184	0xbeb8411c	-0.35987175
185	0x3ee7da2e	0.45283645
186	0x3e4d4caa	0.20048776
187	0xbeeb4eee	-0.45958656
188	0x3e6e526b	0.23273627
189	0xbe60c2f9	-0.21949376
190	0x3ee30d42	0.44346052
191	0xbe53a0cb	-0.20666806
192	0xbea0a16c	-0.31373155
193	0x3d5df581	0.05418921
194	0x3e8cd0df	0.27503106
195	0xbc35f859	-0.011106574
196	0xbc222883	-0.009897354
197	0xbd2cc09f	-0.042175885
198	0x3ed58dc5	0.41709724
199	0xbe0f89e7	-0.1401745
200	0xbe8fac87	-0.28061315
201	0x3ec2c8c5	0.380438
202	0xbd8b3a15	-0.06798188
203	0xbec55137	-0.38538525
204	0x3dd2c4f4	0.10291472
205	0x3d964c9b	0.0733883
206	0xbe88196a	-0.2658189
207	0xbeb0e144	-0.34546864
208	0xbf0ccc72	-0.5499946
209	0xbd886b13	-0.06661048
210	0x3e34da46	0.1766139
211	0x3e6c7fbc	0.23095602
212	0x3dc6ebe4	0.09712961
213	0xbeb20b43	-0.34774217
214	0x3d9098ad	0.070603706
215	0x3aa10034	0.0012283386
216	0x3e9972cd	0.299704
217	0xbefb2290	-0.49049807
218	0xbe316246	-0.17322645
219	0x3eecc27d	0.46242133
220	0x3e2f8266	0.17139587
221	0x3e4ada87	0.19809924
222	0xbe4805c6	-0.19533452
223	0x3e7e1a8d	0.24814816
224	0x3ea6c6bc	0.32573497
225	0x3df53ce6	0.11974506
226	0xbea0d1c7	-0.31410047
227	0xbd49867f	-0.04920053
228	0x3e18c47b	0.14918701
229	0x3da8e7fc	0.082473725
230	0xbe314d21	-0.17314579
231	0x3e86ab64	0.26302636
232	0xbd04ccfd	-0.032422055
233	0xbee60f02	-0.44933325
234	0x3e7a7f6d	0.24462672
235	0x3dfd9c2f	0.12383305
236	0xbdacc32a	-0.08435662
237	0xbc2678cd	-0.010160637
238	0x3e8ec894	0.27887404
239	0x3e655d1b	0.22398798
240	0x3ea89c80	0.329319
241	0x3dcf463a	0.101208165
242	0xbef2620d	-0.47340432
243	0x3dc378a2	0.09544493
244	0xbdbdba82	-0.09264089
245	0x3d2d22f6	0.04226967
246	0xbe0ab128	-0.13544142
247	0x3b757e4c	0.0037459312
248	0xbec21dfb	-0.37913498
249	0x3e0f9d22	0.14024785
250	0x3e911837	0.28338787
251	0xbe68c5e1	-0.22731735
252	0xbdd127f4	-0.102126986
253	0xbc6ff60e	-0.014646066
254	0x3ee63caf	0.44968173
255	0xbdcee628	-0.101024926

bias f4 [32]
0	0x3e2100cc	0.1572296
1	0x3e100075	0.14062674
2	0x3e877fc6	0.2646467
3	0xbc0e93da	-0.008702243
4	0xbe8ee2fb	-0.27907547
5	0x3e8dc59a	0.2768982
6	0xbe717702	-0.23580554
7	0x3e6791a2	0.22614148
8	0x3e006d17	0.12541614
9	0x3c553241	0.01301247
10	0x3db48afc	0.08815572
11	0xbe3aea2f	-0.18253396
12	0xbe399a8b	-0.1812536
13	0xbe4e60ef	-0.20154165
14	0xbe649856	-0.22323737
15	0xbd976297	-0.073918514
16	0x3e1ca54f	0.15297435
17	0x3d6e7dd7	0.05822548
18	0x3ce7d69a	0.028300572
19	0xbea91090	-0.3302045
20	0xbd9ea740	-0.07746744
21	0x3ea8c5db	0.32963452
22	0xbe7991f5	-0.24372084
23	0xbdcb96f7	-0.09940904
24	0xbdb6e971	-0.08931244
25	0x3e1deac5	0.15421589
26	0x3ddda4d2	0.108224526
27	0xbdc4bf49	-0.09606797
28	0xbe8b152d	-0.27164593
29	0xbce99185	-0.028511772
30	0x3e264148	0.1623584
31	0x3e23e7f4	0.16006452

weight_ih_l0 f4 [128, 32]
0	0x3dc6cefa	0.097074464
1	0xbd83c95d	-0.064348914
2	0x3e9e4b3f	0.30916783
3	0x3cb20817	0.021732373
4	0xbe255218	-0.16144598
5	0x3d818d03	0.06325724
6	0xbdc7110e	-0.0972005
7	0x3da6a0a4	0.081361085
8	0x3e845b12	0.2585073
9	0x3e8b493a	0.27204305
10	0x3e104772	0.14089754
11	0xbe03af67	-0.1285988
12	0xbda4075b	-0.080092154
13	0xbe843c86	-0.25827426
14	0xbe323e42	-0.17406562
15	0xbd08b0a0	-0.033371568
16	0x3da44fdb	0.08023044
17	0x3dcfdcc2	0.10149528
18	0x3e68539a	0.22688141
19	0xbdde82ad	-0.10864768
20	0x3d5c617a	0.0538039
21	0x3e7de9d4	0.2479623
22	0xbd8a0394	-0.06738964
23	0x3d93fc09	0.07225806
24	0x3c2c8823	0.010530504
25	0x3ce196a8	0.027537659
26	0xbdf20c48	-0.11818749
27	0x3e7ef8ec	0.24899644
28	0xbe28c986	-0.16483125
29	0x3c294573	0.010331499
30	0xbd41d1df	-0.04731929
31	0x3ddd0826	0.1079257
32	0xbcd49e72	-0.025954459
33	0xbe3036cb	-0.17208402
34	0xbd20e6b9	-0.039282534
35	0xbe2720b6	-0.16321072
36	0x3db0bdc4	0.08629945
37	0xbd099591	-0.033589903
38	0x3df22e9c	0.11825296
39	0xbcd08afc	-0.025456898
40	0x3bb19c15	0.0054202178
41	0xbe22b6b2	-0.15890005
42	0xbe1d3a36	-0.15354237
43	0x3e89131e	0.26772398
44	0x3d74a9ba	0.059732176
45	0xbcddd05c	-0.027076893
46	0x3db83709	0.08994872
47	0xbdc32174	-0.09527865
48	0xbe0842b5	-0.13306697
49	0xbdfe8ed2	-0.124295846
50	0xbe9b2ab8	-0.3030603
51	0x3e607f73	0.21923618
52	0x3e1b3069	0.15155186
53	0xbc543837	-0.012952856
54	0x3d8e8348	0.06958634
55	0x3e247fc5	0.16064365
56	0xbd0817b6	-0.033225738
57	0xbe2ec330	-0.17066646
58	0x3c1f73f3	0.009732234
59	0x3eb7495f	0.35798165
60	0x3e1d270b	0.15346925
61	0x3d8acece	0.06777726
62	0xbe71ad87	-0.23601352
63	0x3cc75a08	0.024334922
64	0x3e4ca868	0.19986117
65	0x3e2bfb54	0.16795093
66	0x3d368693	0.044561934
67	0xbce12ac7	-0.027486218
68	0xbeec57e9	-0.4616082
69	0x3e30679b	0.17227022
70	0xbe94c895	-0.29059282
71	0x3e8f5428	0.27993894
72	0x3c32f7fe	0.010923384
73	0x3d7461d1	0.059663597
74	0x3c1747b0	0.0092334
75	0x3e0884ae	0.13331863
76	0xbd5398ec	-0.05165951
77	0xbdc60372	-0.09668626
78	0xbe5d4314	-0.2160762
79	0x3dff67d6	0.12470977
80	0x3e71c3fd	0.2360992
81	0x3e57150c	0.21004122
82	0x3cbedd34	0.023298837
83	0xbe8afdc2	-0.27146727
84	0x3dbfe98d	0.09370718
85	0x3e8641d2	0.26222092
86	0xbe829abf	-0.25508687
87	0xbe48180d	-0.19540425
88	0xbe99ddfc	-0.30052173
89	0x3e5a9d6d	0.21349116
90	0x3e29f91e	0.16598937
91	0xbeb2a295	-0.34889665
92	0xbeacf267	-0.33778688
93	0xbd51a592	-0.05118329
94	0x3e8314da	0.25601846
95	0xbdab8e32	-0.08376731
96	0x3e9a4203	0.30128488
97	0x3e11b380	0.1422863
98	0x3eba480b	0.3638309
99	0x3e69fb2b	0.22849719
100	0xbec7a051	-0.389895
101	0x3e70380c	0.2345888
102	0xbe61a24b	-0.22034566
103	0x3ec85b84	0.3913232
104	0x3da8c6c0	0.082410336
105	0x3d551299	0.05201969
106	0x3b6acc55	0.0035827358
107	0xbe0839e4	-0.13303334
108	0xbea16a55	-0.31526437
109	0xbe83cfa8	-0.25744367
110	0xbe3ebb8c	-0.18626231
111	0x3df92154	0.1216456
112	0x3ea95e93	0.33079967
113	0x3e261041	0.16217138
114	0x3d28dd1c	0.04122649
115	0xbe693f67	-0.22778092
116	0xbdfa6755	-0.1222674
117	0x3e06943d	0.13142486
118	0x3d28bb67	0.041194346
119	0xbe047fd5	-0.12939389
120	0xbdc62c4c	-0.09676418
121	0x3e341498	0.17585981
122	0x3e06caa6	0.13163242
123	0x3eae433b	0.34035668
124	0xbe97c5c4	-0.2964307
125	0xbe876c45	-0.2644979
126	0x3dff0038	0.124512136
127	0x3ec91b52	0.39278656
128	0xbc95fcb6	-0.018308979
129	0x3c90b514	0.01766447
130	0x3d83adc2	0.06429626
131	0x3e01e46c	0.12684792
132	0x3d2d936f	0.04237693
133	0xbe322f73	-0.17400913
134	0xbdd10d4b	-0.102076136
135	0xbe037a76	-0.12839684
136	0xbd5edc40	-0.054409266
137	0xbc09b713	-0.008405465
138	0xbd75c7ee	-0.06000512
139	0xbded69d1	-0.115924485
140	0x3c5a82db	0.013336862
141	0x3deab9bc	0.11461207
142	0xbdfd15f8	-0.12357706
143	0xbdab2a6f	-0.08357703
144	0xbe338b24	-0.17533547
145	0x3dfacb30	0.12245786
146	0x3d0cc377	0.034366097
147	0x3d541418	0.051776975
148	0x3d7715ab	0.0603234
149	0x3cebdfe1	0.028793277
150	0x3d45d794	0.048301294
151	0x3e161da9	0.14659752
152	0x3e821aa5	0.25410953
153	0xbe3e3de3	-0.18578295
154	0xbde5625b	-0.112004004
155	0x3e954884	0.29156888
156	0x3de012df	0.109410994
157	0x3daeae39	0.08529324
158	0xbdbc4ca9	-0.09194309
159	0x3e109bb9	0.14121903
160	0x3e300904	0.17190939
161	0x3d5ff10e	0.054673247
162	0xbd0801ba	-0.03320477
163	0x3e89f684	0.2694589
164	0xbe983cd4	-0.29733908
165	0x3dfeac17	0.12435167
166	0xbda70559	-0.08155317
167	0x3ce1a557	0.02754466
168	0x3dd61b8a	0.104544714
169	0x3e1839c5	0.14865787
170	0x3e718d1e	0.23588988
171	0x3dd351ef	0.10318362
172	0x3cb48238	0.02203475
173	0xbdf04554	-0.11731973
174	0xbbe31877	-0.0069304067
175	0x3da2f855	0.07957522
176	0x3d83fc0e	0.0644456
177	0xbdeb004a	-0.114746645
178	0xbd430435	-0.047611434
179	0xbe022f60	-0.12713385
180	0xbe0f30f4	-0.13983518
181	0x3e264b29	0.16239609
182	0xbe184a44	-0.1487208
183	0xbba5dd54	-0.0050617848
184	0xbe78c65c	-0.24294418
185	0xbcd45295	-0.025918284
186	0x3e3b5d50	0.18297315
187	0x3e235f6f	0.15954374
188	0xbe4fe591	-0.20302416
189	0xbdaf3f65	-0.085570134
190	0x3e560003	0.20898442
191	0xbc5a58b2	-0.013326811
192	0x3ec81469	0.39078072
193	0x3be668b3	0.007031524
194	0x3ee9334c	0.4554695
195	0x3e7686f5	0.2407492
196	0xbdffa621	-0.124828584
197	0x3e8c7258	0.27430987
198	0xbeaf7d1a	-0.34275132
199	0x3ebd7dce	0.37010044
200	0x3d9ba560	0.07599902
201	0x3ddba005	0.10723881
202	0x3eb7b4af	0.35880038
203	0xbf0710bb	-0.52759904
204	0xbe0d0eac	-0.13775128
205	0xbefca8d4	-0.49347556
206	0xbdfd9757	-0.123823814
207	0x3e3b49aa	0.1828982
208	0x3dc1112b	0.09427103
209	0x3e828d3c	0.25498378
210	0xbbfb8a9c	-0.0076764356
211	0xbde4821e	-0.111576304
212	0xbdcd4bcd	-0.100242235
213	0x3e0e9967	0.13925706
214	0xbd7baae0	-0.061442256
215	0xbebb948e	-0.36636776
216	0x3d098585	0.0335746
217	0x3e3deaff	0.18546675
218	0x3dc24208	0.09485251
219	0x3c8363a7	0.016038729
220	0xbe9cd595	-0.306317
221	0xbe1a170a	-0.15047851
222	0xbc63ea54	-0.013910849
223	0x3ef8614b	0.4851173
224	0x3ed08145	0.40723625
225	0x3eb9a8e4	0.36261666
226	0x3e48a39f	0.19593666
227	0x3eaa5799	0.33269957
228	0xbe0c1c14	-0.13682586
229	0x3e7fe78c	0.24990672
230	0xbe8935b3	-0.26798782
231	0x3ec13c62	0.3774138
232	0x3e3b70a9	0.18304695
233	0x3ebdd303	0.37075052
234	0x3ed517b4	0.41619647
235	0xbeb13c1a	-0.34616166
236	0xbeaa5f98	-0.33276057
237	0xbee93caf	-0.4555411
238	0xbe7705e5	-0.24123342
239	0x3e2c9ea6	0.16857395
240	0x3e404fb1	0.187804
241	0x3e50a613	0.20375852
242	0x3eb05676	0.34440964
243	0xbda87eca	-0.08227308
244	0xbea7d7f4	-0.32781947
245	0x3e34e462	0.17665246
246	0xbe7e5bc8	-0.248397
247	0xbea311c4	-0.31849492
248	0xbebad964	-0.3649398
249	0x3e1c7195	0.15277703
250	0x3ea35109	0.31897762
251	0x3dd43279	0.103611894
252	0xbec03465	-0.37539974
253	0xbe343fb5	-0.17602427
254	0x3de3d562	0.11124684
255	0x3ebaabb6	0.3645913

weight_hh_l0 f4 [128, 32]
0	0x3d52d599	0.051473234
1	0xbc42d4cc	-0.011891555
2	0xbd89cf8c	-0.067290395
3	0x3d1fc0bf	0.039002176
4	0x3c8ed724	0.017436571
5	0x3bd5e99e	0.0065280935
6	0x3dcdb1da	0.10043688
7	0x39b64bf0	0.00034770323
8	0x3d183e30	0.03716868
9	0xbdaae833	-0.0834507
10	0x3d4f0079	0.05053756
11	0x3dbc0147	0.09179931
12	0xbe460cff	-0.19340895
13	0xbdb527ed	-0.08845506
14	0x3e27412a	0.16333452
15	0x3e3adde1	0.18248703
16	0xbd0e0464	-0.034672156
17	0xbbc2cb6f	-0.0059446613
18	0x3ed2463a	0.41069204
19	0x3c9062ff	0.01762533
20	0xbdb528ae	-0.0884565
21	0x3d35ad52	0.044354744
22	0xbe3d3830	-0.18478465
23	0xbddeecf3	-0.10885038
24	0xbe030ac1	-0.12797071
25	0xbde9de46	-0.114193484
26	0x3e00eb5f	0.12589787
27	0x3ecff6ea	0.40618068
28	0xbe531c5c	-0.20616287
29	0xbec89059	-0.3917263
30	0xbd8753d0	-0.06607783
31	0xbe997ce5	-0.299781
32	0xbb116b64	-0.0022189254
33	0x3e340c73	0.17582874
34	0xbdb3c95c	-0.08778641
35	0x3d395526	0.04524722
36	0x3c371649	0.011174747
37	0xbe8575a0	-0.26066303
38	0x3d318cda	0.043347217
39	0x3cb39dfa	0.021925915
40	0xbe524c51	-0.20536925
41	0xbe4c835b	-0.19971983
42	0x3e7f74b3	0.24946861
43	0x3db23e30	0.087032676
44	0xbe1c1711	-0.15243174
45	0xbebebb6a	-0.3725236
46	0x3e0301bd	0.12793632
47	0x3ec85f6a	0.39135295
48	0x3e440d82	0.19145778
49	0x3d1f5fd2	0.03890974
50	0x3f072f14	0.5280621
51	0x3d860a87	0.06544977
52	0x3e249986	0.1607419
53	0xbc18dd05	-0.009330039
54	0xbd513c87	-0.051083114
55	0x3d6cba22	0.057794698
56	0x3d3eb05d	0.046554912
57	0xbdd887ac	-0.10572752
58	0xbda1af89	-0.07894809
59	0x3ee9c0dd	0.45654956
60	0xbec84c87	-0.39120886
61	0xbf004d4f	-0.50117964
62	0x3e03b199	0.12860717
63	0xbf009c68	-0.50238657
64	0x3eefc0d2	0.46826798
65	0xbdbae6c4	-0.09126046
66	0xbe001027	-0.12506162
67	0xbeb4cb9b	-0.3531159
68	0x3e0bd195	0.13654168
69	0xbeb6a7a2	-0.3567477
70	0xbeb4fdf6	-0.35350007
71	0x3e5182a3	0.2045999
72	0xbdea733a	-0.11447759
73	0xbe49ffce	-0.19726488
74	0x3ebf7461	0.37393478
75	0x3e2e02b2	0.16993216
76	0xbd51fe4a	-0.0512679
77	0xbdb98ef5	-0.0906047
78	0x3eb2cdea	0.34922725
79	0xbd83830d	-0.0642148
80	0x3e9cccca	0.30624992
81	0x3e56877d	0.20950122
82	0xbc816640	-0.015795827
83	0x3e5cb4f6	0.21553406
84	0x3ea91dfd	0.33030692
85	0xbe828d3d	-0.2549838
86	0xbe89495d	-0.26813784
87	0x3e979c71	0.29611543
88	0xbe069386	-0.13142213
89	0xbef507ea	-0.478576
90	0x3ea635ee	0.3246302
91	0x3d5f3a83	0.05449916
92	0xbe7ecd58	-0.2488302
93	0xbdf6236b	-0.12018474
94	0x3e9465bf	0.28983876
95	0x3df66b77	0.12032216
96	0x3e80219b	0.2502564
97	0xbd56e7f4	-0.0524673
98	0x3d5e30e6	0.054245852
99	0xbea4441b	-0.3208321
100	0x3f037c13	0.513612
101	0xbd73990a	-0.05947212
102	0xbecdd675	-0.4020268
103	0x3dba3a57	0.09093159
104	0xbd22e079	-0.039764855
105	0xbe557e55	-0.20848973
106	0x3e3e10e7	0.18561135
107	0x3cf3ba2c	0.02975186
108	0xbd8d1d31	-0.068903334
109	0xbe9e718b	-0.30946
110	0x3e6e2984	0.23258024
111	0xbdc026cc	-0.093824
112	0xbd00745b	-0.031360965
113	0xbda6c8ba	-0.08143754
114	0xbd1fbdf9	-0.03899953
115	0x3e53c8ec	0.20682114
116	0x3ddd606c	0.10809407
117	0xbdfea68d	-0.12434111
118	0xbedd8e22	-0.432725
119	0x3e6bbc44	0.23021036
120	0xbe384116	-0.17993578
121	0xbda1e3c9	-0.07904775
122	0x3d89abe4	0.06722239
123	0xbcf40a22	-0.029789988
124	0xbe0207e4	-0.12698323
125	0x3dce3014	0.10067764
126	0x3e673565	0.22578962
127	0xbd1c93d8	-0.038226932
128	0x3ed065f9	0.407028
129	0x3ee428b6	0.4456231
130	0xbe43f124	-0.19134957
131	0xbdd006da	-0.10157557
132	0x3ea6dd94	0.32590926
133	0xbe58ba04	-0.2116471
134	0xbae94bcd	-0.001779908
135	0x3e66462b	0.22487704
136	0xbe9590ae	-0.29211944
137	0xbe54aa80	-0.20768166
138	0x3e752108	0.23938382
139	0x3f07d175	0.5305398
140	0xbe2ff152	-0.171819
141	0xbcc47e74	-0.023986079
142	0x3e26eef4	0.16302091
143	0x3eee6b56	0.46566266
144	0x3e5f76b6	0.21822628
145	0x3ee870c8	0.45398545
146	0xbd833a0e	-0.064075574
147	0x3f0692e4	0.5256789
148	0x3ebeca7e	0.37263864
149	0xbeb03c9d	-0.34421244
150	0xbe5f1116	-0.21783862
151	0x3e9381b9	0.28809908
152	0xbebe08fe	-0.37116235
153	0xbe8ec0ad	-0.27881375
154	0x3ec5ae54	0.38609564
155	0x3e13cf4f	0.1443455
156	0xbe854fa7	-0.26037332
157	0xbedec768	-0.4351151
158	0x3ef00b4a	0.46883613
159	0x3cbb087b	0.022831192
160	0x3ea9ac3f	0.33139226
161	0x3e63067c	0.22170442
162	0xbebc0f82	-0.36730582
163	0xbecaba1b	-0.39595112
164	0x3e7db682	0.24776652
165	0xbe43ecf0	-0.19133353
166	0xbe3cf22e	-0.18451759
167	0x3eba3162	0.363658
168	0xbdc4f08b	-0.096161924
169	0xbe4cc29e	-0.19996116
170	0x3e3425db	0.17592566
171	0x3d1f2195	0.038850386
172	0xbe3cf916	-0.18454394
173	0xbe9d9cc1	-0.30783656
174	0x3eb575a9	0.3544133
175	0x3e058891	0.13040377
176	0x3ecf56df	0.40495965
177	0x3ec683a8	0.3877232
178	0xbd5de9f5	-0.054178197
179	0x3eb3ae67	0.35093996
180	0x3e480f2f	0.19537042
181	0xbe4083ee	-0.18800327
182	0xbe91d59c	-0.28483284
183	0x3ec4310a	0.38318664
184	0xbed6987d	-0.41913214
185	0xbd8534e1	-0.065042265
186	0x3e7a3624	0.24434716
187	0x3e254e81	0.16143228
188	0x3da7ea12	0.08198942
189	0xbd90dbbb	-0.0707316
190	0x3df0ff7a	0.11767478
191	0x3ca6f417	0.020380063
192	0x3ed93948	0.42426515
193	0xbbc3ec11	-0.005979069
194	0xbe6e6dea	-0.23284116
195	0x3db9206a	0.090393856
196	0x3dd73bb3	0.105094336
197	0xbec64fb4	-0.38732684
198	0x3d1dfc85	0.0385709
199	0x3e63dd75	0.22252448
200	0xbe8ce863	-0.27521047
201	0x3d35fc3e	0.04443001
202	0x3e0d6f79	0.13812055
203	0x3f03cddf	0.5148601
204	0xbed45d1b	-0.41477284
205	0xbdb3cbef	-0.087791316
206	0x3e1c821a	0.15284005
207	0x3d4bbb53	0.049739193
208	0x3e8a004f	0.2695336
209	0x3e03d57b	0.12874405
210	0xbe9a7633	-0.30168304
211	0x3ecb1e63	0.3967162
212	0x3f06d5ea	0.52670157
213	0xbed32faa	-0.41247302
214	0xbefec994	-0.49763167
215	0x3e380e58	0.17974222
216	0xbe80d4d7	-0.25162384
217	0xbe5f2b7c	-0.21793932
218	0x3eb13ee5	0.34618297
219	0x3e92de75	0.28685346
220	0xbe0d42e6	-0.13795051
221	0xbe95bb12	-0.29244286
222	0x3ea6d9d6	0.3258807
223	0x3d77975a	0.060447074
224	0x3e1421a2	0.14465955
225	0x3e4eb19d	0.20184942
226	0xbe7088ba	-0.23489657
227	0xbeb46a2f	-0.35237262
228	0x3e90258b	0.28153643
229	0xbe9e1595	-0.3087584
230	0xbe5a4322	-0.21314672
231	0x3ee1048f	0.4394879
232	0xbe1bf9f9	-0.15232076
233	0xbe81ddc1	-0.25364497
234	0x3e9826de	0.29717153
235	0x3d9f75d2	0.07786144
236	0xbe3a1b68	-0.18174517
237	0xbeceb0b8	-0.403692
238	0x3beaf5e2	0.007170425
239	0xbcbafc98	-0.022825524
240	0x3e0adfe1	0.13561966
241	0x3e0f39bc	0.13986868
242	0xbd9a89a8	-0.07545787
243	0x3e40d292	0.18830326
244	0x3e60e795	0.21963342
245	0xbe71b76b	-0.23605125
246	0xbeb700f4	-0.35742915
247	0x3eaae5a9	0.33378342
248	0xbd95d9da	-0.073169425
249	0xbe3677f2	-0.17819193
250	0x3de44d29	0.1114753
251	0x3c292520	0.010323793
252	0x3e745a77	0.23862635
253	0xbe7ed6c9	-0.24886622
254	0x3d82507f	0.0636301
255	0xbdb6c23a	-0.089237645

bias_ih_l0 f4 [128]
0	0x3e849261	0.25892928
1	0x3e0efb6c	0.13963097
2	0x3ef96648	0.48710847
3	0x3ece8283	0.40333948
4	0x3de4280f	0.11140453
5	0x3ecff9e6	0.40620345
6	0x3e847ac4	0.25874913
7	0x3e397e30	0.18114543
8	0x3ed79c0f	0.4211125
9	0x3e700edb	0.23443167
10	0x3f1002c6	0.5625423
11	0x3e65cc37	0.22441183
12	0x3e9be1de	0.3044576
13	0xbd8cca30	-0.06874502
14	0x3f066bc8	0.5250821
15	0x3ec4650b	0.3835834
16	0x3e4da186	0.20081148
17	0x3eb95b67	0.36202547
18	0x3d643581	0.055715088
19	0x3ed80816	0.4219367
20	0x3eac6c51	0.3367639
21	0x3eb465d2	0.35233933
22	0x3b1af776	0.0023646033
23	0xbc3e6d9f	-0.011622815
24	0x3e9bb673	0.30412635
25	0x3e931950	0.2873025
26	0x3ebff990	0.3749509
27	0xbe3ac040	-0.182374
28	0x3e155966	0.14584884
29	0x3dcfb1f5	0.101413645
30	0xbd01d243	-0.03169466
31	0x3dca9cfe	0.09893225
32	0xbd71bca4	-0.059017792
33	0x3deb994c	0.115038484
34	0x3d424f20	0.04743874
35	0xbe4eec44	-0.20207316
36	0x3c764849	0.015031883
37	0x3de1e832	0.11030616
38	0xbe366137	-0.17810522
39	0xbe2494ef	-0.16072439
40	0xbda7484d	-0.08168087
41	0x3ec24b9a	0.37948304
42	0x3e504ff7	0.20343004
43	0xbd5b9d93	-0.05361707
44	0xbe622df6	-0.22087845
45	0x3e986548	0.2976477
46	0xbddd1752	-0.107954636
47	0x3e3c865f	0.18410634
48	0x3e402ca2	0.18767026
49	0x3e77b9d2	0.24191979
50	0x3e9cadae	0.30601257
51	0x3e7abc1e	0.24485824
52	0x3e41b7aa	0.18917719
53	0x3e2db899	0.1696495
54	0xbe6033a8	-0.21894705
55	0xbdd96ba7	-0.10616236
56	0xbb07ce77	-0.0020722428
57	0x3e922643	0.28544816
58	0x3ee09a84	0.43867886
59	0x3eb1c8dc	0.34723556
60	0x3eb502c1	0.35353664
61	0x3e045349	0.12922396
62	0x3e65b239	0.22431268
63	0x3e8e82f1	0.27834275
64	0xbdb7a3b2	-0.08966769
65	0x3da24919	0.079240985
66	0xbe1c031c	-0.15235561
67	0x3e209d38	0.15684974
68	0x3d4bd4da	0.049763538
69	0xbea1c95c	-0.31598938
70	0xbcd034db	-0.025415828
71	0xbd2bab0a	-0.041911162
72	0xbdb9f323	-0.09079578
73	0x3ceab277	0.028649552
74	0x3d9dce19	0.07705326
75	0x3ef774eb	0.4833139
76	0xbe11e9b4	-0.14249307
77	0x3de61fc4	0.112365276
78	0x3eb55d19	0.3542259
79	0x3e5ad161	0.21368934
80	0x3e9b58bb	0.30341133
81	0x3e26c453	0.16285829
82	0xbcb0950a	-0.021555442
83	0x3d4c4096	0.04986628
84	0x3e66c635	0.22536547
85	0xbe86cc77	-0.2632787
86	0x3e17b056	0.1481336
87	0xbd200b65	-0.039073367
88	0xbdd9452c	-0.106088966
89	0xbe8ff27a	-0.28114682
90	0x3ea06b55	0.31331888
91	0x3c321cbe	0.0108711105
92	0xbdede498	-0.116158664
93	0x3e1d5db9	0.15367784
94	0x3e1b84af	0.15187334
95	0x3d7a73d6	0.061145626
96	0x3ea45df7	0.3210294
97	0x3e87388e	0.26410335
98	0x3ecff29c	0.40614784
99	0xbe1a36b6	-0.15059933
100	0x3e528e3c	0.2056207
101	0x3e8373ae	0.25674194
102	0xbc98582c	-0.018596731
103	0x3ead361b	0.33830342
104	0x3e6d1ce3	0.2315555
105	0x3de30482	0.11084844
106	0x3e17e33e	0.1483278
107	0x3f10c1f0	0.56545925
108	0x3e8e506d	0.27795735
109	0x3e2a0d04	0.16606528
110	0x3f177a0a	0.5917059
111	0x3e992aac	0.2991537
112	0x3e8ba444	0.27273762
113	0x3e3212d2	0.17389992
114	0xbdbf7f63	-0.09350469
115	0x3e244194	0.16040641
116	0x3eeef6e7	0.46672747
117	0x3ed5f537	0.41788647
118	0x3e1c39e4	0.15256459
119	0x3e0a25d9	0.13491
120	0x3e138ddc	0.14409584
121	0x3eba12ac	0.3634237
122	0x3eda07a1	0.42583945
123	0x3cdeb898	0.02718763
124	0x3e04adf1	0.12956978
125	0xbd8e3d2f	-0.069452636
126	0x3e9d5091	0.3072553
127	0x3e2581f2	0.16162851

bias_hh_l0 f4 [128]
0	0x3e9c189d	0.30487528
1	0x3e90480d	0.2817997
2	0x3ef9fc70	0.48825407
3	0x3e9edcc9	0.3102782
4	0x3e55d8b1	0.20883442
5	0x3e7bb74c	0.24581641
6	0x3ea2e26f	0.3181338
7	0x3e8fe0bf	0.28101155
8	0x3ea08a97	0.31355736
9	0x3d4ace73	0.04951329
10	0x3f00e380	0.5034714
11	0x3e466e0c	0.19377917
12	0x3e7591a5	0.2398134
13	0x3d114b66	0.035472296
14	0x3f301c6e	0.6879338
15	0x3d38dd64	0.04513301
16	0x3e39069a	0.18068925
17	0x3eeecf7f	0.46642682
18	0x3e08cb82	0.13358882
19	0x3e8c3352	0.27382904
20	0x3e58f091	0.21185519
21	0x3e788d2e	0.24272606
22	0xbcd01c1d	-0.02540403
23	0x3ddc4079	0.10754485
24	0x3ee0473a	0.43804342
25	0x3e92d0b0	0.2867484
26	0x3ec5e302	0.38649756
27	0xbda551fb	-0.08072277
28	0x3e05dcc8	0.13072503
29	0xbe3668d8	-0.17813432
30	0xbd9bcc86	-0.07607369
31	0x3e431f17	0.19054829
32	0x3c58717b	0.01321065
33	0x3d4bc1cc	0.049745366
34	0x3e8dbcbb	0.27683052
35	0xba0af2a9	-0.00053004414
36	0x3d96034c	0.073248476
37	0x3e94e189	0.2907832
38	0xbe0ad2b9	-0.13556947
39	0xbe7cbddb	-0.24681799
40	0xbe0c5418	-0.13703954
41	0x3e2264bd	0.15858741
42	0x3e37521d	0.17902417
43	0xbd77d6ea	-0.060507692
44	0x3c3ff98d	0.011717212
45	0x3d98060f	0.074230306
46	0xbe57418f	-0.21021102
47	0x3e95bd18	0.2924583
48	0x3e32ce66	0.17461547
49	0x3e31ddc6	0.17369756
50	0x3eb58c58	0.35458636
51	0x3e9f4d9e	0.31113905
52	0x3e7ebb50	0.24876142
53	0x3e01be95	0.12670358
54	0x3c96fa9e	0.01843005
55	0x3cc8ba6a	0.024502952
56	0x3e050c1f	0.12992905
57	0x3ed548bd	0.41657057
58	0x3ee6e472	0.45096165
59	0x3e90f369	0.28310707
60	0x3e483f56	0.1955541
61	0x3eabd7ff	0.3356323
62	0x3e5f0055	0.2177747
63	0x3ebd419b	0.36964116
64	0x3c82fa44	0.015988477
65	0xba8f8aac	-0.0010951362
66	0xbdc65ad9	-0.096852966
67	0x3b7d0df8	0.0038613062
68	0x3c9109aa	0.017704803
69	0xbe3f0bae	-0.18656799
70	0x3c9f7b31	0.019467922
71	0xbe38496d	-0.1799676
72	0xbc2baafe	-0.010477779
73	0xbdd6433b	-0.10462042
74	0xbdfbed1c	-0.123010844
75	0x3e79f419	0.24409522
76	0xbe74ba0f	-0.238991
77	0x3d0f07a7	0.034919407
78	0x3ec25675	0.37956586
79	0x3eaa1db6	0.33225793
80	0x3ead8453	0.33890018
81	0x3e680eed	0.22661944
82	0x3e019a0e	0.12656423
83	0x3eabcde9	0.33555534
84	0x3eccb581	0.39982226
85	0xbe82d311	-0.25551656
86	0x3bb9faaa	0.0056756334
87	0x3d92ed27	0.071741395
88	0xbe1a727e	-0.15082738
89	0xbea50c14	-0.32235777
90	0x3eaf6117	0.3425376
91	0xbe1ef2f0	-0.15522361
92	0xbe2ea22a	-0.17054048
93	0xbd77a3c1	-0.060458902
94	0x3da4fb22	0.08055712
95	0xbe829365	-0.25503078
96	0x3d625dcd	0.055265237
97	0x3e29004a	0.16504017
98	0x3ee34f3e	0.44396394
99	0x3c6c86f2	0.01443647
100	0x3dd0109d	0.10159419
101	0x3e219730	0.1578033
102	0x3cc77ace	0.02435055
103	0x3ec64ee1	0.38732055
104	0x3e92d75d	0.28679934
105	0x3e0c28ff	0.13687514
106	0x3e1d37f7	0.1535338
107	0x3ef2a510	0.47391558
108	0x3db20e59	0.08694143
109	0xbc6b1065	-0.0143471705
110	0x3f02f02e	0.51147735
111	0x3ef91f9f	0.48656937
112	0x3d4d21e1	0.050081138
113	0xbd217c11	-0.03942496
114	0x3e074545	0.13210018
115	0x3eb34a8f	0.3501782
116	0x3eccd845	0.4000875
117	0x3e95f96a	0.2929185
118	0x3d44d90f	0.048058566
119	0x3e156ed4	0.14593059
120	0x3e3f63ae	0.18690369
121	0x3f048bf4	0.5177605
122	0x3f067af7	0.5253138
123	0x3e8f5294	0.2799269
124	0x3dcd8209	0.10034568
125	0x3d3b2f05	0.04569914
126	0x3e9a37a9	0.3012059
127	0x3cd052cf	0.025430111
