code/backend/core/resources/ckpt_q_mv.pt (torch, 191853 bytes, 33 tensors)

weight f4 [128, 32]
0	0x3dbab326	0.09116201
1	0x3e2afb8c	0.1669752
2	0xbe2ab232	-0.16669539
3	0xbbdb6e76	-0.0066965176
4	0xbda7097d	-0.081561066
5	0xbe1b9cc9	-0.15196528
6	0xbd47ad0e	-0.048749022
7	0xbd7f973b	-0.062400084
8	0xbe28365f	-0.16426991
9	0xbbf0c39f	-0.0073475386
10	0xbaaa11ef	-0.0012975315
11	0x3dd9f366	0.10642128
12	0x3dc5ca6f	0.09657752
13	0x3e1f0395	0.1552871
14	0xbd416190	-0.047212183
15	0x3dacc421	0.08435846
16	0x3c50e1d2	0.012749152
17	0x3dd9a6a2	0.10627486
18	0xba2e984e	-0.00066602684
19	0xbd694fd1	-0.056960884
20	0xbdab2bc2	-0.083579555
21	0x3c15272a	0.009103576
22	0x3d5e495d	0.054269183
23	0xbe034c8e	-0.12822172
24	0xbe0a2d59	-0.13493861
25	0xbdcb8035	-0.09936563
26	0x3e219845	0.15780742
27	0x3d596f65	0.05308475
28	0x3ddecc2b	0.10878786
29	0x3c1882f8	0.009308569
30	0x3d109022	0.035293706
31	0x3ba831f8	0.00513291
32	0xbe2146fe	-0.15749738
33	0xbdf06995	-0.11738888
34	0xbdbdcdde	-0.09267782
35	0x3d4a91f2	0.04945559
36	0xbced8d51	-0.028998049
37	0xbbdcca1a	-0.0067379596
38	0xbde1ac30	-0.1101917
39	0x3e28ddba	0.16490832
40	0x3da96fd6	0.08273284
41	0x3e20cdf4	0.15703565
42	0x3e07d500	0.13264847
43	0x3bcbf8b9	0.0062247184
44	0x3cba0cf5	0.022711257
45	0x3d3b27d8	0.045692295
46	0x3ce970c3	0.028496152
47	0xbe098556	-0.1342977
48	0xbc123fee	-0.008926375
49	0x3a310bd2	0.00067537755
50	0x3d2acd51	0.04169971
51	0xbc9a5d84	-0.01884342
52	0xbad949ce	-0.0016577782
53	0x3d6ec162	0.058289893
54	0x3dd6d2f0	0.10489452
55	0x3c003c9e	0.007826952
56	0x39d3984c	0.00040358526
57	0xbe25f752	-0.16207626
58	0x3bb1523a	0.0054114135
59	0xbc06593a	-0.008199984
60	0x3e03dd5a	0.12877408
61	0xbdc948b1	-0.09828318
62	0xbc446738	-0.0119875
63	0xbe202e58	-0.15642679
64	0xb9d36da9	-0.0004032676
65	0xbda052c3	-0.078282855
66	0xbda2a718	-0.07942027
67	0x3d1307b6	0.035896026
68	0xbcccffe8	-0.02502437
69	0x3cb964aa	0.022631008
70	0xbe14b72d	-0.14523001
71	0xbc1bc73a	-0.0095079485
72	0x3bfbf4c6	0.0076890914
73	0x3cfba921	0.030720295
74	0x3e207836	0.15670857
75	0x3e016123	0.12634711
76	0x3d7504af	0.05981892
77	0xbe16710f	-0.14691566
78	0xbc0d6ce8	-0.008631922
79	0x3d90f68a	0.070782736
80	0xbcf487bb	-0.029849878
81	0x3e1b9d43	0.1519671
82	0xbe27ae3f	-0.16375063
83	0xbe1e84f5	-0.15480407
84	0x3e03043a	0.12794581
85	0x3da3da17	0.08000582
86	0xba69232c	-0.00088934856
87	0xbd6907e5	-0.056892294
88	0xbb90b117	-0.004415642
89	0xbd529c5a	-0.05141864
90	0x3bb6f901	0.005583883
91	0x3e099936	0.13437352
92	0x3baa40c5	0.0051957094
93	0x3e0399bc	0.12851614
94	0x3e051c93	0.12999181
95	0x3c9ba23f	0.018998263
96	0x39cc4210	0.00038959133
97	0x3d88f7cc	0.066878885
98	0x3da80a26	0.08205061
99	0xbd4c08bd	-0.04981302
100	0x3d8e63a2	0.06952597
101	0x3d8dd52a	0.069254234
102	0xbc06818c	-0.008209597
103	0x3deefef1	0.1166972
104	0xbdcb5224	-0.099277765
105	0x3e0a5c79	0.13511838
106	0x3e1b3da0	0.15160227
107	0x3bc37c4a	0.005965744
108	0xbd899c28	-0.067192376
109	0x3da99474	0.08280268
110	0x3d073a58	0.033014625
111	0xbdf202cd	-0.118169405
112	0xbd528c34	-0.05140324
113	0x3cf9df70	0.030502051
114	0x3e113abb	0.1418256
115	0xbd8c5012	-0.0685121
116	0x3e2179d7	0.15769134
117	0xbd45c788	-0.04828599
118	0xbc9af04a	-0.018913407
119	0x3d5491f0	0.05189699
120	0x3b1d0fb1	0.0023965652
121	0x3a4353d9	0.0007451154
122	0xbb90f3bc	-0.0044235867
123	0xbcb7797c	-0.022396795
124	0xbb815d7b	-0.0039479113
125	0xbd417dbe	-0.047239058
126	0xbddce615	-0.10786072
127	0x3c96f9f4	0.018429734
128	0x3e07f5f5	0.13277419
129	0x3d572926	0.052529477
130	0x3d3b0e65	0.045668025
131	0xbdce41d5	-0.1007115
132	0xbd89cda5	-0.06728677
133	0x3c2c7cda	0.010527814
134	0x3d5c0dfc	0.053724274
135	0xbe16a443	-0.14711098
136	0x3d9976ef	0.07493388
137	0xbd010611	-0.031499926
138	0xbd476358	-0.048678726
139	0x3c0fa03e	0.008766232
140	0x3e290fa4	0.16509873
141	0x3cfb5445	0.030679831
142	0xbc92d1c2	-0.017922286
143	0x3d8622c0	0.06549597
144	0x39b649c0	0.00034768693
145	0x3e28520e	0.16437551
146	0xbd5f4c31	-0.05451602
147	0xba1a306a	-0.0005881848
148	0xbb4e542e	-0.003148328
149	0xbc83c37c	-0.016084425
150	0x3ce97a7b	0.028500786
151	0xbd38afb8	-0.045089453
152	0xbad15a68	-0.0015972378
153	0xbd9547db	-0.07289096
154	0x3e0d4e81	0.13799478
155	0x3cb8b5e9	0.022547679
156	0x3dc7b61a	0.0975153
157	0x3dc313ff	0.09525298
158	0x3d881562	0.066447034
159	0xba51ded4	-0.0008005921
160	0xbb3225fe	-0.002718329
161	0x3e145fda	0.1448969
162	0xbde205e9	-0.110362835
163	0x3d50d531	0.050984565
164	0x3cc9dce9	0.024641471
165	0xbba1d3b0	-0.004938565
166	0xbbd10fe2	-0.006380067
167	0xbdfd8599	-0.12378997
168	0x3d866228	0.065616906
169	0xbd5fa410	-0.05459982
170	0x3c03d75e	0.008046953
171	0xbcce255e	-0.025164302
172	0xbe01c3d0	-0.12672353
173	0xbcb999cb	-0.022656342
174	0xbda386ae	-0.079846725
175	0xbd6822e5	-0.056673903
176	0xbdc1f800	-0.0947113
177	0xbb3f38aa	-0.0029178062
178	0xbb39c106	-0.002834381
179	0x3d32c90c	0.043648764
180	0xba5fb1e5	-0.0008533283
181	0x3d152fea	0.036422648
182	0x3d8cdb89	0.068778105
183	0xbdec2983	-0.11531355
184	0xbd88c349	-0.06677873
185	0xbd99082b	-0.07472261
186	0xbd50040b	-0.050785106
187	0x3d14315c	0.036179885
188	0xbda6b8f0	-0.08140743
189	0xbc1bea73	-0.009516346
190	0xbe27c352	-0.16383103
191	0x3e0a58dc	0.1351046
192	0xbc1a8b2f	-0.009432598
193	0x3e0aabba	0.13542071
194	0x3b702b38	0.0036646854
195	0xbe1b832b	-0.15186755
196	0xbc07ce1b	-0.0082888855
197	0x3d27996e	0.040917806
198	0xbd9ccc13	-0.076561116
199	0xbdbfdd22	-0.093683496
200	0x3dd1c415	0.10242478
201	0xbb228d60	-0.0024803504
202	0x3c1a7ae0	0.00942871
203	0xb9c28bd0	-0.00037106732
204	0x3c15c24f	0.009140565
205	0x3c13b229	0.009014645
206	0x3da502d8	0.08057183
207	0x3d9227da	0.07136507
208	0x3d608f99	0.054824445
209	0x3d92dd86	0.071711585
210	0xbba2b7a8	-0.004965741
211	0xbdecdd65	-0.11565665
212	0xbdb0f0c1	-0.0863967
213	0xbe16cfe0	-0.14727736
214	0xbc15f8d3	-0.009153563
215	0x3c16e2e6	0.00920937
216	0x3aecd7dc	0.0018069702
217	0x3af2e724	0.001853202
218	0xbe2a5b0c	-0.16636294
219	0xbb07765c	-0.0020669913
220	0x3b8f8123	0.004379408
221	0x3d09ce99	0.033644293
222	0x3d30e733	0.04318924
223	0xbd6345f8	-0.05548665
224	0xbe18de24	-0.1492849
225	0x3b95ab80	0.0045675635
226	0xbe1f91df	-0.15582989
227	0xbe0be259	-0.13660564
228	0x3d38235d	0.0449556
229	0xbc4a45c7	-0.012345738
230	0x3c916df7	0.01775263
231	0xbc180d45	-0.009280507
232	0xbb46653b	-0.003027274
233	0xbbedf4f8	-0.0072618686
234	0x3e07bd54	0.13255817
235	0x3d7bbefb	0.06146143
236	0xbc604c2e	-0.013690038
237	0xbbcd48fe	-0.006264805
238	0xbc7c2696	-0.015390059
239	0x3b45004c	0.0030059991
240	0x3b12510e	0.0022326144
241	0xbde070c5	-0.10959009
242	0xbc889044	-0.016670354
243	0xbcb0742f	-0.021539776
244	0xbda66f9d	-0.08126757
245	0xbc9a7d0f	-0.01885846
246	0xbb22dcea	-0.0024850913
247	0xbd1d24cc	-0.03836517
248	0x3e0ddf43	0.13854699
249	0xbdd27ed5	-0.102780975
250	0x3dd59c73	0.10430231
251	0x3b5dedef	0.0033863743
252	0xbb97e07d	-0.0046349154
253	0xbddbd3dc	-0.10733768
254	0xbcc8c930	-0.024509996
255	0xbad24579	-0.0016042433

weight f4 [4, 1, 3, 1]
0	0x3ee415ee	0.4454798
1	0xbf020836	-0.5079378
2	0x3f0556fd	0.5208586
3	0xbdd93450	-0.10605681
4	0xbe9cde21	-0.3063822
5	0x3e0e6180	0.13904381
6	0x3e8bffd2	0.27343613
7	0x3f2f0b57	0.6837668
8	0x3f10bafb	0.5653531
9	0x3ed885f6	0.42289704
10	0x3ee59d32	0.44846493
11	0x3e97c656	0.29643506

bias f4 [4]
0	0x3ea6bcea	0.32566005
1	0xbf0d012d	-0.5507992
2	0xbead9454	-0.33902228
3	0xbea0e856	-0.31427258

weight f4 [4]
0	0x3f800000	1.0
1	0x3f800000	1.0
2	0x3f800000	1.0
3	0x3f800000	1.0

bias f4 [4]
0	0x00000000	0.0
1	0x00000000	0.0
2	0x00000000	0.0
3	0x00000000	0.0

running_mean f4 [4]
0	0x00000000	0.0
1	0x00000000	0.0
2	0x00000000	0.0
3	0x00000000	0.0

running_var f4 [4]
0	0x3f800000	1.0
1	0x3f800000	1.0
2	0x3f800000	1.0
3	0x3f800000	1.0

weight f4 [1, 4, 3, 1]
0	0x3e1fd8f6	0.15610108
1	0x3d8e60c0	0.06952047
2	0xbe27c2f0	-0.16382957
3	0x3e996965	0.29963222
4	0x3e335cf2	0.17515925
5	0xbdbf9ba4	-0.09355858
6	0x3dbdb86c	0.09263691
7	0x3e647bd6	0.22312865
8	0x3e5bb84a	0.2145702
9	0x3d9a3264	0.075291425
10	0x3e6bdf3a	0.23034373
11	0xbeb2b7e7	-0.3490593

weight f4 [16, 1, 3, 1]
0	0xbe1f397b	-0.15549271
1	0x3eade8ed	0.3396677
2	0x3ebae1ad	0.36500302
3	0xbf0e19a9	-0.55507904
4	0x3f08d36c	0.53447604
5	0xbe1f2ee7	-0.15545236
6	0x3e6d444a	0.23170581
7	0xba2ede20	-0.00066706724
8	0x3e2cbb52	0.16868332
9	0xbd496d0b	-0.049176257
10	0xbe9ad28d	-0.30238762
11	0x3e220112	0.15820721
12	0x3e2a3da8	0.16625082
13	0x3f0b5019	0.54419094
14	0x3d9412dd	0.072301604
15	0xbe7bc9a7	-0.24588643
16	0xbeb2348e	-0.3480572
17	0x3e94882a	0.29010135
18	0xbf0bdeb4	-0.54636693
19	0x3ca7569e	0.020427044
20	0x3db9043c	0.09034011
21	0xbed95106	-0.42444628
22	0xbc8cf42f	-0.01720628
23	0x3eb3711f	0.35047242
24	0x3d0814a8	0.033222824
25	0x3f0fff09	0.5624853
26	0xbf058ab6	-0.5216478
27	0xbab8066c	-0.001404
28	0xbe42e420	-0.19032335
29	0x3d13beb9	0.03607056
30	0x3d802752	0.062575
31	0x3e87b2e2	0.26503664
32	0xbe9c62ec	-0.3054422
33	0xbe820a7b	-0.2539862
34	0x3e6889ff	0.22708891
35	0xbf0acbe7	-0.5421738
36	0x3eda01e0	0.42579556
37	0x3f046832	0.5172149
38	0xbe940127	-0.2890713
39	0xbeaa30ff	-0.33240506
40	0xbd0544c3	-0.03253628
41	0xbe2c3d3d	-0.16820236
42	0x3c8adfef	0.016952483
43	0xbddaf733	-0.10691681
44	0x3e7045fd	0.23464198
45	0xbee93f94	-0.4555632
46	0x3d3c7490	0.0460096
47	0x3e0cf970	0.13767028

bias f4 [16]
0	0xbe9dc149	-0.30811527
1	0xbdb6303c	-0.08895919
2	0x3e4f017c	0.2021541
3	0xbf08e90b	-0.53480595
4	0x3e65f8ed	0.22458239
5	0x3f07f678	0.53110456
6	0xbf157a5a	-0.5838982
7	0xbef093a2	-0.46987635
8	0xbe08fee6	-0.13378486
9	0x3f00290e	0.50062644
10	0x3e7327dc	0.23745674
11	0x3ded8069	0.11596758
12	0x3d9538a8	0.07286197
13	0xbeb0dda0	-0.34544086
14	0xbf0dc3fb	-0.5537717
15	0xbeb76609	-0.35820034

weight f4 [16, 1, 3, 1]
0	0xbf070ba8	-0.5275216
1	0xbe848376	-0.25881547
2	0x3e541e26	0.20714626
3	0x3e81169d	0.25212565
4	0xbda9b7ca	-0.08287008
5	0xbc98851c	-0.018618159
6	0x3c78845d	0.015168277
7	0xbef7f3a3	-0.48428068
8	0xbec7c007	-0.39013693
9	0x3f07b4e6	0.53010404
10	0xbeebf17e	-0.4608268
11	0x3ecf5572	0.40494877
12	0xbe7ae42d	-0.24501105
13	0x3d24e25e	0.040254943
14	0x3e2e8e15	0.17046387
15	0x3d529c30	0.051418483
16	0xbd0b85c4	-0.034063116
17	0xbe8051f9	-0.2506254
18	0x3e8655f1	0.26237443
19	0xbd7ed865	-0.06221809
20	0xbe71cbe8	-0.2361294
21	0x3ee798dc	0.4523381
22	0xbe9909e8	-0.2989037
23	0xbc2b9e3a	-0.010474736
24	0xbf07fde8	-0.53121805
25	0xbed76470	-0.42068815
26	0x3e93c661	0.2886229
27	0x3f0cc0f2	0.5498191
28	0x3f071b75	0.5277627
29	0xbd37175f	-0.044700023
30	0xbd4991cc	-0.04921131
31	0x3d885658	0.06657094
32	0xbe8dd4e3	-0.27701482
33	0xbe832020	-0.25610447
34	0xbece9fed	-0.4035639
35	0x3eae66f9	0.34062937
36	0x3ea7c280	0.3276558
37	0xbe6c0831	-0.2305
38	0xbee27dd0	-0.44236612
39	0xbe75670b	-0.23965089
40	0x3e9eab02	0.30989844
41	0x3eff7301	0.4989243
42	0x3ea412a6	0.32045478
43	0xbebb2d72	-0.3655811
44	0xbe40bfe4	-0.188232
45	0xbef21820	-0.4728403
46	0x3de250b7	0.110505514
47	0xbef29cd1	-0.47385266

bias f4 [16]
0	0xbd976117	-0.07391565
1	0xbe943967	-0.28950045
2	0x3e767c97	0.24070965
3	0x3eea07db	0.45709118
4	0x3f067bd1	0.5253268
5	0xbe7cbce7	-0.24681436
6	0x3ede1e0a	0.43382293
7	0x3ced398f	0.02895811
8	0x3e403eb6	0.18773922
9	0x3e0caf20	0.1373868
10	0xbd7a442d	-0.061100174
11	0xbe9b690f	-0.3035359
12	0xbe974496	-0.29544514
13	0xbea7c69c	-0.32768714
14	0xbe1f8f2e	-0.15581962
15	0xbea7a07b	-0.32739624

weight f4 [1, 16, 1, 1]
0	0xbd73524d	-0.05940466
1	0x3e3ed4fb	0.18635933
2	0xbcebac4d	-0.028768683
3	0x3dc485fb	0.09595867
4	0x3e1eb05b	0.15496962
5	0x3b5fb63d	0.0034135722
6	0x3d97dc49	0.07415063
7	0x3dcf6208	0.1012612
8	0x3e4e544b	0.20149343
9	0xbdbcfc30	-0.092277884
10	0xbe075033	-0.13214187
11	0x3e2a1784	0.16610533
12	0xbddc7776	-0.10764973
13	0xbe602412	-0.2188876
14	0x3e527605	0.20552833
15	0x3d7b552e	0.06136053

weight f4 [282, 32]
0	0x3d68a79c	0.05680047
1	0xbcef4202	-0.02920628
2	0xbe146144	-0.14490229
3	0xbd066ba2	-0.03281749
4	0xbdcd035e	-0.10010408
5	0x3d870c36	0.06594126
6	0xbe62799c	-0.22116703
7	0xbe368ca1	-0.17827083
8	0x3ce95226	0.028481554
9	0x3dc6b65c	0.09702751
10	0xbdffec11	-0.12496198
11	0x3daa8d68	0.08327752
12	0x3e288b86	0.16459474
13	0xbdd0bece	-0.10192643
14	0x3dda0822	0.106460825
15	0xbd0b5dc2	-0.03402496
16	0xbd98db27	-0.07463675
17	0xbc95ea67	-0.018300248
18	0x3deef937	0.11668628
19	0xbc0f4068	-0.008743383
20	0xbe0a0e86	-0.13482103
21	0x3c04ca1a	0.008104825
22	0x3dfc9b56	0.123343155
23	0x3deb318e	0.11484061
24	0xbc6b3f2f	-0.014358326
25	0x3da3ef0d	0.0800458
26	0xbd8e35de	-0.06943868
27	0x3e30f931	0.17282559
28	0xbd63da27	-0.05562797
29	0x3dbdc551	0.09266151
30	0x3e16da18	0.14731634
31	0xbdec862b	-0.11549028
32	0x3e23c831	0.15994336
33	0x3e05cd78	0.13066661
34	0x3e15351c	0.14571041
35	0x3dc3880e	0.09547435
36	0xbe19e023	-0.15026908
37	0x3dca41bd	0.0987582
38	0xbe2762f6	-0.16346344
39	0x3e265fea	0.16247526
40	0x3e26e8c3	0.16299729
41	0x3d7731ca	0.060350217
42	0xbdea76d3	-0.11448445
43	0xbe4dbda6	-0.20091876
44	0x3ddb8597	0.107188396
45	0x3e5acb4d	0.21366616
46	0x3e2fedff	0.17180632
47	0x3cf3594b	0.029705664
48	0xbd7f1d4a	-0.06228379
49	0x3daff244	0.085911304
50	0xbc09d2af	-0.008412047
51	0x3de103ae	0.1098703
52	0x3dd9ff90	0.10644448
53	0x3d7511d5	0.05983146
54	0xbd9c066c	-0.076184124
55	0x3d746985	0.059670944
56	0x3e09889e	0.13431022
57	0x3db27716	0.0871412
58	0xbce70c72	-0.028204177
59	0x3be6194e	0.0070220595
60	0x3d873d5f	0.066035025
61	0xbdce72f6	-0.10080521
62	0x3e096136	0.1341599
63	0xbe1768e7	-0.14786111
64	0x3dd32403	0.10309603
65	0xbd1d9ed0	-0.038481534
66	0xbd5229fa	-0.051309563
67	0xbbdc9b52	-0.006732383
68	0x3c0689e5	0.008211588
69	0x3aa356fe	0.0012461839
70	0x3e260789	0.16213812
71	0xbe236d49	-0.15959658
72	0x3e1fe859	0.15615977
73	0x3d505f71	0.05087227
74	0x3c28ccb4	0.010302711
75	0x3dd1228f	0.1021167
76	0xbc777640	-0.015103877
77	0x3d80c7db	0.062881194
78	0xbbc8c472	-0.0061269337
79	0x3e1f93ff	0.155838
80	0xba1f0720	-0.00060664304
81	0x3e00133c	0.12507337
82	0x3db6524f	0.08902418
83	0x3d65f834	0.056144908
84	0xbbc633f2	-0.006048673
85	0xbb9accbc	-0.0047241133
86	0x3d672320	0.056429982
87	0xbda3a6b5	-0.07990781
88	0xbdb7cc98	-0.0897457
89	0xbdea2f4f	-0.11434805
90	0x3d60b9d8	0.054864734
91	0xba94db22	-0.001135681
92	0xb9f2241c	-0.0004618474
93	0x3d827b0e	0.06371127
94	0xbe19f19e	-0.15033576
95	0x3b86fb02	0.004119278
96	0x3ddc9152	0.10769905
97	0xbd95f070	-0.073212504
98	0xbbf17112	-0.0073682154
99	0x3dce7157	0.100802116
100	0x3e27d650	0.16390347
101	0xbd9da4ec	-0.07697472
102	0x3d851715	0.06498543
103	0x3e19b9a2	0.1501222
104	0x3c6b09f8	0.014345638
105	0x3d964fd2	0.07339443
106	0xbc11377c	-0.008863326
107	0xbdb05e75	-0.08611766
108	0xbbd11af2	-0.006381386
109	0xbd941351	-0.07230247
110	0x3c2f93de	0.010716407
111	0x39f64ba7	0.00046977142
112	0xbdb39d7e	-0.087702736
113	0xbdc4acbc	-0.09603259
114	0x3bd28c75	0.006425435
115	0x3e2177ef	0.15768407
116	0x3a4b6b7e	0.0007759853
117	0xbd51415b	-0.05108772
118	0x3ab09aa6	0.0013473823
119	0xbcd4cffe	-0.025978085
120	0x3acc0ea8	0.0015568333
121	0x3dda47af	0.10658204
122	0x39eaf0a0	0.00044811238
123	0xbc1b0c02	-0.009463312
124	0xbc65932d	-0.01401214
125	0x3c0be982	0.008539559
126	0xba31e570	-0.0006786203
127	0xbdf45c27	-0.11931639
128	0xbe1a57b3	-0.15072517
129	0x3e0d6d32	0.13811186
130	0x3d998406	0.074958846
131	0xbd85b191	-0.06528009
132	0xbdaa37ad	-0.083114006
133	0x3e2312be	0.15925118
134	0x3e17dd2e	0.14830467
135	0xbd7cfbd6	-0.061763607
136	0xbd893795	-0.067000546
137	0xbe1a832a	-0.15089098
138	0x3d9f825e	0.077885374
139	0x3d9753da	0.0738904
140	0xbc7d92b6	-0.015476873
141	0xbd815dca	-0.06316717
142	0x3e4610ff	0.19342421
143	0x3e12f8e0	0.14352751
144	0x3d1be54b	0.038060468
145	0x3daef129	0.085420914
146	0xbe05f13d	-0.13080306
147	0xbe31e5e4	-0.17372853
148	0xbddcb615	-0.10776917
149	0xbd9477e6	-0.07249431
150	0x3e60e828	0.2196356
151	0xbddb7063	-0.107147954
152	0x3d5f34de	0.054493777
153	0x3e1435fe	0.14473721
154	0xbdb370a5	-0.087617196
155	0x3d93e2b1	0.07220972
156	0xbe2514f5	-0.16121276
157	0xbc9d4ded	-0.019202197
158	0xbd7e3ae6	-0.06206789
159	0x3d62dd9c	0.055387124
160	0xb88d8f00	-6.75004e-05
161	0x3bb74eb7	0.0055941003
162	0xbdcd10fa	-0.10013004
163	0xbdad6cbf	-0.08468007
164	0x3d1698dd	0.036766876
165	0x3d7a9814	0.06118019
166	0x3da2e6d2	0.07954182
167	0xbda20962	-0.07911946
168	0x3e0f1198	0.13971555
169	0x3db660a1	0.08905149
170	0xbdd1cd9f	-0.10244297
171	0x3dd75ae0	0.1051538
172	0xbafbf3d8	-0.0019222451
173	0xbe01d810	-0.12680078
174	0xbdf4e33e	-0.119574055
175	0x3da0d30e	0.078527555
176	0x3c5e135d	0.013554421
177	0xbe0c644c	-0.13710135
178	0x3e26e42a	0.16297975
179	0xbdc12494	-0.09430805
180	0xbe06a807	-0.13150035
181	0x3e219717	0.15780292
182	0xbd37022a	-0.0446798
183	0xbe039787	-0.12850772
184	0x3de9e800	0.114212036
185	0x3d92463b	0.07142302
186	0xbd999331	-0.07498778
187	0xbd811534	-0.06302872
188	0x3acf192b	0.0015800347
189	0xbdf1502e	-0.11782871
190	0xbcfb7bf4	-0.030698754
191	0x3ce1c3a3	0.027559107
192	0xbdb60e8e	-0.08889495
193	0x3d39b2b1	0.04533643
194	0xbc6ef720	-0.014585286
195	0xbe2fe63c	-0.17177671
196	0x3dfdbba8	0.12389308
197	0x3e1f75c3	0.15572266
198	0x3de64fe0	0.11245704
199	0x3d4e730a	0.05040268
200	0x3e2f1501	0.17097856
201	0xba3d9e64	-0.000723338
202	0x3e1dd9b1	0.15415074
203	0xbe1a9b1f	-0.15098237
204	0xbe06d0ea	-0.13165632
205	0xbe10863d	-0.14113708
206	0xbbb7bfc0	-0.005607575
207	0xbe3e5579	-0.18587293
208	0x3dcc3521	0.09971071
209	0x3e1b7a10	0.15183282
210	0xbcca24ed	-0.02467581
211	0xbe0b69c2	-0.13614562
212	0x3c057616	0.00814583
213	0x3af1fd4c	0.0018462329
214	0xbc308a99	-0.010775232
215	0xbd8f36f5	-0.06992904
216	0x3d90d03a	0.07070966
217	0xbe23cf38	-0.15997016
218	0x3e1b7464	0.15181118
219	0x3e178488	0.1479665
220	0xbd47924b	-0.0487235
221	0x3cd0cb7f	0.02548766
222	0x3e29f31f	0.1659665
223	0x3d3692c0	0.044573545
224	0x3e15cbb5	0.1462849
225	0xbe153b6a	-0.14573446
226	0xbde1f5b3	-0.110331915
227	0xbd0e4c84	-0.03474094
228	0xbd0da8fa	-0.034584977
229	0x3d9496e9	0.07255346
230	0xbc013d15	-0.007888098
231	0xbbf1b4cf	-0.0073762904
232	0xbd4a3fce	-0.049377255
233	0xbddb0938	-0.10695118
234	0xbe01efe1	-0.12689163
235	0x3d880994	0.06642452
236	0xbc2c1d70	-0.010505065
237	0x3ddf1f9c	0.10894701
238	0x3e0f13c0	0.13972378
239	0x3d2db0b1	0.042404834
240	0xbcd50a4d	-0.026005888
241	0xbdc1758a	-0.09446247
242	0xbaae6580	-0.0013305396
243	0x3e097384	0.13422972
244	0xbdba78b5	-0.09105054
245	0xbb02f812	-0.0019984287
246	0xbe216a48	-0.157632
247	0xbbd61a88	-0.0065339245
248	0x3dc56970	0.09639251
249	0xbdfc629e	-0.12323497
250	0x3db2c866	0.08729629
251	0x3b1f3114	0.0024290727
252	0x3e24ff73	0.16113071
253	0xbb0bc41d	-0.002132661
254	0xbd424a2a	-0.04743401
255	0xbbedb309	-0.0072540087

weight f4 [32, 32]
0	0xbe216672	-0.15761736
1	0xbd85b387	-0.06528383
2	0xbd881bff	-0.06645965
3	0x3e07ef9f	0.13275002
4	0xbc2f4ec4	-0.0106999315
5	0x3e499d63	0.19688945
6	0x3cb617c1	0.022228124
7	0xbe308556	-0.17238364
8	0x3e340b37	0.17582403
9	0xbe26e3b9	-0.16297807
10	0x3d102225	0.035188813
11	0xbd62ac10	-0.055339873
12	0xbe0af452	-0.13569763
13	0x3e382b1b	0.17985193
14	0x3c1b9648	0.009496279
15	0x3e2c38f6	0.16818604
16	0xbcc98430	-0.024599165
17	0xbdbd22fd	-0.09235189
18	0x3e6701cf	0.22559284
19	0xbcf8a8d8	-0.030353948
20	0xbe19868b	-0.1499273
21	0x3d8dda63	0.069264196
22	0x3db50987	0.08839708
23	0xbd9f44c4	-0.07776788
24	0x3d03549c	0.03206311
25	0x3e11ef15	0.14251359
26	0x3e2267bb	0.15859883
27	0x3dfcb286	0.12338738
28	0x3c5151fa	0.012775892
29	0xbbe4d648	-0.006983552
30	0xbdf46fa3	-0.119353555
31	0xbe2d865c	-0.16945785
32	0x3e2e5d9c	0.17027897
33	0xbd17f0c3	-0.037094843
34	0xbde6676a	-0.112501934
35	0xbe6a9adc	-0.22910637
36	0xbe000afb	-0.12504189
37	0xbe309b2b	-0.17246692
38	0xbc4e2420	-0.012581855
39	0x3d965a33	0.07341423
40	0x3d9abf5c	0.0755603
41	0xbe29c00a	-0.16577163
42	0x3e4ba294	0.19886237
43	0x3e080cb8	0.13286102
44	0xbc185a34	-0.00929885
45	0xbe07e4ef	-0.13270925
46	0x3d52da36	0.051477633
47	0xbd8d52fd	-0.069005944
48	0xbe4a7b14	-0.19773513
49	0xbe4a11ea	-0.19733396
50	0x3d741509	0.059590373
51	0x3b33eab8	0.0027453136
52	0xbe4581b2	-0.19287756
53	0xbd5eb670	-0.054373205
54	0xbc818b07	-0.015813364
55	0xbe26dcfd	-0.16295238
56	0xbdcc9786	-0.09989838
57	0xbe46768b	-0.19381158
58	0x3de42839	0.11140484
59	0x3ddfced9	0.10928125
60	0x3d22d2fc	0.03975199
61	0xb8c58660	-9.418721e-05
62	0xbe0efb53	-0.1396306
63	0x3d40ceba	0.04707215
64	0xbd22bf44	-0.039733186
65	0xbe4d386a	-0.20041052
66	0x3e39bb7c	0.18137926
67	0x3e435647	0.19075881
68	0xbe2150b3	-0.1575344
69	0xbdff9c1d	-0.12480948
70	0x3e538347	0.20655547
71	0x3c5e5b0c	0.013571512
72	0xbe4eec0d	-0.20207234
73	0x3e29c886	0.165804
74	0xbe3d7f84	-0.18505675
75	0xbe58083f	-0.21096896
76	0x3d51c0bd	0.0512092
77	0x3e31ec15	0.17375214
78	0x3e17ea06	0.14835367
79	0x3d1d5595	0.038411696
80	0x3e3384d1	0.17531134
81	0x3e295a15	0.1653827
82	0x3e12870e	0.14309332
83	0x3e3b7bff	0.1830902
84	0x3dfede10	0.12444699
85	0x3e504e30	0.20342326
86	0x3cdc3de0	0.026884973
87	0xbe3bd06d	-0.18341227
88	0x3d8bf5e8	0.06834012
89	0x3d59c256	0.05316385
90	0xbca59325	-0.020211766
91	0x3dacf0f4	0.08444396
92	0x3e0852a1	0.1331277
93	0x3b39185d	0.0028243281
94	0xbde5b972	-0.112170115
95	0x3e42f212	0.19037655
96	0x3d4fff44	0.05078055
97	0xbb1d4b3b	-0.002400114
98	0xbe5a8299	-0.21338882
99	0xbdec7665	-0.115460195
100	0x3e48011a	0.1953167
101	0xbdbd22a8	-0.09235126
102	0xbe22162e	-0.15828773
103	0xbe3457b3	-0.1761158
104	0xbdf61606	-0.120159194
105	0xbc13246c	-0.008980852
106	0x3e0a22cb	0.13489835
107	0xbdc6eb9b	-0.09712907
108	0xbd3a1abc	-0.045435652
109	0xbdb24b8d	-0.087058164
110	0xbd89ca2e	-0.06728016
111	0xbde97c2c	-0.11400637
112	0xbe0eefc6	-0.13958654
113	0xbe00709d	-0.12542959
114	0xbe45d477	-0.1931933
115	0xbe37e2d3	-0.1795762
116	0xbda6a38e	-0.08136664
117	0xbe44cdfa	-0.19219199
118	0xbe6d2cf5	-0.23161681
119	0xbe0a0d26	-0.13481578
120	0x3dcc0205	0.09961323
121	0xbe2663cc	-0.16249007
122	0xbdedf2a8	-0.11618549
123	0xbc9d3b76	-0.019193392
124	0x3c9a44c8	0.018831626
125	0xbe35b2b0	-0.17743945
126	0x3d33d4ab	0.043903988
127	0x3b9f1a37	0.00485542
128	0x3d3b6c8f	0.045757826
129	0xbe0218a6	-0.12704715
130	0x3e23e29c	0.16004413
131	0xbde898d5	-0.113572754
132	0xbd257978	-0.040399045
133	0x3df5fbac	0.12010893
134	0x3dfc3844	0.12315419
135	0x3cb22b6c	0.02174922
136	0x3e191d26	0.14952525
137	0xbd367698	-0.044546694
138	0x3dc6d59d	0.09708712
139	0x3c94e8a0	0.01817733
140	0x3ae96fae	0.0017809772
141	0x3c885adc	0.016644888
142	0xbccb317f	-0.024803875
143	0x3da04841	0.07826281
144	0xbd8461ee	-0.06463991
145	0x3dcefabe	0.10106419
146	0xbd1e6525	-0.038670678
147	0xbdb7e4eb	-0.089792095
148	0x3c2a9aa4	0.010412846
149	0xbbed605a	-0.007244152
150	0x3e1d3399	0.15351714
151	0x3c95c159	0.018280672
152	0x3e2e5bfd	0.17027278
153	0xbd8c3ac2	-0.06847145
154	0xbd69046a	-0.056888975
155	0x3d29a6f6	0.041418992
156	0xbe608e73	-0.2192934
157	0xbde6927d	-0.11258409
158	0x3d70afb6	0.05876132
159	0xbd87bd75	-0.06627933
160	0xbde3a2e3	-0.111150526
161	0xbe53c598	-0.20680845
162	0xbdf763af	-0.1207956
163	0xbc9b805e	-0.018982109
164	0x3e639143	0.22223382
165	0x3d0b4572	0.034001775
166	0x3dd45120	0.10367036
167	0x3d3bd5b3	0.045858096
168	0x3d62609c	0.055267915
169	0x3e1a0992	0.15042713
170	0x3e152e4a	0.14568439
171	0xbe2876d7	-0.16451584
172	0xbe26b5c0	-0.1628027
173	0xbc8ed5c0	-0.017435908
174	0x3d7baf7a	0.061446644
175	0xbe169187	-0.14703952
176	0xbe52a76b	-0.20571677
177	0xbdde525e	-0.10855554
178	0x3df0e034	0.11761513
179	0xbdd50215	-0.10400788
180	0x3e682937	0.22671972
181	0xbc5df7e2	-0.013547869
182	0x3bf1003e	0.007354765
183	0x3e4de92a	0.20108476
184	0x3daf18d4	0.085496575
185	0xbe17ee84	-0.1483708
186	0xbcd44018	-0.025909469
187	0xbe0aa24f	-0.13538478
188	0xbca4307a	-0.020042647
189	0xbe21b45a	-0.15791455
190	0xbe31f34b	-0.17377965
191	0xbe34c646	-0.1765376
192	0xbdf0d5d4	-0.117595345
193	0x3e737d9f	0.2377839
194	0x3d99a38e	0.07501899
195	0x3dc8a39a	0.097968295
196	0xbe654dd7	-0.22392975
197	0xbd043090	-0.032272875
198	0x3d23918b	0.039933722
199	0xbe161382	-0.14655879
200	0xbd2f7146	-0.042832635
201	0xbd48b415	-0.048999865
202	0x3d733f14	0.059386328
203	0xbcabde4d	-0.020980025
204	0xbd208d80	-0.039197445
205	0xbd4db20c	-0.050218627
206	0xbb97db11	-0.004634269
207	0x3ceae966	0.028675746
208	0x3d816eaf	0.06319939
209	0x3d79c236	0.06097623
210	0xbdf7d1ed	-0.12100587
211	0x3db5e0f8	0.088808
212	0x3da5455c	0.0806987
213	0x3e5939bd	0.21213432
214	0xbe0290fb	-0.12750618
215	0xbe57bb93	-0.21067648
216	0x3dcec3d2	0.100959435
217	0x3ce56428	0.02800186
218	0xbdc146ff	-0.094373696
219	0x3c503552	0.012708025
220	0x3d6286ac	0.055304214
221	0xbdf4a9cb	-0.11946448
222	0x3e254806	0.16140756
223	0xbc9cf049	-0.019157546
224	0x3e6b4e93	0.22979192
225	0x3e3ff406	0.18745431
226	0x3e186b6a	0.14884725
227	0x3e3d0ba8	0.18461478
228	0xbdb25e14	-0.0870935
229	0x3c37a453	0.011208612
230	0x3c7e0250	0.015503481
231	0x3d164113	0.036683153
232	0xbd996f88	-0.07491976
233	0xbe4fd1f4	-0.20294935
234	0x3e437419	0.19087256
235	0x3de67036	0.11251871
236	0x3ded82e6	0.115972325
237	0x3e61df1d	0.22057767
238	0x3d970d7a	0.07375617
239	0xbd0b6de2	-0.03404034
240	0x3e3e9da4	0.18614823
241	0xbdfe6f40	-0.12423563
242	0xbe439740	-0.19100666
243	0x3db30ad1	0.087422974
244	0xbd6d2d1d	-0.05790435
245	0xbe1719d4	-0.14755946
246	0x3d33ab7b	0.04386471
247	0x3d95b46c	0.07309803
248	0x3c5f94c5	0.013646309
249	0x3e346a66	0.17618713
250	0xbde83dcc	-0.11339912
251	0x3e5f0fdf	0.21783398
252	0x3dbb852c	0.0915626
253	0x39820ca0	0.0002480494
254	0x3e2d0b7a	0.16898909
255	0x3e0a8306	0.13526544

bias f4 [32]
0	0x3e3e7cdd	0.18602319
1	0xbdb52c1d	-0.088463046
2	0xbc1ea8b2	-0.009683775
3	0x3da1d35c	0.07901642
4	0x3dcf2a3b	0.10115477
5	0xba5e6ca8	-0.0008484819
6	0x3d822fd5	0.063567795
7	0xbcc13222	-0.023583476
8	0x3de62c15	0.11238877
9	0x3c64368f	0.013929023
10	0xbe1352a4	-0.14386994
11	0xbac65d8a	-0.0015134078
12	0x3c865c53	0.016401445
13	0x3e4840bc	0.19555944
14	0x3d2d32cf	0.042284783
15	0xbe1c413a	-0.15259257
16	0x3dd999ea	0.1062506
17	0x3de5c89e	0.11219905
18	0xbdda59b1	-0.106616385
19	0x3e20d5ac	0.1570651
20	0x3d1ca86e	0.038246565
21	0xbd5aab22	-0.05338586
22	0x3d91f6f2	0.07127179
23	0xbc85e17f	-0.016342876
24	0x3e1b322d	0.1515586
25	0xbdb264e9	-0.08710653
26	0x3da42740	0.08015299
27	0x3e4f6cc4	0.20256335
28	0xbd843ee0	-0.06457305
29	0x3dae3564	0.08506277
30	0x3d9fe0d0	0.078065515
31	0x3e2ee593	0.17079763

weight_ih_l0 f4 [128, 32]
0	0xbe38b901	-0.18039323
1	0x3d462435	0.048374373
2	0x3ddbdbd7	0.107352905
3	0x3db0bfad	0.08630309
4	0xbd2d0ab3	-0.04224653
5	0xbe4549e2	-0.19266465
6	0xbb8c8a61	-0.004288957
7	0xbc94f891	-0.018184932
8	0xbdd86516	-0.105661556
9	0xbe347cba	-0.17625704
10	0x3db55e09	0.088558264
11	0xbdf54140	-0.11975336
12	0xbe0a6e37	-0.13518606
13	0x3ddbf7b0	0.10740602
14	0xbe34f6b4	-0.17672235
15	0x3dfda6e7	0.1238535
16	0xbdbc3734	-0.09190217
17	0x3cd5f290	0.02611664
18	0xbc829304	-0.015939243
19	0x3ba8030e	0.0051273173
20	0xbe1605b9	-0.1465062
21	0xbccfa026	-0.02534492
22	0x3db55602	0.08854295
23	0x3e029cde	0.12755153
24	0xbe3bb8ad	-0.18332167
25	0xbe27af5f	-0.16375493
26	0xbda2e980	-0.07954693
27	0x3d9f9032	0.07791175
28	0x3d9bcd07	0.07607465
29	0xbe33d7e0	-0.17562819
30	0xbdb0fe5c	-0.08642265
31	0xbceed31e	-0.029153403
32	0x3dc0c671	0.0941285
33	0xbe0d84d5	-0.13820203
34	0x3daeada1	0.08529211
35	0xbde64d41	-0.11245204
36	0x3ddb4175	0.10705844
37	0x3d8dd78c	0.06925878
38	0x3c9a63fa	0.0188465
39	0x3dc4451d	0.09583495
40	0x3c43e2c1	0.011955918
41	0x3db68469	0.08911974
42	0x3d493331	0.049121086
43	0xbccf4346	-0.025300633
44	0xbdd5ac0e	-0.104332075
45	0x3bb64a2b	0.0055630407
46	0x3e249818	0.16073644
47	0x3d07aedb	0.03312574
48	0xbdf7b9ca	-0.12095983
49	0xbd77a146	-0.060456537
50	0xbdac50ef	-0.08413874
51	0xbe1a33b7	-0.1505879
52	0x3e1a76df	0.15084408
53	0x3d7967de	0.06089007
54	0xbd64a400	-0.055820465
55	0xbe101534	-0.14070588
56	0x3ccb805c	0.02484148
57	0xbde0f415	-0.10984055
58	0x3e346327	0.17615949
59	0xbd9a686e	-0.0753945
60	0x3e05a951	0.1305287
61	0x3df72406	0.12067418
62	0xbe07d4c2	-0.13264754
63	0xbe07252f	-0.13197778
64	0xbdc997e6	-0.098434255
65	0x3dcd310d	0.10019121
66	0xbca380d9	-0.0199589
67	0x3dacdd41	0.08440638
68	0xbd6351c6	-0.055497907
69	0xbbb06d41	-0.005384118
70	0xbd3eeecd	-0.046614457
71	0x3d0bc687	0.034124877
72	0xbd038877	-0.032112565
73	0xbe2431e6	-0.1603466
74	0xbd8b46d3	-0.06800618
75	0xbddff713	-0.109357975
76	0xbdfbd623	-0.12296703
77	0x3e15c415	0.1462558
78	0x3d3ce679	0.046118233
79	0xbddd38c5	-0.108018436
80	0xbdaee73d	-0.08540199
81	0x3de37058	0.11105412
82	0x3c5c9efc	0.013465639
83	0xbde31502	-0.11087991
84	0xbdae28cf	-0.08503877
85	0x3d8aca02	0.06776811
86	0xbd74392d	-0.05962484
87	0x3d7d3730	0.06182021
88	0xbda76593	-0.081736706
89	0x3df2510b	0.11831864
90	0xbe033d73	-0.1281641
91	0xbd38578a	-0.04500536
92	0xbda0a089	-0.0784312
93	0xbdb1a0de	-0.08673261
94	0x3e247dd0	0.16063619
95	0xbdc94144	-0.098269016
96	0x3d96207d	0.073304154
97	0x3e0f424d	0.13990135
98	0xbd88d306	-0.066808745
99	0x3d2e91ec	0.04261963
100	0xbe12ca00	-0.1433487
101	0xbdf42b5e	-0.11922334
102	0x3ca1ca1c	0.019749694
103	0xbdfc49af	-0.123187415
104	0xbccc80fb	-0.024963846
105	0x3e087916	0.1332744
106	0x3d1c1e96	0.038115107
107	0x3d337758	0.043814987
108	0xbdf88a3c	-0.12135741
109	0xbe22e4e4	-0.15907627
110	0xbc9ca4b1	-0.0191215
111	0xbe088fb6	-0.13336071
112	0xbdedc847	-0.116104655
113	0x3a6102bc	0.00085834763
114	0xbdda8e72	-0.106717005
115	0xbe03bbf1	-0.12864663
116	0x3da1f20e	0.079074964
117	0xbdae39c0	-0.08507109
118	0x3da762b6	0.081731245
119	0xbe2a5a06	-0.16635904
120	0x3cf13362	0.029443447
121	0x3dd66edd	0.10470364
122	0xbbaef090	-0.005338736
123	0x3e0fb738	0.14034736
124	0x3d26ed6b	0.040753763
125	0xbe204aac	-0.15653485
126	0xbd9174f1	-0.07102383
127	0xbe1014df	-0.14070462
128	0xbcd7e9d6	-0.026356619
129	0xbdd10b00	-0.10207176
130	0x3e15c237	0.14624868
131	0xbcb33c97	-0.021879477
132	0xbe33ce3e	-0.17559144
133	0xbd246576	-0.040135823
134	0x3de047b5	0.10951177
135	0xbde6c813	-0.1126863
136	0xbdd88bad	-0.10573516
137	0xbdc805f9	-0.09766764
138	0xbe1c9794	-0.15292197
139	0xbd4ec3e2	-0.050479777
140	0xbd71d07d	-0.05903672
141	0xbe214147	-0.15747558
142	0x3db8f565	0.0903118
143	0x3d3bee1f	0.045881387
144	0xbe31a688	-0.17348683
145	0xbd95e564	-0.073191434
146	0xbe3df0b4	-0.18548852
147	0x3df758ad	0.120774604
148	0x3d70c2a9	0.058779392
149	0xbd20d235	-0.03926297
150	0xbc39d179	-0.011341446
151	0xbd42e930	-0.047585666
152	0xbcf5225b	-0.029923609
153	0x3d0e4ba2	0.034740098
154	0xbd4a70cc	-0.049423978
155	0x3df4895a	0.1194026
156	0xbdbb12f9	-0.09134478
157	0x3c8e2629	0.01735218
158	0x3ddd9968	0.108202755
159	0x3db37988	0.087634146
160	0x3e39c8c0	0.18142986
161	0x3e178c70	0.14799666
162	0xbd77369c	-0.060354814
163	0x3cb441d2	0.022004042
164	0xbd32dd10	-0.043667853
165	0xbda55816	-0.08073442
166	0x3e1b6b6a	0.15177694
167	0xbde49250	-0.111607194
168	0xbd63aab1	-0.055582706
169	0xbe2131b6	-0.1574162
170	0xbde6a2fe	-0.11261557
171	0x3d42817d	0.04748677
172	0x3d8cd4f7	0.06876557
173	0x3e3871ea	0.18012205
174	0x3b4aa333	0.0030920028
175	0x3e1f9d26	0.15587291
176	0xbd341d68	-0.043973356
177	0x3e486219	0.19568671
178	0x3d891122	0.06692721
179	0xbb6b6750	-0.0035919733
180	0xbdda2293	-0.10651126
181	0xbd960134	-0.07324448
182	0x3e102861	0.14077903
183	0xbdc7683e	-0.097366795
184	0xbd188f94	-0.0372463
185	0x3daa9a05	0.08330158
186	0xbdb5a08e	-0.08868514
187	0x3dad10ea	0.08450492
188	0xbe315803	-0.1731873
189	0xbe045b44	-0.1292544
190	0x3df2eec5	0.11861948
191	0x3ca3f946	0.020016324
192	0x3e0551c3	0.13019471
193	0x3dd2eebf	0.102994435
194	0xbd6d9230	-0.058000743
195	0xbdb6f1a1	-0.08932806
196	0x3e26cc2b	0.16288821
197	0x3d817def	0.06322848
198	0x3df0a741	0.11750651
199	0xbe0b906d	-0.13629313
200	0xbd87d0f0	-0.066316485
201	0xbe36355c	-0.17793792
202	0xbe2255e6	-0.1585308
203	0xbc8a5f5b	-0.016891172
204	0xbde114dd	-0.109903075
205	0xbdb19128	-0.086702645
206	0xbe173663	-0.1476684
207	0xbcda4afa	-0.02664708
208	0x3d636fda	0.05552659
209	0x3e0e1810	0.13876367
210	0xbe0c84d5	-0.13722546
211	0x3d83b83d	0.06431625
212	0xbcdda696	-0.027056973
213	0xbd5878d4	-0.052849606
214	0xbdd6b197	-0.10483091
215	0x3e0a5219	0.1350788
216	0x3d8eee90	0.06979096
217	0xbe18e593	-0.14931326
218	0x3e02da70	0.1277864
219	0x3e3cca48	0.18436539
220	0x3c395108	0.011310823
221	0xbd952fa8	-0.0728448
222	0x3c227585	0.009915714
223	0x3e3c40d7	0.1838411
224	0x3df72334	0.12067261
225	0x3dca51e8	0.098789036
226	0x3bc018be	0.0058623245
227	0xbc72a4e4	-0.014809821
228	0xbe268002	-0.16259769
229	0xbde13615	-0.109966435
230	0xbd745266	-0.059648894
231	0xbd7ca6c4	-0.061682478
232	0xbc66d8d2	-0.01408978
233	0x3d5d5e9c	0.054045305
234	0x3db5ce1f	0.08877205
235	0x3c142b98	0.009043597
236	0xbe2d6d9d	-0.16936345
237	0xbd801020	-0.062530756
238	0x3db5ea3e	0.08882569
239	0x3e15fc5c	0.14647049
240	0x3e044417	0.12916599
241	0xbdf82ad0	-0.12117541
242	0xbce9591a	-0.02848487
243	0x3d87b3f4	0.0662612
244	0xbdd35dc2	-0.10320617
245	0xbd45749e	-0.048206918
246	0xbdb36c94	-0.08760944
247	0x3e03d390	0.12873673
248	0x3c84054e	0.01611581
249	0x3e2eb33e	0.17060563
250	0x3d8f2840	0.06990099
251	0xbd890283	-0.06689932
252	0xbc061a96	-0.0081850495
253	0xbca3d853	-0.020000612
254	0x3ce6af60	0.028159797
255	0xbe0eb7c0	-0.13937283

weight_hh_l0 f4 [128, 32]
0	0xbcff2c64	-0.031149097
1	0x3e00ed8f	0.12590621
2	0x3d639b9d	0.055568326
3	0xbd567e12	-0.052366324
4	0xbda85ee4	-0.08221224
5	0xbe19173c	-0.1495027
6	0x3d73e997	0.05954894
7	0x3aa3c532	0.0012494682
8	0xbdaced6b	-0.084437214
9	0x3cf44984	0.029820211
10	0xbe391aba	-0.18076602
11	0x3c4cce50	0.012500361
12	0x38c1cc20	9.2409784e-05
13	0x3db40354	0.08789697
14	0xbd4290c9	-0.04750136
15	0x3dec8ed4	0.1155068
16	0xbdd09b74	-0.101859
17	0xbde4acce	-0.111657724
18	0xbde80efc	-0.11330983
19	0xbd8787c1	-0.0661769
20	0xbd18f739	-0.037345145
21	0xbe03d0ba	-0.12872592
22	0x3d2e51bd	0.04255842
23	0xbd78e815	-0.060768206
24	0xbdc3674a	-0.09541185
25	0xbe0442a6	-0.1291605
26	0x3d1ee62c	0.038793728
27	0xbdc9143e	-0.09818314
28	0x3d99edec	0.07516083
29	0xbe130a74	-0.14359456
30	0x3d83ddc3	0.06438782
31	0xbe12d62f	-0.14339517
32	0xbbb29cde	-0.005450829
33	0x3dbc09ce	0.091815576
34	0xbc60f592	-0.0137304235
35	0xbde19313	-0.1101438
36	0xbda11991	-0.078662045
37	0x3e19ccf8	0.15019596
38	0xbd4e7536	-0.05040475
39	0x3ce053f1	0.027383776
40	0x3dbbb62e	0.091656074
41	0xbd789cec	-0.060696527
42	0x3e1e8f5b	0.15484373
43	0x3da9c765	0.082899846
44	0x3db78e6c	0.08962712
45	0x3dea9c52	0.11455597
46	0x3dcdf29d	0.100560404
47	0xbd30784b	-0.04308347
48	0xbe121b9d	-0.14268346
49	0x3d80d274	0.06290141
50	0x3d2c003a	0.041992404
51	0x3d9f9b60	0.07793307
52	0xbd9119ba	-0.07084985
53	0xbe1c00ee	-0.1523473
54	0x3e064515	0.1311229
55	0x3e0dfee3	0.13866763
56	0x3db97516	0.090555355
57	0xbd84083c	-0.06446883
58	0x3cbbc8ad	0.022922838
59	0xbe200c96	-0.15629801
60	0x3e275fe9	0.1634518
61	0xbd9ba971	-0.07600678
62	0xbce43854	-0.02785889
63	0x3e2515bf	0.16121577
64	0xbce4efb4	-0.02794633
65	0xbe1122da	-0.14173451
66	0x3df64822	0.12025477
67	0x3cddbfd8	0.027069017
68	0xbdd7aa02	-0.10530473
69	0xbd5be79e	-0.053687684
70	0xbded1dc7	-0.11577945
71	0xbd51b966	-0.0512022
72	0x3e49c148	0.19702637
73	0xbe0f6888	-0.1400472
74	0xbd410fe3	-0.04713429
75	0xbd4366ef	-0.047705587
76	0x3e07c8f7	0.13260256
77	0xbe08d66d	-0.13363047
78	0x3e47ce62	0.19512323
79	0xbd94c005	-0.07263187
80	0xbe10aedb	-0.14129202
81	0x3c3d214a	0.011543581
82	0xbe1864b1	-0.1488216
83	0xbe1c137a	-0.15241805
84	0xbe19091c	-0.14944881
85	0xbe069890	-0.13144135
86	0x3e3ffa0d	0.1874773
87	0xbde99b14	-0.11406532
88	0xbe317cdf	-0.17332791
89	0xbdadd1e3	-0.08487298
90	0x3e079a82	0.13242534
91	0x3d486bc1	0.048930887
92	0x3c8125e2	0.015765134
93	0x3db57427	0.08860045
94	0xbbd56698	-0.0065124743
95	0x3e136525	0.14394052
96	0x3df63fa9	0.12023861
97	0x3db691b7	0.08914512
98	0x3ae56220	0.0017500557
99	0x3dc32dcb	0.09530219
100	0x3e31c568	0.17360461
101	0x3d99523c	0.07486388
102	0xbd8f4d19	-0.06997127
103	0xbd477cc4	-0.04870297
104	0x3da06c6d	0.078331806
105	0xbe219e7f	-0.15783118
106	0x3e2f399a	0.17111817
107	0xbdd38d91	-0.10329736
108	0x3d15e489	0.0365949
109	0x3cd1da25	0.025616715
110	0x3db81352	0.0898806
111	0xbd917c56	-0.07103793
112	0x3e20eac2	0.15714553
113	0x3de8ed3b	0.11373373
114	0xbdb20525	-0.086923875
115	0xbe1d9efd	-0.1539268
116	0x3dc42bc8	0.09578663
117	0x3e0ea265	0.13929136
118	0xbdf4fd20	-0.11962342
119	0xbd90e286	-0.07074456
120	0xbdb75d2c	-0.08953318
121	0xbd0215f8	-0.031759232
122	0x3da005c4	0.078136
123	0xbde011af	-0.10940873
124	0xbe2cadf4	-0.16863233
125	0xbd2c108f	-0.04200798
126	0xbcfb96b4	-0.03071151
127	0x3d7e66d8	0.0621098
128	0x3d7ab6ae	0.061209373
129	0xbd2bb07c	-0.041916355
130	0xbe44bcc3	-0.19212632
131	0x3e122cf0	0.14274955
132	0x3d1b394e	0.037896447
133	0xbdbc4701	-0.091932304
134	0x3e1648a7	0.14676152
135	0x3e106321	0.14100315
136	0xbd769c25	-0.060207505
137	0x3e1531db	0.145698
138	0xbe366867	-0.17813264
139	0x3e0f479c	0.1399216
140	0xbd76712d	-0.060166527
141	0xbdc2273f	-0.09480142
142	0x3e45f969	0.19333424
143	0xba56e510	-0.0008197585
144	0x3df6ab9a	0.12044449
145	0x3d1d2124	0.038361683
146	0x3d42e018	0.047576994
147	0x3a9c9d5e	0.0011948755
148	0xbe2c240f	-0.1681063
149	0x3e0c9d64	0.13731915
150	0xbd7441d0	-0.059633076
151	0x3ce142e0	0.027497709
152	0xbca4ec19	-0.020132111
153	0x3e1a8f2b	0.15093677
154	0xbd9e0ab5	-0.07716886
155	0x3e14437d	0.1447887
156	0xbd61aca2	-0.055096276
157	0xbda2c9be	-0.079486355
158	0x3dea24b6	0.11432783
159	0x3cf42e46	0.029807221
160	0xbe0d3274	-0.13788778
161	0x3da80016	0.082031414
162	0x3db4d993	0.088305615
163	0xbddc3696	-0.10752599
164	0xbd8f651f	-0.07001709
165	0xbe2bd55f	-0.16780613
166	0x3c2e6ebc	0.010646518
167	0xbac7330c	-0.0015197708
168	0xbe05b77b	-0.13058273
169	0xbd573c9d	-0.05254804
170	0x3cdf869c	0.027285866
171	0x3d970b59	0.07375211
172	0x3e2ca217	0.16858707
173	0xbe023bfc	-0.12718195
174	0xbe13584b	-0.1438915
175	0xbd8d748b	-0.069069944
176	0xbdcfed2c	-0.10152659
177	0x3ce7c24d	0.028290892
178	0x3d51f66a	0.05126039
179	0xbcfcfa0a	-0.030880947
180	0xbdc41b02	-0.09575464
181	0xbbc565c8	-0.006024096
182	0xbe1af3a4	-0.15132004
183	0x3ccd246a	0.025041778
184	0xbd06e3c6	-0.032932065
185	0xbd60d470	-0.054890096
186	0xbe08b6b9	-0.13350953
187	0xbcd097ec	-0.025463067
188	0xbc426afb	-0.011866326
189	0x3d1cc6b8	0.03827545
190	0x3de805e3	0.11329248
191	0xbdcbf5c3	-0.09958985
192	0xbcefe4f6	-0.029283982
193	0x3d5ea211	0.054353777
194	0xbd17d60f	-0.037069377
195	0x3d3480da	0.044068195
196	0xbdcfe5b6	-0.10151236
197	0xbcd2a444	-0.025713094
198	0x3d672f8f	0.05644184
199	0xbd22a015	-0.039703447
200	0x3dc50126	0.0961936
201	0x3e01b747	0.12667571
202	0xbd646902	-0.055764206
203	0xbdb0508d	-0.08609114
204	0xbde2db34	-0.11076966
205	0x3e178b1c	0.1479916
206	0x3e39cf23	0.18145423
207	0xbd051938	-0.032494754
208	0x3d8d9c11	0.06914533
209	0xbd5082e3	-0.050906073
210	0xbe07fb4c	-0.13279456
211	0x3e169ba6	0.14707813
212	0x3db77442	0.08957721
213	0x3d4cdc53	0.050014805
214	0x3dd5c568	0.10438043
215	0xbdc39772	-0.0955037
216	0x3d1b60ae	0.037933998
217	0xbda77278	-0.0817613
218	0x3dd5fb66	0.10448341
219	0xbcc47c74	-0.023985125
220	0xbda2d33c	-0.07950446
221	0x3d3f068e	0.04663711
222	0xb8dd24e0	-0.0001054497
223	0xbcc9202e	-0.024551477
224	0xbd8a7f40	-0.06762552
225	0x3e001710	0.12508798
226	0xbd76c904	-0.060250297
227	0xbd0ccad0	-0.034373105
228	0xbd94219c	-0.07232973
229	0x3d9e375d	0.077254035
230	0x3e08f57c	0.13374895
231	0xbdfe3650	-0.12412703
232	0x3ddee72f	0.108839385
233	0x3a06a928	0.00051369006
234	0x3d6a0a92	0.057138987
235	0xbcb393be	-0.021921035
236	0xbd7b06ab	-0.061285656
237	0xbe16672f	-0.14687799
238	0xbd46285b	-0.04837833
239	0x3d23bf0e	0.039977126
240	0x3e42c037	0.19018637
241	0x3d9a1827	0.07524138
242	0x3dab86a0	0.08375287
243	0xbe1e71cf	-0.15473102
244	0xbcc8a653	-0.024493372
245	0x3deba912	0.11506857
246	0x3de3ca93	0.11122622
247	0x3dc390f4	0.09549132
248	0x3cf13436	0.029443841
249	0xbe01cdce	-0.12676165
250	0x3defa4ca	0.11701353
251	0xbd1f4531	-0.038884345
252	0xbcf6fb57	-0.030149145
253	0x3e18897f	0.148962
254	0xbe032dbf	-0.1281042
255	0x3c9c0c1d	0.019048745

bias_ih_l0 f4 [128]
0	0x3e42d27a	0.19025603
1	0x3dd68d35	0.10476152
2	0xbb128aac	-0.0022360487
3	0x3d246a4e	0.040140443
4	0x3cbae151	0.022812517
5	0xbdcd7ff1	-0.100341685
6	0x3df01e5c	0.117245406
7	0xbd28467d	-0.041082848
8	0xbdfd4010	-0.123657346
9	0xbd3b8706	-0.045783065
10	0xbd4a28bb	-0.04935525
11	0x3e38a41f	0.18031357
12	0x3e3563a9	0.17713799
13	0xbda0f952	-0.07860054
14	0xbe03a618	-0.12856328
15	0x3ce37f5a	0.027770687
16	0x3db56c95	0.08858601
17	0x3e1dff60	0.15429449
18	0x3d12f46d	0.035877634
19	0x3ca5d1ca	0.020241637
20	0x3e4bb54a	0.19893375
21	0x3dc865ab	0.097850166
22	0xbcc6e48a	-0.024278898
23	0xbdc76236	-0.09735529
24	0xbe2353db	-0.15949957
25	0x3dac156c	0.084025234
26	0xbe001eeb	-0.12511794
27	0x3dff25b6	0.12458365
28	0xbdad6022	-0.084656015
29	0x3e0739d6	0.13205656
30	0x3da8d449	0.08243615
31	0x3dc38e27	0.09548598
32	0xbd373720	-0.044730306
33	0x3d890cba	0.066918805
34	0x3dbf0805	0.093277015
35	0x3bb1c633	0.0054252385
36	0x3bc708ab	0.0060740313
37	0xbe2a084a	-0.16604725
38	0x3e08c6c0	0.13357067
39	0x3d300f8a	0.04298357
40	0xbcc20ee1	-0.023688735
41	0x3d10e99d	0.03537904
42	0x3b1f18e1	0.0024276304
43	0xbd025e36	-0.031828128
44	0x3d0a2a22	0.033731587
45	0x3e1f1a6a	0.1553742
46	0xbe10980d	-0.14120503
47	0xbe030985	-0.127966
48	0x3dae5693	0.085126065
49	0xbdd299f0	-0.102832675
50	0xbcbed41b	-0.0232945
51	0x3e10c276	0.14136681
52	0xbdbdaf11	-0.09261907
53	0x3d930582	0.07178785
54	0x3e2780f4	0.16357785
55	0x3d6b2c41	0.05741525
56	0xbdd3ebb1	-0.10347689
57	0x3d07a9fa	0.033121087
58	0xbe2b6983	-0.16739468
59	0xbdce93bc	-0.10086772
60	0x3db9a789	0.09065158
61	0x3cd6b028	0.026207045
62	0x3d8b2ae2	0.067952886
63	0x3e49fcde	0.19725367
64	0x3cd3b6b2	0.025843952
65	0xbdf55f85	-0.119811095
66	0xbe5198da	-0.20468464
67	0xbd1800c8	-0.03711012
68	0x3de3158c	0.11088094
69	0xbd9474c3	-0.07248833
70	0x3d70c92d	0.058785606
71	0x3df264b1	0.118356116
72	0x3de84270	0.11340797
73	0x3d634748	0.0554879
74	0xbe04f090	-0.12982392
75	0xbd91f04a	-0.071259096
76	0x3b2fc453	0.00268199
77	0xbdbd0d7d	-0.09231088
78	0x3cbb5a61	0.022870244
79	0xbd859278	-0.06522077
80	0xbc4dec57	-0.012568555
81	0xbd58dfcc	-0.052947804
82	0x3d728efc	0.05921839
83	0xbe189339	-0.14899911
84	0x3d909e83	0.07061484
85	0xbb0f7d1a	-0.0021894635
86	0x3dac4ee2	0.08413483
87	0xbde9977a	-0.11405845
88	0xbe145272	-0.14484575
89	0x3d9389ec	0.07204041
90	0xbdb789cb	-0.08961829
91	0xbc35c844	-0.01109511
92	0xbe500e77	-0.20318018
93	0x3daf0762	0.0854633
94	0x3c42773f	0.011869251
95	0x3df0afb2	0.11752261
96	0x3da845f7	0.0821647
97	0x3dd1591d	0.10222075
98	0xbe10341a	-0.14082375
99	0xbdec0f8c	-0.11526403
100	0xbdb804d4	-0.08985296
101	0x3e0aa8a4	0.13540894
102	0xbcbf301c	-0.02333837
103	0xbe2ad7b8	-0.16683853
104	0xbd42003e	-0.047363512
105	0xbd5426e8	-0.051794916
106	0x3e0996a5	0.13436373
107	0xbd7fccfa	-0.06245134
108	0x3de56fc5	0.11202959
109	0x3d4306f6	0.04761406
110	0x3cfaf932	0.030636404
111	0x3de965d5	0.11396376
112	0xbddd713a	-0.10812612
113	0xbb34d425	-0.0027592268
114	0xbd99c4c5	-0.07508234
115	0x3d5b21f0	0.053499162
116	0x3db5b245	0.08871893
117	0xbc7cb31a	-0.0154235605
118	0x3e230c34	0.15922624
119	0xbdcef801	-0.10105897
120	0x3e2aa9e5	0.16666372
121	0xbe2fc1fd	-0.17163844
122	0x3e3e81e2	0.18604234
123	0xbdb59d63	-0.0886791
124	0x3e410c82	0.18852428
125	0x3e4c0cee	0.19926807
126	0x3dda902f	0.10672032
127	0x3e497f4c	0.19677466

bias_hh_l0 f4 [128]
0	0x3d41fa62	0.047357924
1	0x3e07554a	0.13216129
2	0x3e26890b	0.16263215
3	0x3db277f8	0.087142885
4	0x3e327999	0.17429198
5	0xbb0f3112	-0.0021849317
6	0x3dde2677	0.1084718
7	0x3dda5d7f	0.10662364
8	0xbdb92aec	-0.0904139
9	0xbd916517	-0.070993595
10	0x3dbfada9	0.09359295
11	0x3e4b9ae9	0.19883312
12	0x3d93bf1e	0.07214187
13	0x3e0d3bbc	0.13792318
14	0x3dd99782	0.10624601
15	0xbe1e6729	-0.1546904
16	0x3e440a4b	0.19144551
17	0xbd5df495	-0.05418833
18	0x3d3b05fd	0.045660008
19	0x3c4f3c97	0.012648723
20	0x3e2bfcf9	0.1679572
21	0xbb4967b7	-0.0030731985
22	0xbdc67879	-0.09690947
23	0x3dd47ded	0.10375581
24	0xbd66a80f	-0.056312617
25	0xbe29c9ce	-0.16580889
26	0x3e3c9e6d	0.1841981
27	0x3d51f569	0.051259432
28	0x3da20a39	0.07912106
29	0x3e48e891	0.19619967
30	0x3d6ff13b	0.058579665
31	0xbe11e416	-0.14247164
32	0x3d17eb03	0.03708936
33	0xbdbe7c58	-0.093010604
34	0x3dd3f863	0.103501104
35	0x3ddaf8f9	0.10692019
36	0xbdf49596	-0.11942594
37	0xbd15bff9	-0.036560033
38	0x3e1be50e	0.15224096
39	0x3d8f948a	0.070107535
40	0xbd95f3ee	-0.073219165
41	0x3c7cb83c	0.015424784
42	0xbd651a9e	-0.055933587
43	0x3e3f303c	0.18670744
44	0x3e1905ae	0.14943573
45	0xbdd224c1	-0.102609165
46	0xbe180b1e	-0.14847991
47	0xbd01d1ba	-0.03169415
48	0x3e2efa26	0.17087612
49	0xbe280bea	-0.16410795
50	0x3e05e432	0.13075331
51	0xbdb3f4f2	-0.08786954
52	0xbc2a09d2	-0.010378318
53	0x3e2298a6	0.15878543
54	0x3d25eb7d	0.040507782
55	0x3e306d57	0.1722921
56	0xbd8ccf2e	-0.06875454
57	0xbd67733b	-0.056506377
58	0x3d71b8ab	0.059014004
59	0x3d245a43	0.040125143
60	0x3d8a4609	0.067516394
61	0x3dc8997c	0.097949
62	0x3debe3cd	0.11518059
63	0xbe1b47c7	-0.151641
64	0x3dd8d4c7	0.10587459
65	0x3e0268b0	0.12735248
66	0xbdae7ec8	-0.08520275
67	0x3d8a7253	0.06760087
68	0x3e26ca7b	0.16288178
69	0x3e009d41	0.12559988
70	0x3e005a89	0.12534536
71	0xbc1d7680	-0.009610772
72	0xbdc95669	-0.098309346
73	0xbd78f505	-0.060780544
74	0xbe4a7121	-0.19769718
75	0x3c53e469	0.012932875
76	0x3d66d0d7	0.05635151
77	0xbd8c1328	-0.06839591
78	0x3e1494a3	0.14509825
79	0xbdbe8016	-0.09301774
80	0xbe304d69	-0.1721703
81	0xbda5215f	-0.08063006
82	0xbd7b8f82	-0.061416157
83	0xbc753b9b	-0.014967824
84	0xbd847931	-0.06468428
85	0x3e1b9697	0.15194164
86	0x3d13deed	0.03610127
87	0xbe11fc10	-0.1425631
88	0x3d92b0db	0.07162639
89	0x3cd7494c	0.026280068
90	0xbcfb0f16	-0.030646842
91	0x3dfe6955	0.12422434
92	0x3dace1df	0.08441519
93	0x3e34febd	0.176753
94	0xbe045e12	-0.1292651
95	0x3de39ed5	0.11114279
96	0x3e40e975	0.18839057
97	0xbde251a2	-0.110507265
98	0xbe04313f	-0.12909411
99	0xbdca6fab	-0.0988458
100	0x3e101ec7	0.1407424
101	0x3d5befcf	0.053695496
102	0xbdb12562	-0.08649708
103	0xbbc31f9e	-0.005954697
104	0x3dd7373f	0.10508584
105	0xbd974057	-0.07385319
106	0x3d673d31	0.05645484
107	0x3dda0868	0.106461346
108	0x3e41a1b9	0.18909349
109	0xbdc6f9e2	-0.0971563
110	0xbdfe5b40	-0.12419748
111	0xbe19ac28	-0.15007079
112	0x3c35e840	0.011102736
113	0x3e3baa0a	0.18326584
114	0xbd0881fd	-0.03332709
115	0x3e3fa2f8	0.18714511
116	0xbda37088	-0.07980448
117	0xbe17aedd	-0.14812799
118	0xbdd6d780	-0.10490322
119	0xbdd41de4	-0.10357264
120	0xbd8d723f	-0.06906556
121	0xbdce152c	-0.10062632
122	0xbd974def	-0.073879115
123	0x3d841a20	0.064502954
124	0x3e1a74af	0.15083574
125	0xbdabd82c	-0.08390841
126	0xbc11b6f4	-0.008893717
127	0xbccf346c	-0.025293551
